program(1.0)
[buildInfo = dict<tensor<string, []>, tensor<string, []>>({{"coremlc-component-MIL", "3405.2.1"}, {"coremlc-version", "3404.23.1"}, {"coremltools-component-tensorflow", "2.16.2"}, {"coremltools-version", "8.2"}})]
{
    func main<ios15>(tensor<fp32, [1, 3, 320, 576]> input) {
            tensor<int32, []> model_concatenate_concat_axis = const()[name = tensor<string, []>("model_concatenate_concat_axis"), val = tensor<int32, []>(1)];
            tensor<int32, []> model_concatenate_3_concat_axis = const()[name = tensor<string, []>("model_concatenate_3_concat_axis"), val = tensor<int32, []>(1)];
            tensor<int32, []> model_concatenate_5_concat_axis = const()[name = tensor<string, []>("model_concatenate_5_concat_axis"), val = tensor<int32, []>(1)];
            tensor<int32, []> model_concatenate_8_concat_axis = const()[name = tensor<string, []>("model_concatenate_8_concat_axis"), val = tensor<int32, []>(1)];
            tensor<int32, []> model_concatenate_11_concat_axis = const()[name = tensor<string, []>("model_concatenate_11_concat_axis"), val = tensor<int32, []>(1)];
            tensor<int32, []> model_concatenate_14_concat_axis = const()[name = tensor<string, []>("model_concatenate_14_concat_axis"), val = tensor<int32, []>(1)];
            tensor<int32, []> model_concatenate_18_concat_axis = const()[name = tensor<string, []>("model_concatenate_18_concat_axis"), val = tensor<int32, []>(1)];
            tensor<fp32, [128]> model_batch_normalization_2_ReadVariableOp = const()[name = tensor<string, []>("model_batch_normalization_2_ReadVariableOp"), val = tensor<fp32, [128]>(BLOBFILE(path = tensor<string, []>("@model_path/weights/weight.bin"), offset = tensor<uint64, []>(64)))];
            tensor<fp32, [128]> model_batch_normalization_2_ReadVariableOp_1 = const()[name = tensor<string, []>("model_batch_normalization_2_ReadVariableOp_1"), val = tensor<fp32, [128]>(BLOBFILE(path = tensor<string, []>("@model_path/weights/weight.bin"), offset = tensor<uint64, []>(640)))];
            tensor<fp32, [128]> model_batch_normalization_2_FusedBatchNormV3_ReadVariableOp = const()[name = tensor<string, []>("model_batch_normalization_2_FusedBatchNormV3_ReadVariableOp"), val = tensor<fp32, [128]>(BLOBFILE(path = tensor<string, []>("@model_path/weights/weight.bin"), offset = tensor<uint64, []>(1216)))];
            tensor<fp32, [128]> model_batch_normalization_2_FusedBatchNormV3_ReadVariableOp_1 = const()[name = tensor<string, []>("model_batch_normalization_2_FusedBatchNormV3_ReadVariableOp_1"), val = tensor<fp32, [128]>(BLOBFILE(path = tensor<string, []>("@model_path/weights/weight.bin"), offset = tensor<uint64, []>(1792)))];
            tensor<fp32, [128]> model_batch_normalization_3_ReadVariableOp = const()[name = tensor<string, []>("model_batch_normalization_3_ReadVariableOp"), val = tensor<fp32, [128]>(BLOBFILE(path = tensor<string, []>("@model_path/weights/weight.bin"), offset = tensor<uint64, []>(2368)))];
            tensor<fp32, [128]> model_batch_normalization_3_ReadVariableOp_1 = const()[name = tensor<string, []>("model_batch_normalization_3_ReadVariableOp_1"), val = tensor<fp32, [128]>(BLOBFILE(path = tensor<string, []>("@model_path/weights/weight.bin"), offset = tensor<uint64, []>(2944)))];
            tensor<fp32, [128]> model_batch_normalization_3_FusedBatchNormV3_ReadVariableOp = const()[name = tensor<string, []>("model_batch_normalization_3_FusedBatchNormV3_ReadVariableOp"), val = tensor<fp32, [128]>(BLOBFILE(path = tensor<string, []>("@model_path/weights/weight.bin"), offset = tensor<uint64, []>(3520)))];
            tensor<fp32, [128]> model_batch_normalization_3_FusedBatchNormV3_ReadVariableOp_1 = const()[name = tensor<string, []>("model_batch_normalization_3_FusedBatchNormV3_ReadVariableOp_1"), val = tensor<fp32, [128]>(BLOBFILE(path = tensor<string, []>("@model_path/weights/weight.bin"), offset = tensor<uint64, []>(4096)))];
            tensor<string, []> input_to_fp16_dtype_0 = const()[name = tensor<string, []>("input_to_fp16_dtype_0"), val = tensor<string, []>("fp16")];
            tensor<fp16, []> model_rescaling_Cast_x_to_fp16 = const()[name = tensor<string, []>("model_rescaling_Cast_x_to_fp16"), val = tensor<fp16, []>(0x1.01p-7)];
            tensor<fp16, [1, 3, 320, 576]> input_to_fp16 = cast(dtype = input_to_fp16_dtype_0, x = input)[name = tensor<string, []>("cast_86")];
            tensor<fp16, [1, 3, 320, 576]> model_rescaling_mul_cast_fp16 = mul(x = input_to_fp16, y = model_rescaling_Cast_x_to_fp16)[name = tensor<string, []>("model_rescaling_mul_cast_fp16")];
            tensor<fp16, []> model_rescaling_Cast_1_to_fp16 = const()[name = tensor<string, []>("model_rescaling_Cast_1_to_fp16"), val = tensor<fp16, []>(-0x1p+0)];
            tensor<fp16, [1, 3, 320, 576]> model_rescaling_add_cast_fp16 = add(x = model_rescaling_mul_cast_fp16, y = model_rescaling_Cast_1_to_fp16)[name = tensor<string, []>("model_rescaling_add_cast_fp16")];
            tensor<string, []> model_Conv_Conv2Dx_pad_type_0 = const()[name = tensor<string, []>("model_Conv_Conv2Dx_pad_type_0"), val = tensor<string, []>("same")];
            tensor<int32, [2]> model_Conv_Conv2Dx_strides_0 = const()[name = tensor<string, []>("model_Conv_Conv2Dx_strides_0"), val = tensor<int32, [2]>([2, 2])];
            tensor<int32, [2]> model_Conv_Conv2Dx_dilations_0 = const()[name = tensor<string, []>("model_Conv_Conv2Dx_dilations_0"), val = tensor<int32, [2]>([1, 1])];
            tensor<int32, []> model_Conv_Conv2Dx_groups_0 = const()[name = tensor<string, []>("model_Conv_Conv2Dx_groups_0"), val = tensor<int32, []>(1)];
            tensor<int32, [4]> model_Conv_Conv2Dx_pad_0 = const()[name = tensor<string, []>("model_Conv_Conv2Dx_pad_0"), val = tensor<int32, [4]>([0, 0, 0, 0])];
            tensor<fp16, [16, 3, 3, 3]> const_209_to_fp16 = const()[name = tensor<string, []>("const_209_to_fp16"), val = tensor<fp16, [16, 3, 3, 3]>(BLOBFILE(path = tensor<string, []>("@model_path/weights/weight.bin"), offset = tensor<uint64, []>(4672)))];
            tensor<fp16, [16]> const_210_to_fp16 = const()[name = tensor<string, []>("const_210_to_fp16"), val = tensor<fp16, [16]>(BLOBFILE(path = tensor<string, []>("@model_path/weights/weight.bin"), offset = tensor<uint64, []>(5632)))];
            tensor<fp16, [1, 16, 160, 288]> model_Conv_BatchNorm_FusedBatchNormV3_nchw_cast_fp16 = conv(bias = const_210_to_fp16, dilations = model_Conv_Conv2Dx_dilations_0, groups = model_Conv_Conv2Dx_groups_0, pad = model_Conv_Conv2Dx_pad_0, pad_type = model_Conv_Conv2Dx_pad_type_0, strides = model_Conv_Conv2Dx_strides_0, weight = const_209_to_fp16, x = model_rescaling_add_cast_fp16)[name = tensor<string, []>("model_Conv_BatchNorm_FusedBatchNormV3_nchw_cast_fp16")];
            tensor<fp16, []> model_tf___operators___add_y_to_fp16 = const()[name = tensor<string, []>("model_tf___operators___add_y_to_fp16"), val = tensor<fp16, []>(0x1.8p+1)];
            tensor<fp16, [1, 16, 160, 288]> model_tf___operators___add_AddV2_cast_fp16 = add(x = model_Conv_BatchNorm_FusedBatchNormV3_nchw_cast_fp16, y = model_tf___operators___add_y_to_fp16)[name = tensor<string, []>("model_tf___operators___add_AddV2_cast_fp16")];
            tensor<fp16, [1, 16, 160, 288]> model_re_lu_Relu6_cast_fp16 = relu6(x = model_tf___operators___add_AddV2_cast_fp16)[name = tensor<string, []>("model_re_lu_Relu6_cast_fp16")];
            tensor<fp16, []> model_tf_math_multiply_Mul_y_to_fp16 = const()[name = tensor<string, []>("model_tf_math_multiply_Mul_y_to_fp16"), val = tensor<fp16, []>(0x1.554p-3)];
            tensor<fp16, [1, 16, 160, 288]> model_tf_math_multiply_Mul_cast_fp16 = mul(x = model_re_lu_Relu6_cast_fp16, y = model_tf_math_multiply_Mul_y_to_fp16)[name = tensor<string, []>("model_tf_math_multiply_Mul_cast_fp16")];
            tensor<fp16, [1, 16, 160, 288]> model_multiply_mul_cast_fp16 = mul(x = model_Conv_BatchNorm_FusedBatchNormV3_nchw_cast_fp16, y = model_tf_math_multiply_Mul_cast_fp16)[name = tensor<string, []>("model_multiply_mul_cast_fp16")];
            tensor<string, []> model_expanded_conv_depthwise_depthwisex_pad_type_0 = const()[name = tensor<string, []>("model_expanded_conv_depthwise_depthwisex_pad_type_0"), val = tensor<string, []>("same")];
            tensor<int32, [2]> model_expanded_conv_depthwise_depthwisex_strides_0 = const()[name = tensor<string, []>("model_expanded_conv_depthwise_depthwisex_strides_0"), val = tensor<int32, [2]>([1, 1])];
            tensor<int32, [2]> model_expanded_conv_depthwise_depthwisex_dilations_0 = const()[name = tensor<string, []>("model_expanded_conv_depthwise_depthwisex_dilations_0"), val = tensor<int32, [2]>([1, 1])];
            tensor<int32, []> model_expanded_conv_depthwise_depthwisex_groups_0 = const()[name = tensor<string, []>("model_expanded_conv_depthwise_depthwisex_groups_0"), val = tensor<int32, []>(16)];
            tensor<int32, [4]> model_expanded_conv_depthwise_depthwisex_pad_0 = const()[name = tensor<string, []>("model_expanded_conv_depthwise_depthwisex_pad_0"), val = tensor<int32, [4]>([0, 0, 0, 0])];
            tensor<fp16, [16, 1, 3, 3]> const_211_to_fp16 = const()[name = tensor<string, []>("const_211_to_fp16"), val = tensor<fp16, [16, 1, 3, 3]>(BLOBFILE(path = tensor<string, []>("@model_path/weights/weight.bin"), offset = tensor<uint64, []>(5760)))];
            tensor<fp16, [16]> const_212_to_fp16 = const()[name = tensor<string, []>("const_212_to_fp16"), val = tensor<fp16, [16]>(BLOBFILE(path = tensor<string, []>("@model_path/weights/weight.bin"), offset = tensor<uint64, []>(6144)))];
            tensor<fp16, [1, 16, 160, 288]> model_expanded_conv_depthwise_BatchNorm_FusedBatchNormV3_nchw_cast_fp16 = conv(bias = const_212_to_fp16, dilations = model_expanded_conv_depthwise_depthwisex_dilations_0, groups = model_expanded_conv_depthwise_depthwisex_groups_0, pad = model_expanded_conv_depthwise_depthwisex_pad_0, pad_type = model_expanded_conv_depthwise_depthwisex_pad_type_0, strides = model_expanded_conv_depthwise_depthwisex_strides_0, weight = const_211_to_fp16, x = model_multiply_mul_cast_fp16)[name = tensor<string, []>("model_expanded_conv_depthwise_BatchNorm_FusedBatchNormV3_nchw_cast_fp16")];
            tensor<fp16, [1, 16, 160, 288]> model_re_lu_1_Relu_cast_fp16 = relu(x = model_expanded_conv_depthwise_BatchNorm_FusedBatchNormV3_nchw_cast_fp16)[name = tensor<string, []>("model_re_lu_1_Relu_cast_fp16")];
            tensor<string, []> model_expanded_conv_project_Conv2Dx_pad_type_0 = const()[name = tensor<string, []>("model_expanded_conv_project_Conv2Dx_pad_type_0"), val = tensor<string, []>("same")];
            tensor<int32, [2]> model_expanded_conv_project_Conv2Dx_strides_0 = const()[name = tensor<string, []>("model_expanded_conv_project_Conv2Dx_strides_0"), val = tensor<int32, [2]>([1, 1])];
            tensor<int32, [2]> model_expanded_conv_project_Conv2Dx_dilations_0 = const()[name = tensor<string, []>("model_expanded_conv_project_Conv2Dx_dilations_0"), val = tensor<int32, [2]>([1, 1])];
            tensor<int32, []> model_expanded_conv_project_Conv2Dx_groups_0 = const()[name = tensor<string, []>("model_expanded_conv_project_Conv2Dx_groups_0"), val = tensor<int32, []>(1)];
            tensor<int32, [4]> model_expanded_conv_project_Conv2Dx_pad_0 = const()[name = tensor<string, []>("model_expanded_conv_project_Conv2Dx_pad_0"), val = tensor<int32, [4]>([0, 0, 0, 0])];
            tensor<fp16, [16, 16, 1, 1]> const_213_to_fp16 = const()[name = tensor<string, []>("const_213_to_fp16"), val = tensor<fp16, [16, 16, 1, 1]>(BLOBFILE(path = tensor<string, []>("@model_path/weights/weight.bin"), offset = tensor<uint64, []>(6272)))];
            tensor<fp16, [16]> const_214_to_fp16 = const()[name = tensor<string, []>("const_214_to_fp16"), val = tensor<fp16, [16]>(BLOBFILE(path = tensor<string, []>("@model_path/weights/weight.bin"), offset = tensor<uint64, []>(6848)))];
            tensor<fp16, [1, 16, 160, 288]> model_expanded_conv_project_BatchNorm_FusedBatchNormV3_nchw_cast_fp16 = conv(bias = const_214_to_fp16, dilations = model_expanded_conv_project_Conv2Dx_dilations_0, groups = model_expanded_conv_project_Conv2Dx_groups_0, pad = model_expanded_conv_project_Conv2Dx_pad_0, pad_type = model_expanded_conv_project_Conv2Dx_pad_type_0, strides = model_expanded_conv_project_Conv2Dx_strides_0, weight = const_213_to_fp16, x = model_re_lu_1_Relu_cast_fp16)[name = tensor<string, []>("model_expanded_conv_project_BatchNorm_FusedBatchNormV3_nchw_cast_fp16")];
            tensor<fp16, [1, 16, 160, 288]> model_expanded_conv_Add_add_cast_fp16 = add(x = model_multiply_mul_cast_fp16, y = model_expanded_conv_project_BatchNorm_FusedBatchNormV3_nchw_cast_fp16)[name = tensor<string, []>("model_expanded_conv_Add_add_cast_fp16")];
            tensor<string, []> model_expanded_conv_1_expand_Conv2Dx_pad_type_0 = const()[name = tensor<string, []>("model_expanded_conv_1_expand_Conv2Dx_pad_type_0"), val = tensor<string, []>("same")];
            tensor<int32, [2]> model_expanded_conv_1_expand_Conv2Dx_strides_0 = const()[name = tensor<string, []>("model_expanded_conv_1_expand_Conv2Dx_strides_0"), val = tensor<int32, [2]>([1, 1])];
            tensor<int32, [2]> model_expanded_conv_1_expand_Conv2Dx_dilations_0 = const()[name = tensor<string, []>("model_expanded_conv_1_expand_Conv2Dx_dilations_0"), val = tensor<int32, [2]>([1, 1])];
            tensor<int32, []> model_expanded_conv_1_expand_Conv2Dx_groups_0 = const()[name = tensor<string, []>("model_expanded_conv_1_expand_Conv2Dx_groups_0"), val = tensor<int32, []>(1)];
            tensor<int32, [4]> model_expanded_conv_1_expand_Conv2Dx_pad_0 = const()[name = tensor<string, []>("model_expanded_conv_1_expand_Conv2Dx_pad_0"), val = tensor<int32, [4]>([0, 0, 0, 0])];
            tensor<fp16, [64, 16, 1, 1]> const_215_to_fp16 = const()[name = tensor<string, []>("const_215_to_fp16"), val = tensor<fp16, [64, 16, 1, 1]>(BLOBFILE(path = tensor<string, []>("@model_path/weights/weight.bin"), offset = tensor<uint64, []>(6976)))];
            tensor<fp16, [64]> const_216_to_fp16 = const()[name = tensor<string, []>("const_216_to_fp16"), val = tensor<fp16, [64]>(BLOBFILE(path = tensor<string, []>("@model_path/weights/weight.bin"), offset = tensor<uint64, []>(9088)))];
            tensor<fp16, [1, 64, 160, 288]> model_expanded_conv_1_expand_BatchNorm_FusedBatchNormV3_nchw_cast_fp16 = conv(bias = const_216_to_fp16, dilations = model_expanded_conv_1_expand_Conv2Dx_dilations_0, groups = model_expanded_conv_1_expand_Conv2Dx_groups_0, pad = model_expanded_conv_1_expand_Conv2Dx_pad_0, pad_type = model_expanded_conv_1_expand_Conv2Dx_pad_type_0, strides = model_expanded_conv_1_expand_Conv2Dx_strides_0, weight = const_215_to_fp16, x = model_expanded_conv_Add_add_cast_fp16)[name = tensor<string, []>("model_expanded_conv_1_expand_BatchNorm_FusedBatchNormV3_nchw_cast_fp16")];
            tensor<fp16, [1, 64, 160, 288]> model_re_lu_2_Relu_cast_fp16 = relu(x = model_expanded_conv_1_expand_BatchNorm_FusedBatchNormV3_nchw_cast_fp16)[name = tensor<string, []>("model_re_lu_2_Relu_cast_fp16")];
            tensor<string, []> pad_0_mode_0 = const()[name = tensor<string, []>("pad_0_mode_0"), val = tensor<string, []>("constant")];
            tensor<string, []> model_conv2d_33_Conv2Dx_pad_type_0 = const()[name = tensor<string, []>("model_conv2d_33_Conv2Dx_pad_type_0"), val = tensor<string, []>("same")];
            tensor<int32, [2]> model_conv2d_33_Conv2Dx_strides_0 = const()[name = tensor<string, []>("model_conv2d_33_Conv2Dx_strides_0"), val = tensor<int32, [2]>([1, 1])];
            tensor<int32, [2]> model_conv2d_33_Conv2Dx_dilations_0 = const()[name = tensor<string, []>("model_conv2d_33_Conv2Dx_dilations_0"), val = tensor<int32, [2]>([1, 1])];
            tensor<int32, []> model_conv2d_33_Conv2Dx_groups_0 = const()[name = tensor<string, []>("model_conv2d_33_Conv2Dx_groups_0"), val = tensor<int32, []>(1)];
            tensor<int32, [4]> model_conv2d_33_Conv2Dx_pad_0 = const()[name = tensor<string, []>("model_conv2d_33_Conv2Dx_pad_0"), val = tensor<int32, [4]>([0, 0, 0, 0])];
            tensor<fp16, [16, 64, 1, 1]> transpose_12_to_fp16 = const()[name = tensor<string, []>("transpose_12_to_fp16"), val = tensor<fp16, [16, 64, 1, 1]>(BLOBFILE(path = tensor<string, []>("@model_path/weights/weight.bin"), offset = tensor<uint64, []>(9280)))];
            tensor<fp16, [16]> const_116_to_fp16 = const()[name = tensor<string, []>("const_116_to_fp16"), val = tensor<fp16, [16]>(BLOBFILE(path = tensor<string, []>("@model_path/weights/weight.bin"), offset = tensor<uint64, []>(11392)))];
            tensor<fp16, [1, 16, 160, 288]> model_conv2d_33_BiasAdd_cast_fp16 = conv(bias = const_116_to_fp16, dilations = model_conv2d_33_Conv2Dx_dilations_0, groups = model_conv2d_33_Conv2Dx_groups_0, pad = model_conv2d_33_Conv2Dx_pad_0, pad_type = model_conv2d_33_Conv2Dx_pad_type_0, strides = model_conv2d_33_Conv2Dx_strides_0, weight = transpose_12_to_fp16, x = model_re_lu_2_Relu_cast_fp16)[name = tensor<string, []>("model_conv2d_33_BiasAdd_cast_fp16")];
            tensor<int32, [8]> pad_4_pad_0 = const()[name = tensor<string, []>("pad_4_pad_0"), val = tensor<int32, [8]>([0, 0, 0, 0, 0, 1, 0, 1])];
            tensor<fp16, []> const_0_to_fp16 = const()[name = tensor<string, []>("const_0_to_fp16"), val = tensor<fp16, []>(0x0p+0)];
            tensor<fp16, [1, 64, 161, 289]> pad_4_cast_fp16 = pad(constant_val = const_0_to_fp16, mode = pad_0_mode_0, pad = pad_4_pad_0, x = model_re_lu_2_Relu_cast_fp16)[name = tensor<string, []>("pad_4_cast_fp16")];
            tensor<string, []> model_expanded_conv_1_depthwise_depthwisex_pad_type_0 = const()[name = tensor<string, []>("model_expanded_conv_1_depthwise_depthwisex_pad_type_0"), val = tensor<string, []>("valid")];
            tensor<int32, [2]> model_expanded_conv_1_depthwise_depthwisex_strides_0 = const()[name = tensor<string, []>("model_expanded_conv_1_depthwise_depthwisex_strides_0"), val = tensor<int32, [2]>([2, 2])];
            tensor<int32, [2]> model_expanded_conv_1_depthwise_depthwisex_dilations_0 = const()[name = tensor<string, []>("model_expanded_conv_1_depthwise_depthwisex_dilations_0"), val = tensor<int32, [2]>([1, 1])];
            tensor<int32, []> model_expanded_conv_1_depthwise_depthwisex_groups_0 = const()[name = tensor<string, []>("model_expanded_conv_1_depthwise_depthwisex_groups_0"), val = tensor<int32, []>(64)];
            tensor<int32, [4]> model_expanded_conv_1_depthwise_depthwisex_pad_0 = const()[name = tensor<string, []>("model_expanded_conv_1_depthwise_depthwisex_pad_0"), val = tensor<int32, [4]>([0, 0, 0, 0])];
            tensor<fp16, [64, 1, 3, 3]> const_217_to_fp16 = const()[name = tensor<string, []>("const_217_to_fp16"), val = tensor<fp16, [64, 1, 3, 3]>(BLOBFILE(path = tensor<string, []>("@model_path/weights/weight.bin"), offset = tensor<uint64, []>(11520)))];
            tensor<fp16, [64]> const_218_to_fp16 = const()[name = tensor<string, []>("const_218_to_fp16"), val = tensor<fp16, [64]>(BLOBFILE(path = tensor<string, []>("@model_path/weights/weight.bin"), offset = tensor<uint64, []>(12736)))];
            tensor<fp16, [1, 64, 80, 144]> model_expanded_conv_1_depthwise_BatchNorm_FusedBatchNormV3_nchw_cast_fp16 = conv(bias = const_218_to_fp16, dilations = model_expanded_conv_1_depthwise_depthwisex_dilations_0, groups = model_expanded_conv_1_depthwise_depthwisex_groups_0, pad = model_expanded_conv_1_depthwise_depthwisex_pad_0, pad_type = model_expanded_conv_1_depthwise_depthwisex_pad_type_0, strides = model_expanded_conv_1_depthwise_depthwisex_strides_0, weight = const_217_to_fp16, x = pad_4_cast_fp16)[name = tensor<string, []>("model_expanded_conv_1_depthwise_BatchNorm_FusedBatchNormV3_nchw_cast_fp16")];
            tensor<int32, [2]> model_global_average_pooling2d_7_Mean_axes_0 = const()[name = tensor<string, []>("model_global_average_pooling2d_7_Mean_axes_0"), val = tensor<int32, [2]>([1, 2])];
            tensor<bool, []> model_global_average_pooling2d_7_Mean_keep_dims_0 = const()[name = tensor<string, []>("model_global_average_pooling2d_7_Mean_keep_dims_0"), val = tensor<bool, []>(false)];
            tensor<int32, [4]> transpose_369_perm_0 = const()[name = tensor<string, []>("transpose_369_perm_0"), val = tensor<int32, [4]>([0, 2, 3, 1])];
            tensor<fp16, [1, 160, 288, 16]> transpose_369_cast_fp16 = transpose(perm = transpose_369_perm_0, x = model_conv2d_33_BiasAdd_cast_fp16)[name = tensor<string, []>("transpose_401")];
            tensor<fp16, [1, 16]> model_global_average_pooling2d_7_Mean_cast_fp16 = reduce_mean(axes = model_global_average_pooling2d_7_Mean_axes_0, keep_dims = model_global_average_pooling2d_7_Mean_keep_dims_0, x = transpose_369_cast_fp16)[name = tensor<string, []>("model_global_average_pooling2d_7_Mean_cast_fp16")];
            tensor<int32, [2]> model_global_max_pooling2d_4_Max_axes_0 = const()[name = tensor<string, []>("model_global_max_pooling2d_4_Max_axes_0"), val = tensor<int32, [2]>([1, 2])];
            tensor<bool, []> model_global_max_pooling2d_4_Max_keep_dims_0 = const()[name = tensor<string, []>("model_global_max_pooling2d_4_Max_keep_dims_0"), val = tensor<bool, []>(false)];
            tensor<fp16, [1, 16]> model_global_max_pooling2d_4_Max_cast_fp16 = reduce_max(axes = model_global_max_pooling2d_4_Max_axes_0, keep_dims = model_global_max_pooling2d_4_Max_keep_dims_0, x = transpose_369_cast_fp16)[name = tensor<string, []>("model_global_max_pooling2d_4_Max_cast_fp16")];
            tensor<fp16, [1, 64, 80, 144]> model_re_lu_3_Relu_cast_fp16 = relu(x = model_expanded_conv_1_depthwise_BatchNorm_FusedBatchNormV3_nchw_cast_fp16)[name = tensor<string, []>("model_re_lu_3_Relu_cast_fp16")];
            tensor<bool, []> model_concatenate_11_concat_interleave_0 = const()[name = tensor<string, []>("model_concatenate_11_concat_interleave_0"), val = tensor<bool, []>(false)];
            tensor<fp16, [1, 32]> model_concatenate_11_concat_cast_fp16 = concat(axis = model_concatenate_11_concat_axis, interleave = model_concatenate_11_concat_interleave_0, values = (model_global_average_pooling2d_7_Mean_cast_fp16, model_global_max_pooling2d_4_Max_cast_fp16))[name = tensor<string, []>("model_concatenate_11_concat_cast_fp16")];
            tensor<string, []> model_expanded_conv_1_project_Conv2Dx_pad_type_0 = const()[name = tensor<string, []>("model_expanded_conv_1_project_Conv2Dx_pad_type_0"), val = tensor<string, []>("same")];
            tensor<int32, [2]> model_expanded_conv_1_project_Conv2Dx_strides_0 = const()[name = tensor<string, []>("model_expanded_conv_1_project_Conv2Dx_strides_0"), val = tensor<int32, [2]>([1, 1])];
            tensor<int32, [2]> model_expanded_conv_1_project_Conv2Dx_dilations_0 = const()[name = tensor<string, []>("model_expanded_conv_1_project_Conv2Dx_dilations_0"), val = tensor<int32, [2]>([1, 1])];
            tensor<int32, []> model_expanded_conv_1_project_Conv2Dx_groups_0 = const()[name = tensor<string, []>("model_expanded_conv_1_project_Conv2Dx_groups_0"), val = tensor<int32, []>(1)];
            tensor<int32, [4]> model_expanded_conv_1_project_Conv2Dx_pad_0 = const()[name = tensor<string, []>("model_expanded_conv_1_project_Conv2Dx_pad_0"), val = tensor<int32, [4]>([0, 0, 0, 0])];
            tensor<fp16, [24, 64, 1, 1]> const_219_to_fp16 = const()[name = tensor<string, []>("const_219_to_fp16"), val = tensor<fp16, [24, 64, 1, 1]>(BLOBFILE(path = tensor<string, []>("@model_path/weights/weight.bin"), offset = tensor<uint64, []>(12928)))];
            tensor<fp16, [24]> const_220_to_fp16 = const()[name = tensor<string, []>("const_220_to_fp16"), val = tensor<fp16, [24]>(BLOBFILE(path = tensor<string, []>("@model_path/weights/weight.bin"), offset = tensor<uint64, []>(16064)))];
            tensor<fp16, [1, 24, 80, 144]> model_expanded_conv_1_project_BatchNorm_FusedBatchNormV3_nchw_cast_fp16 = conv(bias = const_220_to_fp16, dilations = model_expanded_conv_1_project_Conv2Dx_dilations_0, groups = model_expanded_conv_1_project_Conv2Dx_groups_0, pad = model_expanded_conv_1_project_Conv2Dx_pad_0, pad_type = model_expanded_conv_1_project_Conv2Dx_pad_type_0, strides = model_expanded_conv_1_project_Conv2Dx_strides_0, weight = const_219_to_fp16, x = model_re_lu_3_Relu_cast_fp16)[name = tensor<string, []>("model_expanded_conv_1_project_BatchNorm_FusedBatchNormV3_nchw_cast_fp16")];
            tensor<fp16, [4, 32]> transpose_345_cast_fp16_to_fp32_to_fp16 = const()[name = tensor<string, []>("transpose_345_cast_fp16_to_fp32_to_fp16"), val = tensor<fp16, [4, 32]>(BLOBFILE(path = tensor<string, []>("@model_path/weights/weight.bin"), offset = tensor<uint64, []>(16192)))];
            tensor<fp16, [4]> model_dense_13_BiasAdd_bias_0_to_fp16 = const()[name = tensor<string, []>("model_dense_13_BiasAdd_bias_0_to_fp16"), val = tensor<fp16, [4]>([0x1.23p-5, -0x1.dd4p-4, 0x1.0ccp-2, -0x1.998p-5])];
            tensor<fp16, [1, 4]> model_dense_13_BiasAdd_cast_fp16 = linear(bias = model_dense_13_BiasAdd_bias_0_to_fp16, weight = transpose_345_cast_fp16_to_fp32_to_fp16, x = model_concatenate_11_concat_cast_fp16)[name = tensor<string, []>("model_dense_13_BiasAdd_cast_fp16")];
            tensor<string, []> model_expanded_conv_2_expand_Conv2Dx_pad_type_0 = const()[name = tensor<string, []>("model_expanded_conv_2_expand_Conv2Dx_pad_type_0"), val = tensor<string, []>("same")];
            tensor<int32, [2]> model_expanded_conv_2_expand_Conv2Dx_strides_0 = const()[name = tensor<string, []>("model_expanded_conv_2_expand_Conv2Dx_strides_0"), val = tensor<int32, [2]>([1, 1])];
            tensor<int32, [2]> model_expanded_conv_2_expand_Conv2Dx_dilations_0 = const()[name = tensor<string, []>("model_expanded_conv_2_expand_Conv2Dx_dilations_0"), val = tensor<int32, [2]>([1, 1])];
            tensor<int32, []> model_expanded_conv_2_expand_Conv2Dx_groups_0 = const()[name = tensor<string, []>("model_expanded_conv_2_expand_Conv2Dx_groups_0"), val = tensor<int32, []>(1)];
            tensor<int32, [4]> model_expanded_conv_2_expand_Conv2Dx_pad_0 = const()[name = tensor<string, []>("model_expanded_conv_2_expand_Conv2Dx_pad_0"), val = tensor<int32, [4]>([0, 0, 0, 0])];
            tensor<fp16, [72, 24, 1, 1]> const_221_to_fp16 = const()[name = tensor<string, []>("const_221_to_fp16"), val = tensor<fp16, [72, 24, 1, 1]>(BLOBFILE(path = tensor<string, []>("@model_path/weights/weight.bin"), offset = tensor<uint64, []>(16512)))];
            tensor<fp16, [72]> const_222_to_fp16 = const()[name = tensor<string, []>("const_222_to_fp16"), val = tensor<fp16, [72]>(BLOBFILE(path = tensor<string, []>("@model_path/weights/weight.bin"), offset = tensor<uint64, []>(20032)))];
            tensor<fp16, [1, 72, 80, 144]> model_expanded_conv_2_expand_BatchNorm_FusedBatchNormV3_nchw_cast_fp16 = conv(bias = const_222_to_fp16, dilations = model_expanded_conv_2_expand_Conv2Dx_dilations_0, groups = model_expanded_conv_2_expand_Conv2Dx_groups_0, pad = model_expanded_conv_2_expand_Conv2Dx_pad_0, pad_type = model_expanded_conv_2_expand_Conv2Dx_pad_type_0, strides = model_expanded_conv_2_expand_Conv2Dx_strides_0, weight = const_221_to_fp16, x = model_expanded_conv_1_project_BatchNorm_FusedBatchNormV3_nchw_cast_fp16)[name = tensor<string, []>("model_expanded_conv_2_expand_BatchNorm_FusedBatchNormV3_nchw_cast_fp16")];
            tensor<fp16, [1, 4]> model_dense_13_Relu_cast_fp16 = relu(x = model_dense_13_BiasAdd_cast_fp16)[name = tensor<string, []>("model_dense_13_Relu_cast_fp16")];
            tensor<fp16, [16, 4]> transpose_346_cast_fp16_to_fp32_to_fp16 = const()[name = tensor<string, []>("transpose_346_cast_fp16_to_fp32_to_fp16"), val = tensor<fp16, [16, 4]>(BLOBFILE(path = tensor<string, []>("@model_path/weights/weight.bin"), offset = tensor<uint64, []>(20288)))];
            tensor<fp16, [16]> model_dense_14_BiasAdd_bias_0_to_fp16 = const()[name = tensor<string, []>("model_dense_14_BiasAdd_bias_0_to_fp16"), val = tensor<fp16, [16]>(BLOBFILE(path = tensor<string, []>("@model_path/weights/weight.bin"), offset = tensor<uint64, []>(20480)))];
            tensor<fp16, [1, 16]> model_dense_14_BiasAdd_cast_fp16 = linear(bias = model_dense_14_BiasAdd_bias_0_to_fp16, weight = transpose_346_cast_fp16_to_fp32_to_fp16, x = model_dense_13_Relu_cast_fp16)[name = tensor<string, []>("model_dense_14_BiasAdd_cast_fp16")];
            tensor<fp16, [1, 72, 80, 144]> model_re_lu_4_Relu_cast_fp16 = relu(x = model_expanded_conv_2_expand_BatchNorm_FusedBatchNormV3_nchw_cast_fp16)[name = tensor<string, []>("model_re_lu_4_Relu_cast_fp16")];
            tensor<string, []> model_expanded_conv_2_depthwise_depthwisex_pad_type_0 = const()[name = tensor<string, []>("model_expanded_conv_2_depthwise_depthwisex_pad_type_0"), val = tensor<string, []>("same")];
            tensor<int32, [2]> model_expanded_conv_2_depthwise_depthwisex_strides_0 = const()[name = tensor<string, []>("model_expanded_conv_2_depthwise_depthwisex_strides_0"), val = tensor<int32, [2]>([1, 1])];
            tensor<int32, [2]> model_expanded_conv_2_depthwise_depthwisex_dilations_0 = const()[name = tensor<string, []>("model_expanded_conv_2_depthwise_depthwisex_dilations_0"), val = tensor<int32, [2]>([1, 1])];
            tensor<int32, []> model_expanded_conv_2_depthwise_depthwisex_groups_0 = const()[name = tensor<string, []>("model_expanded_conv_2_depthwise_depthwisex_groups_0"), val = tensor<int32, []>(72)];
            tensor<int32, [4]> model_expanded_conv_2_depthwise_depthwisex_pad_0 = const()[name = tensor<string, []>("model_expanded_conv_2_depthwise_depthwisex_pad_0"), val = tensor<int32, [4]>([0, 0, 0, 0])];
            tensor<fp16, [72, 1, 3, 3]> const_223_to_fp16 = const()[name = tensor<string, []>("const_223_to_fp16"), val = tensor<fp16, [72, 1, 3, 3]>(BLOBFILE(path = tensor<string, []>("@model_path/weights/weight.bin"), offset = tensor<uint64, []>(20608)))];
            tensor<fp16, [72]> const_224_to_fp16 = const()[name = tensor<string, []>("const_224_to_fp16"), val = tensor<fp16, [72]>(BLOBFILE(path = tensor<string, []>("@model_path/weights/weight.bin"), offset = tensor<uint64, []>(22016)))];
            tensor<fp16, [1, 72, 80, 144]> model_expanded_conv_2_depthwise_BatchNorm_FusedBatchNormV3_nchw_cast_fp16 = conv(bias = const_224_to_fp16, dilations = model_expanded_conv_2_depthwise_depthwisex_dilations_0, groups = model_expanded_conv_2_depthwise_depthwisex_groups_0, pad = model_expanded_conv_2_depthwise_depthwisex_pad_0, pad_type = model_expanded_conv_2_depthwise_depthwisex_pad_type_0, strides = model_expanded_conv_2_depthwise_depthwisex_strides_0, weight = const_223_to_fp16, x = model_re_lu_4_Relu_cast_fp16)[name = tensor<string, []>("model_expanded_conv_2_depthwise_BatchNorm_FusedBatchNormV3_nchw_cast_fp16")];
            tensor<fp16, [1, 16]> model_dense_14_Sigmoid_cast_fp16 = sigmoid(x = model_dense_14_BiasAdd_cast_fp16)[name = tensor<string, []>("model_dense_14_Sigmoid_cast_fp16")];
            tensor<fp16, [1, 72, 80, 144]> model_re_lu_5_Relu_cast_fp16 = relu(x = model_expanded_conv_2_depthwise_BatchNorm_FusedBatchNormV3_nchw_cast_fp16)[name = tensor<string, []>("model_re_lu_5_Relu_cast_fp16")];
            tensor<string, []> model_expanded_conv_2_project_Conv2Dx_pad_type_0 = const()[name = tensor<string, []>("model_expanded_conv_2_project_Conv2Dx_pad_type_0"), val = tensor<string, []>("same")];
            tensor<int32, [2]> model_expanded_conv_2_project_Conv2Dx_strides_0 = const()[name = tensor<string, []>("model_expanded_conv_2_project_Conv2Dx_strides_0"), val = tensor<int32, [2]>([1, 1])];
            tensor<int32, [2]> model_expanded_conv_2_project_Conv2Dx_dilations_0 = const()[name = tensor<string, []>("model_expanded_conv_2_project_Conv2Dx_dilations_0"), val = tensor<int32, [2]>([1, 1])];
            tensor<int32, []> model_expanded_conv_2_project_Conv2Dx_groups_0 = const()[name = tensor<string, []>("model_expanded_conv_2_project_Conv2Dx_groups_0"), val = tensor<int32, []>(1)];
            tensor<int32, [4]> model_expanded_conv_2_project_Conv2Dx_pad_0 = const()[name = tensor<string, []>("model_expanded_conv_2_project_Conv2Dx_pad_0"), val = tensor<int32, [4]>([0, 0, 0, 0])];
            tensor<fp16, [24, 72, 1, 1]> const_225_to_fp16 = const()[name = tensor<string, []>("const_225_to_fp16"), val = tensor<fp16, [24, 72, 1, 1]>(BLOBFILE(path = tensor<string, []>("@model_path/weights/weight.bin"), offset = tensor<uint64, []>(22272)))];
            tensor<fp16, [24]> const_226_to_fp16 = const()[name = tensor<string, []>("const_226_to_fp16"), val = tensor<fp16, [24]>(BLOBFILE(path = tensor<string, []>("@model_path/weights/weight.bin"), offset = tensor<uint64, []>(25792)))];
            tensor<fp16, [1, 24, 80, 144]> model_expanded_conv_2_project_BatchNorm_FusedBatchNormV3_nchw_cast_fp16 = conv(bias = const_226_to_fp16, dilations = model_expanded_conv_2_project_Conv2Dx_dilations_0, groups = model_expanded_conv_2_project_Conv2Dx_groups_0, pad = model_expanded_conv_2_project_Conv2Dx_pad_0, pad_type = model_expanded_conv_2_project_Conv2Dx_pad_type_0, strides = model_expanded_conv_2_project_Conv2Dx_strides_0, weight = const_225_to_fp16, x = model_re_lu_5_Relu_cast_fp16)[name = tensor<string, []>("model_expanded_conv_2_project_BatchNorm_FusedBatchNormV3_nchw_cast_fp16")];
            tensor<fp16, [1, 24, 80, 144]> model_expanded_conv_2_Add_add_cast_fp16 = add(x = model_expanded_conv_1_project_BatchNorm_FusedBatchNormV3_nchw_cast_fp16, y = model_expanded_conv_2_project_BatchNorm_FusedBatchNormV3_nchw_cast_fp16)[name = tensor<string, []>("model_expanded_conv_2_Add_add_cast_fp16")];
            tensor<int32, [4]> reshape_23_shape_0 = const()[name = tensor<string, []>("reshape_23_shape_0"), val = tensor<int32, [4]>([1, 16, 1, 1])];
            tensor<fp16, [1, 16, 1, 1]> reshape_23_cast_fp16 = reshape(shape = reshape_23_shape_0, x = model_dense_14_Sigmoid_cast_fp16)[name = tensor<string, []>("reshape_23_cast_fp16")];
            tensor<fp16, [1, 16, 160, 288]> model_multiply_38_mul_cast_fp16 = mul(x = model_conv2d_33_BiasAdd_cast_fp16, y = reshape_23_cast_fp16)[name = tensor<string, []>("model_multiply_38_mul_cast_fp16")];
            tensor<string, []> model_expanded_conv_3_expand_Conv2Dx_pad_type_0 = const()[name = tensor<string, []>("model_expanded_conv_3_expand_Conv2Dx_pad_type_0"), val = tensor<string, []>("same")];
            tensor<int32, [2]> model_expanded_conv_3_expand_Conv2Dx_strides_0 = const()[name = tensor<string, []>("model_expanded_conv_3_expand_Conv2Dx_strides_0"), val = tensor<int32, [2]>([1, 1])];
            tensor<int32, [2]> model_expanded_conv_3_expand_Conv2Dx_dilations_0 = const()[name = tensor<string, []>("model_expanded_conv_3_expand_Conv2Dx_dilations_0"), val = tensor<int32, [2]>([1, 1])];
            tensor<int32, []> model_expanded_conv_3_expand_Conv2Dx_groups_0 = const()[name = tensor<string, []>("model_expanded_conv_3_expand_Conv2Dx_groups_0"), val = tensor<int32, []>(1)];
            tensor<int32, [4]> model_expanded_conv_3_expand_Conv2Dx_pad_0 = const()[name = tensor<string, []>("model_expanded_conv_3_expand_Conv2Dx_pad_0"), val = tensor<int32, [4]>([0, 0, 0, 0])];
            tensor<fp16, [72, 24, 1, 1]> const_227_to_fp16 = const()[name = tensor<string, []>("const_227_to_fp16"), val = tensor<fp16, [72, 24, 1, 1]>(BLOBFILE(path = tensor<string, []>("@model_path/weights/weight.bin"), offset = tensor<uint64, []>(25920)))];
            tensor<fp16, [72]> const_228_to_fp16 = const()[name = tensor<string, []>("const_228_to_fp16"), val = tensor<fp16, [72]>(BLOBFILE(path = tensor<string, []>("@model_path/weights/weight.bin"), offset = tensor<uint64, []>(29440)))];
            tensor<fp16, [1, 72, 80, 144]> model_expanded_conv_3_expand_BatchNorm_FusedBatchNormV3_nchw_cast_fp16 = conv(bias = const_228_to_fp16, dilations = model_expanded_conv_3_expand_Conv2Dx_dilations_0, groups = model_expanded_conv_3_expand_Conv2Dx_groups_0, pad = model_expanded_conv_3_expand_Conv2Dx_pad_0, pad_type = model_expanded_conv_3_expand_Conv2Dx_pad_type_0, strides = model_expanded_conv_3_expand_Conv2Dx_strides_0, weight = const_227_to_fp16, x = model_expanded_conv_2_Add_add_cast_fp16)[name = tensor<string, []>("model_expanded_conv_3_expand_BatchNorm_FusedBatchNormV3_nchw_cast_fp16")];
            tensor<string, []> model_conv2d_34_Conv2Dx_pad_type_0 = const()[name = tensor<string, []>("model_conv2d_34_Conv2Dx_pad_type_0"), val = tensor<string, []>("same")];
            tensor<int32, [2]> model_conv2d_34_Conv2Dx_strides_0 = const()[name = tensor<string, []>("model_conv2d_34_Conv2Dx_strides_0"), val = tensor<int32, [2]>([1, 1])];
            tensor<int32, [2]> model_conv2d_34_Conv2Dx_dilations_0 = const()[name = tensor<string, []>("model_conv2d_34_Conv2Dx_dilations_0"), val = tensor<int32, [2]>([1, 1])];
            tensor<int32, []> model_conv2d_34_Conv2Dx_groups_0 = const()[name = tensor<string, []>("model_conv2d_34_Conv2Dx_groups_0"), val = tensor<int32, []>(1)];
            tensor<int32, [4]> model_conv2d_34_Conv2Dx_pad_0 = const()[name = tensor<string, []>("model_conv2d_34_Conv2Dx_pad_0"), val = tensor<int32, [4]>([0, 0, 0, 0])];
            tensor<fp16, [16, 16, 1, 1]> transpose_31_to_fp16 = const()[name = tensor<string, []>("transpose_31_to_fp16"), val = tensor<fp16, [16, 16, 1, 1]>(BLOBFILE(path = tensor<string, []>("@model_path/weights/weight.bin"), offset = tensor<uint64, []>(29696)))];
            tensor<fp16, [16]> const_117_to_fp16 = const()[name = tensor<string, []>("const_117_to_fp16"), val = tensor<fp16, [16]>(BLOBFILE(path = tensor<string, []>("@model_path/weights/weight.bin"), offset = tensor<uint64, []>(30272)))];
            tensor<fp16, [1, 16, 160, 288]> model_conv2d_34_BiasAdd_cast_fp16 = conv(bias = const_117_to_fp16, dilations = model_conv2d_34_Conv2Dx_dilations_0, groups = model_conv2d_34_Conv2Dx_groups_0, pad = model_conv2d_34_Conv2Dx_pad_0, pad_type = model_conv2d_34_Conv2Dx_pad_type_0, strides = model_conv2d_34_Conv2Dx_strides_0, weight = transpose_31_to_fp16, x = model_multiply_38_mul_cast_fp16)[name = tensor<string, []>("model_conv2d_34_BiasAdd_cast_fp16")];
            tensor<fp16, [1, 72, 80, 144]> model_re_lu_6_Relu_cast_fp16 = relu(x = model_expanded_conv_3_expand_BatchNorm_FusedBatchNormV3_nchw_cast_fp16)[name = tensor<string, []>("model_re_lu_6_Relu_cast_fp16")];
            tensor<fp16, [1, 16, 160, 288]> model_conv2d_34_Sigmoid_cast_fp16 = sigmoid(x = model_conv2d_34_BiasAdd_cast_fp16)[name = tensor<string, []>("model_conv2d_34_Sigmoid_cast_fp16")];
            tensor<string, []> pad_1_mode_0 = const()[name = tensor<string, []>("pad_1_mode_0"), val = tensor<string, []>("constant")];
            tensor<string, []> model_conv2d_22_Conv2Dx_pad_type_0 = const()[name = tensor<string, []>("model_conv2d_22_Conv2Dx_pad_type_0"), val = tensor<string, []>("same")];
            tensor<int32, [2]> model_conv2d_22_Conv2Dx_strides_0 = const()[name = tensor<string, []>("model_conv2d_22_Conv2Dx_strides_0"), val = tensor<int32, [2]>([1, 1])];
            tensor<int32, [2]> model_conv2d_22_Conv2Dx_dilations_0 = const()[name = tensor<string, []>("model_conv2d_22_Conv2Dx_dilations_0"), val = tensor<int32, [2]>([1, 1])];
            tensor<int32, []> model_conv2d_22_Conv2Dx_groups_0 = const()[name = tensor<string, []>("model_conv2d_22_Conv2Dx_groups_0"), val = tensor<int32, []>(1)];
            tensor<int32, [4]> model_conv2d_22_Conv2Dx_pad_0 = const()[name = tensor<string, []>("model_conv2d_22_Conv2Dx_pad_0"), val = tensor<int32, [4]>([0, 0, 0, 0])];
            tensor<fp16, [32, 72, 1, 1]> transpose_34_to_fp16 = const()[name = tensor<string, []>("transpose_34_to_fp16"), val = tensor<fp16, [32, 72, 1, 1]>(BLOBFILE(path = tensor<string, []>("@model_path/weights/weight.bin"), offset = tensor<uint64, []>(30400)))];
            tensor<fp16, [32]> const_118_to_fp16 = const()[name = tensor<string, []>("const_118_to_fp16"), val = tensor<fp16, [32]>(BLOBFILE(path = tensor<string, []>("@model_path/weights/weight.bin"), offset = tensor<uint64, []>(35072)))];
            tensor<fp16, [1, 32, 80, 144]> model_conv2d_22_BiasAdd_cast_fp16 = conv(bias = const_118_to_fp16, dilations = model_conv2d_22_Conv2Dx_dilations_0, groups = model_conv2d_22_Conv2Dx_groups_0, pad = model_conv2d_22_Conv2Dx_pad_0, pad_type = model_conv2d_22_Conv2Dx_pad_type_0, strides = model_conv2d_22_Conv2Dx_strides_0, weight = transpose_34_to_fp16, x = model_re_lu_6_Relu_cast_fp16)[name = tensor<string, []>("model_conv2d_22_BiasAdd_cast_fp16")];
            tensor<fp16, []> model_lambda_7_clip_by_value_Minimum_y_to_fp16 = const()[name = tensor<string, []>("model_lambda_7_clip_by_value_Minimum_y_to_fp16"), val = tensor<fp16, []>(0x1.cccp-1)];
            tensor<fp16, [1, 16, 160, 288]> model_lambda_7_clip_by_value_Minimum_cast_fp16 = minimum(x = model_conv2d_34_Sigmoid_cast_fp16, y = model_lambda_7_clip_by_value_Minimum_y_to_fp16)[name = tensor<string, []>("model_lambda_7_clip_by_value_Minimum_cast_fp16")];
            tensor<int32, [8]> pad_5_pad_0 = const()[name = tensor<string, []>("pad_5_pad_0"), val = tensor<int32, [8]>([0, 0, 0, 0, 1, 2, 1, 2])];
            tensor<fp16, []> const_1_to_fp16 = const()[name = tensor<string, []>("const_1_to_fp16"), val = tensor<fp16, []>(0x0p+0)];
            tensor<fp16, [1, 72, 83, 147]> pad_5_cast_fp16 = pad(constant_val = const_1_to_fp16, mode = pad_1_mode_0, pad = pad_5_pad_0, x = model_re_lu_6_Relu_cast_fp16)[name = tensor<string, []>("pad_5_cast_fp16")];
            tensor<string, []> model_expanded_conv_3_depthwise_depthwisex_pad_type_0 = const()[name = tensor<string, []>("model_expanded_conv_3_depthwise_depthwisex_pad_type_0"), val = tensor<string, []>("valid")];
            tensor<int32, [2]> model_expanded_conv_3_depthwise_depthwisex_strides_0 = const()[name = tensor<string, []>("model_expanded_conv_3_depthwise_depthwisex_strides_0"), val = tensor<int32, [2]>([2, 2])];
            tensor<int32, [2]> model_expanded_conv_3_depthwise_depthwisex_dilations_0 = const()[name = tensor<string, []>("model_expanded_conv_3_depthwise_depthwisex_dilations_0"), val = tensor<int32, [2]>([1, 1])];
            tensor<int32, []> model_expanded_conv_3_depthwise_depthwisex_groups_0 = const()[name = tensor<string, []>("model_expanded_conv_3_depthwise_depthwisex_groups_0"), val = tensor<int32, []>(72)];
            tensor<int32, [4]> model_expanded_conv_3_depthwise_depthwisex_pad_0 = const()[name = tensor<string, []>("model_expanded_conv_3_depthwise_depthwisex_pad_0"), val = tensor<int32, [4]>([0, 0, 0, 0])];
            tensor<fp16, [72, 1, 5, 5]> const_229_to_fp16 = const()[name = tensor<string, []>("const_229_to_fp16"), val = tensor<fp16, [72, 1, 5, 5]>(BLOBFILE(path = tensor<string, []>("@model_path/weights/weight.bin"), offset = tensor<uint64, []>(35200)))];
            tensor<fp16, [72]> const_230_to_fp16 = const()[name = tensor<string, []>("const_230_to_fp16"), val = tensor<fp16, [72]>(BLOBFILE(path = tensor<string, []>("@model_path/weights/weight.bin"), offset = tensor<uint64, []>(38912)))];
            tensor<fp16, [1, 72, 40, 72]> model_expanded_conv_3_depthwise_BatchNorm_FusedBatchNormV3_nchw_cast_fp16 = conv(bias = const_230_to_fp16, dilations = model_expanded_conv_3_depthwise_depthwisex_dilations_0, groups = model_expanded_conv_3_depthwise_depthwisex_groups_0, pad = model_expanded_conv_3_depthwise_depthwisex_pad_0, pad_type = model_expanded_conv_3_depthwise_depthwisex_pad_type_0, strides = model_expanded_conv_3_depthwise_depthwisex_strides_0, weight = const_229_to_fp16, x = pad_5_cast_fp16)[name = tensor<string, []>("model_expanded_conv_3_depthwise_BatchNorm_FusedBatchNormV3_nchw_cast_fp16")];
            tensor<fp16, []> model_lambda_7_clip_by_value_y_to_fp16 = const()[name = tensor<string, []>("model_lambda_7_clip_by_value_y_to_fp16"), val = tensor<fp16, []>(0x1.998p-4)];
            tensor<fp16, [1, 16, 160, 288]> model_lambda_7_clip_by_value_cast_fp16 = maximum(x = model_lambda_7_clip_by_value_Minimum_cast_fp16, y = model_lambda_7_clip_by_value_y_to_fp16)[name = tensor<string, []>("model_lambda_7_clip_by_value_cast_fp16")];
            tensor<int32, [2]> model_global_average_pooling2d_5_Mean_axes_0 = const()[name = tensor<string, []>("model_global_average_pooling2d_5_Mean_axes_0"), val = tensor<int32, [2]>([1, 2])];
            tensor<bool, []> model_global_average_pooling2d_5_Mean_keep_dims_0 = const()[name = tensor<string, []>("model_global_average_pooling2d_5_Mean_keep_dims_0"), val = tensor<bool, []>(false)];
            tensor<int32, [4]> transpose_376_perm_0 = const()[name = tensor<string, []>("transpose_376_perm_0"), val = tensor<int32, [4]>([0, 2, 3, 1])];
            tensor<fp16, [1, 80, 144, 32]> transpose_376_cast_fp16 = transpose(perm = transpose_376_perm_0, x = model_conv2d_22_BiasAdd_cast_fp16)[name = tensor<string, []>("transpose_400")];
            tensor<fp16, [1, 32]> model_global_average_pooling2d_5_Mean_cast_fp16 = reduce_mean(axes = model_global_average_pooling2d_5_Mean_axes_0, keep_dims = model_global_average_pooling2d_5_Mean_keep_dims_0, x = transpose_376_cast_fp16)[name = tensor<string, []>("model_global_average_pooling2d_5_Mean_cast_fp16")];
            tensor<int32, [2]> model_global_max_pooling2d_3_Max_axes_0 = const()[name = tensor<string, []>("model_global_max_pooling2d_3_Max_axes_0"), val = tensor<int32, [2]>([1, 2])];
            tensor<bool, []> model_global_max_pooling2d_3_Max_keep_dims_0 = const()[name = tensor<string, []>("model_global_max_pooling2d_3_Max_keep_dims_0"), val = tensor<bool, []>(false)];
            tensor<fp16, [1, 32]> model_global_max_pooling2d_3_Max_cast_fp16 = reduce_max(axes = model_global_max_pooling2d_3_Max_axes_0, keep_dims = model_global_max_pooling2d_3_Max_keep_dims_0, x = transpose_376_cast_fp16)[name = tensor<string, []>("model_global_max_pooling2d_3_Max_cast_fp16")];
            tensor<fp16, [1, 16, 160, 288]> model_subtract_3_sub_cast_fp16 = sub(x = model_multiply_38_mul_cast_fp16, y = model_lambda_7_clip_by_value_cast_fp16)[name = tensor<string, []>("model_subtract_3_sub_cast_fp16")];
            tensor<fp16, [1, 72, 40, 72]> model_re_lu_7_Relu_cast_fp16 = relu(x = model_expanded_conv_3_depthwise_BatchNorm_FusedBatchNormV3_nchw_cast_fp16)[name = tensor<string, []>("model_re_lu_7_Relu_cast_fp16")];
            tensor<bool, []> model_concatenate_8_concat_interleave_0 = const()[name = tensor<string, []>("model_concatenate_8_concat_interleave_0"), val = tensor<bool, []>(false)];
            tensor<fp16, [1, 64]> model_concatenate_8_concat_cast_fp16 = concat(axis = model_concatenate_8_concat_axis, interleave = model_concatenate_8_concat_interleave_0, values = (model_global_average_pooling2d_5_Mean_cast_fp16, model_global_max_pooling2d_3_Max_cast_fp16))[name = tensor<string, []>("model_concatenate_8_concat_cast_fp16")];
            tensor<string, []> model_conv2d_35_Conv2Dx_pad_type_0 = const()[name = tensor<string, []>("model_conv2d_35_Conv2Dx_pad_type_0"), val = tensor<string, []>("same")];
            tensor<int32, [2]> model_conv2d_35_Conv2Dx_strides_0 = const()[name = tensor<string, []>("model_conv2d_35_Conv2Dx_strides_0"), val = tensor<int32, [2]>([1, 1])];
            tensor<int32, [2]> model_conv2d_35_Conv2Dx_dilations_0 = const()[name = tensor<string, []>("model_conv2d_35_Conv2Dx_dilations_0"), val = tensor<int32, [2]>([1, 1])];
            tensor<int32, []> model_conv2d_35_Conv2Dx_groups_0 = const()[name = tensor<string, []>("model_conv2d_35_Conv2Dx_groups_0"), val = tensor<int32, []>(1)];
            tensor<int32, [4]> model_conv2d_35_Conv2Dx_pad_0 = const()[name = tensor<string, []>("model_conv2d_35_Conv2Dx_pad_0"), val = tensor<int32, [4]>([0, 0, 0, 0])];
            tensor<fp16, [16, 16, 1, 1]> transpose_39_to_fp16 = const()[name = tensor<string, []>("transpose_39_to_fp16"), val = tensor<fp16, [16, 16, 1, 1]>(BLOBFILE(path = tensor<string, []>("@model_path/weights/weight.bin"), offset = tensor<uint64, []>(39168)))];
            tensor<fp16, [16]> const_119_to_fp16 = const()[name = tensor<string, []>("const_119_to_fp16"), val = tensor<fp16, [16]>(BLOBFILE(path = tensor<string, []>("@model_path/weights/weight.bin"), offset = tensor<uint64, []>(39744)))];
            tensor<fp16, [1, 16, 160, 288]> model_conv2d_35_BiasAdd_cast_fp16 = conv(bias = const_119_to_fp16, dilations = model_conv2d_35_Conv2Dx_dilations_0, groups = model_conv2d_35_Conv2Dx_groups_0, pad = model_conv2d_35_Conv2Dx_pad_0, pad_type = model_conv2d_35_Conv2Dx_pad_type_0, strides = model_conv2d_35_Conv2Dx_strides_0, weight = transpose_39_to_fp16, x = model_subtract_3_sub_cast_fp16)[name = tensor<string, []>("model_conv2d_35_BiasAdd_cast_fp16")];
            tensor<bool, []> model_expanded_conv_3_squeeze_excite_AvgPool_Mean_keep_dims_0 = const()[name = tensor<string, []>("model_expanded_conv_3_squeeze_excite_AvgPool_Mean_keep_dims_0"), val = tensor<bool, []>(true)];
            tensor<int32, [2]> const_13 = const()[name = tensor<string, []>("const_13"), val = tensor<int32, [2]>([2, 3])];
            tensor<fp16, [1, 72, 1, 1]> model_expanded_conv_3_squeeze_excite_AvgPool_Mean_cast_fp16 = reduce_mean(axes = const_13, keep_dims = model_expanded_conv_3_squeeze_excite_AvgPool_Mean_keep_dims_0, x = model_re_lu_7_Relu_cast_fp16)[name = tensor<string, []>("model_expanded_conv_3_squeeze_excite_AvgPool_Mean_cast_fp16")];
            tensor<fp16, [8, 64]> transpose_347_cast_fp16_to_fp32_to_fp16 = const()[name = tensor<string, []>("transpose_347_cast_fp16_to_fp32_to_fp16"), val = tensor<fp16, [8, 64]>(BLOBFILE(path = tensor<string, []>("@model_path/weights/weight.bin"), offset = tensor<uint64, []>(39872)))];
            tensor<fp16, [8]> model_dense_9_BiasAdd_bias_0_to_fp16 = const()[name = tensor<string, []>("model_dense_9_BiasAdd_bias_0_to_fp16"), val = tensor<fp16, [8]>([-0x1.dcp-6, -0x1.aap-6, -0x1.334p-7, -0x1.4ecp-6, -0x1.134p-3, -0x1.b5cp-7, -0x1.2ecp-7, -0x1.2a4p-5])];
            tensor<fp16, [1, 8]> model_dense_9_BiasAdd_cast_fp16 = linear(bias = model_dense_9_BiasAdd_bias_0_to_fp16, weight = transpose_347_cast_fp16_to_fp32_to_fp16, x = model_concatenate_8_concat_cast_fp16)[name = tensor<string, []>("model_dense_9_BiasAdd_cast_fp16")];
            tensor<string, []> model_expanded_conv_3_squeeze_excite_Conv_Conv2Dx_pad_type_0 = const()[name = tensor<string, []>("model_expanded_conv_3_squeeze_excite_Conv_Conv2Dx_pad_type_0"), val = tensor<string, []>("same")];
            tensor<int32, [2]> model_expanded_conv_3_squeeze_excite_Conv_Conv2Dx_strides_0 = const()[name = tensor<string, []>("model_expanded_conv_3_squeeze_excite_Conv_Conv2Dx_strides_0"), val = tensor<int32, [2]>([1, 1])];
            tensor<int32, [2]> model_expanded_conv_3_squeeze_excite_Conv_Conv2Dx_dilations_0 = const()[name = tensor<string, []>("model_expanded_conv_3_squeeze_excite_Conv_Conv2Dx_dilations_0"), val = tensor<int32, [2]>([1, 1])];
            tensor<int32, []> model_expanded_conv_3_squeeze_excite_Conv_Conv2Dx_groups_0 = const()[name = tensor<string, []>("model_expanded_conv_3_squeeze_excite_Conv_Conv2Dx_groups_0"), val = tensor<int32, []>(1)];
            tensor<int32, [4]> model_expanded_conv_3_squeeze_excite_Conv_Conv2Dx_pad_0 = const()[name = tensor<string, []>("model_expanded_conv_3_squeeze_excite_Conv_Conv2Dx_pad_0"), val = tensor<int32, [4]>([0, 0, 0, 0])];
            tensor<fp16, [24, 72, 1, 1]> transpose_41_to_fp16 = const()[name = tensor<string, []>("transpose_41_to_fp16"), val = tensor<fp16, [24, 72, 1, 1]>(BLOBFILE(path = tensor<string, []>("@model_path/weights/weight.bin"), offset = tensor<uint64, []>(40960)))];
            tensor<fp16, [24]> const_120_to_fp16 = const()[name = tensor<string, []>("const_120_to_fp16"), val = tensor<fp16, [24]>(BLOBFILE(path = tensor<string, []>("@model_path/weights/weight.bin"), offset = tensor<uint64, []>(44480)))];
            tensor<fp16, [1, 24, 1, 1]> model_expanded_conv_3_squeeze_excite_Conv_BiasAdd_cast_fp16 = conv(bias = const_120_to_fp16, dilations = model_expanded_conv_3_squeeze_excite_Conv_Conv2Dx_dilations_0, groups = model_expanded_conv_3_squeeze_excite_Conv_Conv2Dx_groups_0, pad = model_expanded_conv_3_squeeze_excite_Conv_Conv2Dx_pad_0, pad_type = model_expanded_conv_3_squeeze_excite_Conv_Conv2Dx_pad_type_0, strides = model_expanded_conv_3_squeeze_excite_Conv_Conv2Dx_strides_0, weight = transpose_41_to_fp16, x = model_expanded_conv_3_squeeze_excite_AvgPool_Mean_cast_fp16)[name = tensor<string, []>("model_expanded_conv_3_squeeze_excite_Conv_BiasAdd_cast_fp16")];
            tensor<fp16, [1, 16, 160, 288]> model_conv2d_35_Sigmoid_cast_fp16 = sigmoid(x = model_conv2d_35_BiasAdd_cast_fp16)[name = tensor<string, []>("model_conv2d_35_Sigmoid_cast_fp16")];
            tensor<fp16, [1, 8]> model_dense_9_Relu_cast_fp16 = relu(x = model_dense_9_BiasAdd_cast_fp16)[name = tensor<string, []>("model_dense_9_Relu_cast_fp16")];
            tensor<fp16, [1, 16, 160, 288]> model_multiply_39_mul_cast_fp16 = mul(x = model_multiply_38_mul_cast_fp16, y = model_conv2d_35_Sigmoid_cast_fp16)[name = tensor<string, []>("model_multiply_39_mul_cast_fp16")];
            tensor<fp16, [1, 24, 1, 1]> model_expanded_conv_3_squeeze_excite_Relu_Relu_cast_fp16 = relu(x = model_expanded_conv_3_squeeze_excite_Conv_BiasAdd_cast_fp16)[name = tensor<string, []>("model_expanded_conv_3_squeeze_excite_Relu_Relu_cast_fp16")];
            tensor<fp16, [32, 8]> transpose_348_cast_fp16_to_fp32_to_fp16 = const()[name = tensor<string, []>("transpose_348_cast_fp16_to_fp32_to_fp16"), val = tensor<fp16, [32, 8]>(BLOBFILE(path = tensor<string, []>("@model_path/weights/weight.bin"), offset = tensor<uint64, []>(44608)))];
            tensor<fp16, [32]> model_dense_10_BiasAdd_bias_0_to_fp16 = const()[name = tensor<string, []>("model_dense_10_BiasAdd_bias_0_to_fp16"), val = tensor<fp16, [32]>(BLOBFILE(path = tensor<string, []>("@model_path/weights/weight.bin"), offset = tensor<uint64, []>(45184)))];
            tensor<fp16, [1, 32]> model_dense_10_BiasAdd_cast_fp16 = linear(bias = model_dense_10_BiasAdd_bias_0_to_fp16, weight = transpose_348_cast_fp16_to_fp32_to_fp16, x = model_dense_9_Relu_cast_fp16)[name = tensor<string, []>("model_dense_10_BiasAdd_cast_fp16")];
            tensor<string, []> model_expanded_conv_3_squeeze_excite_Conv_1_Conv2Dx_pad_type_0 = const()[name = tensor<string, []>("model_expanded_conv_3_squeeze_excite_Conv_1_Conv2Dx_pad_type_0"), val = tensor<string, []>("same")];
            tensor<int32, [2]> model_expanded_conv_3_squeeze_excite_Conv_1_Conv2Dx_strides_0 = const()[name = tensor<string, []>("model_expanded_conv_3_squeeze_excite_Conv_1_Conv2Dx_strides_0"), val = tensor<int32, [2]>([1, 1])];
            tensor<int32, [2]> model_expanded_conv_3_squeeze_excite_Conv_1_Conv2Dx_dilations_0 = const()[name = tensor<string, []>("model_expanded_conv_3_squeeze_excite_Conv_1_Conv2Dx_dilations_0"), val = tensor<int32, [2]>([1, 1])];
            tensor<int32, []> model_expanded_conv_3_squeeze_excite_Conv_1_Conv2Dx_groups_0 = const()[name = tensor<string, []>("model_expanded_conv_3_squeeze_excite_Conv_1_Conv2Dx_groups_0"), val = tensor<int32, []>(1)];
            tensor<int32, [4]> model_expanded_conv_3_squeeze_excite_Conv_1_Conv2Dx_pad_0 = const()[name = tensor<string, []>("model_expanded_conv_3_squeeze_excite_Conv_1_Conv2Dx_pad_0"), val = tensor<int32, [4]>([0, 0, 0, 0])];
            tensor<fp16, [72, 24, 1, 1]> transpose_43_to_fp16 = const()[name = tensor<string, []>("transpose_43_to_fp16"), val = tensor<fp16, [72, 24, 1, 1]>(BLOBFILE(path = tensor<string, []>("@model_path/weights/weight.bin"), offset = tensor<uint64, []>(45312)))];
            tensor<fp16, [72]> const_201_to_fp16 = const()[name = tensor<string, []>("const_201_to_fp16"), val = tensor<fp16, [72]>(BLOBFILE(path = tensor<string, []>("@model_path/weights/weight.bin"), offset = tensor<uint64, []>(48832)))];
            tensor<fp16, [1, 72, 1, 1]> model_tf___operators___add_1_AddV2_cast_fp16 = conv(bias = const_201_to_fp16, dilations = model_expanded_conv_3_squeeze_excite_Conv_1_Conv2Dx_dilations_0, groups = model_expanded_conv_3_squeeze_excite_Conv_1_Conv2Dx_groups_0, pad = model_expanded_conv_3_squeeze_excite_Conv_1_Conv2Dx_pad_0, pad_type = model_expanded_conv_3_squeeze_excite_Conv_1_Conv2Dx_pad_type_0, strides = model_expanded_conv_3_squeeze_excite_Conv_1_Conv2Dx_strides_0, weight = transpose_43_to_fp16, x = model_expanded_conv_3_squeeze_excite_Relu_Relu_cast_fp16)[name = tensor<string, []>("model_tf___operators___add_1_AddV2_cast_fp16")];
            tensor<fp16, [1, 32]> model_dense_10_Sigmoid_cast_fp16 = sigmoid(x = model_dense_10_BiasAdd_cast_fp16)[name = tensor<string, []>("model_dense_10_Sigmoid_cast_fp16")];
            tensor<fp16, [1, 72, 1, 1]> model_re_lu_8_Relu6_cast_fp16 = relu6(x = model_tf___operators___add_1_AddV2_cast_fp16)[name = tensor<string, []>("model_re_lu_8_Relu6_cast_fp16")];
            tensor<fp16, []> model_tf_math_multiply_1_Mul_y_to_fp16 = const()[name = tensor<string, []>("model_tf_math_multiply_1_Mul_y_to_fp16"), val = tensor<fp16, []>(0x1.554p-3)];
            tensor<fp16, [1, 72, 1, 1]> model_tf_math_multiply_1_Mul_cast_fp16 = mul(x = model_re_lu_8_Relu6_cast_fp16, y = model_tf_math_multiply_1_Mul_y_to_fp16)[name = tensor<string, []>("model_tf_math_multiply_1_Mul_cast_fp16")];
            tensor<fp16, [1, 72, 40, 72]> model_expanded_conv_3_squeeze_excite_Mul_mul_cast_fp16 = mul(x = model_re_lu_7_Relu_cast_fp16, y = model_tf_math_multiply_1_Mul_cast_fp16)[name = tensor<string, []>("model_expanded_conv_3_squeeze_excite_Mul_mul_cast_fp16")];
            tensor<string, []> model_expanded_conv_3_project_Conv2Dx_pad_type_0 = const()[name = tensor<string, []>("model_expanded_conv_3_project_Conv2Dx_pad_type_0"), val = tensor<string, []>("same")];
            tensor<int32, [2]> model_expanded_conv_3_project_Conv2Dx_strides_0 = const()[name = tensor<string, []>("model_expanded_conv_3_project_Conv2Dx_strides_0"), val = tensor<int32, [2]>([1, 1])];
            tensor<int32, [2]> model_expanded_conv_3_project_Conv2Dx_dilations_0 = const()[name = tensor<string, []>("model_expanded_conv_3_project_Conv2Dx_dilations_0"), val = tensor<int32, [2]>([1, 1])];
            tensor<int32, []> model_expanded_conv_3_project_Conv2Dx_groups_0 = const()[name = tensor<string, []>("model_expanded_conv_3_project_Conv2Dx_groups_0"), val = tensor<int32, []>(1)];
            tensor<int32, [4]> model_expanded_conv_3_project_Conv2Dx_pad_0 = const()[name = tensor<string, []>("model_expanded_conv_3_project_Conv2Dx_pad_0"), val = tensor<int32, [4]>([0, 0, 0, 0])];
            tensor<fp16, [40, 72, 1, 1]> const_231_to_fp16 = const()[name = tensor<string, []>("const_231_to_fp16"), val = tensor<fp16, [40, 72, 1, 1]>(BLOBFILE(path = tensor<string, []>("@model_path/weights/weight.bin"), offset = tensor<uint64, []>(49088)))];
            tensor<fp16, [40]> const_232_to_fp16 = const()[name = tensor<string, []>("const_232_to_fp16"), val = tensor<fp16, [40]>(BLOBFILE(path = tensor<string, []>("@model_path/weights/weight.bin"), offset = tensor<uint64, []>(54912)))];
            tensor<fp16, [1, 40, 40, 72]> model_expanded_conv_3_project_BatchNorm_FusedBatchNormV3_nchw_cast_fp16 = conv(bias = const_232_to_fp16, dilations = model_expanded_conv_3_project_Conv2Dx_dilations_0, groups = model_expanded_conv_3_project_Conv2Dx_groups_0, pad = model_expanded_conv_3_project_Conv2Dx_pad_0, pad_type = model_expanded_conv_3_project_Conv2Dx_pad_type_0, strides = model_expanded_conv_3_project_Conv2Dx_strides_0, weight = const_231_to_fp16, x = model_expanded_conv_3_squeeze_excite_Mul_mul_cast_fp16)[name = tensor<string, []>("model_expanded_conv_3_project_BatchNorm_FusedBatchNormV3_nchw_cast_fp16")];
            tensor<int32, [4]> reshape_26_shape_0 = const()[name = tensor<string, []>("reshape_26_shape_0"), val = tensor<int32, [4]>([1, 32, 1, 1])];
            tensor<fp16, [1, 32, 1, 1]> reshape_26_cast_fp16 = reshape(shape = reshape_26_shape_0, x = model_dense_10_Sigmoid_cast_fp16)[name = tensor<string, []>("reshape_26_cast_fp16")];
            tensor<fp16, [1, 32, 80, 144]> model_multiply_32_mul_cast_fp16 = mul(x = model_conv2d_22_BiasAdd_cast_fp16, y = reshape_26_cast_fp16)[name = tensor<string, []>("model_multiply_32_mul_cast_fp16")];
            tensor<string, []> model_conv2d_23_Conv2Dx_pad_type_0 = const()[name = tensor<string, []>("model_conv2d_23_Conv2Dx_pad_type_0"), val = tensor<string, []>("same")];
            tensor<int32, [2]> model_conv2d_23_Conv2Dx_strides_0 = const()[name = tensor<string, []>("model_conv2d_23_Conv2Dx_strides_0"), val = tensor<int32, [2]>([1, 1])];
            tensor<int32, [2]> model_conv2d_23_Conv2Dx_dilations_0 = const()[name = tensor<string, []>("model_conv2d_23_Conv2Dx_dilations_0"), val = tensor<int32, [2]>([1, 1])];
            tensor<int32, []> model_conv2d_23_Conv2Dx_groups_0 = const()[name = tensor<string, []>("model_conv2d_23_Conv2Dx_groups_0"), val = tensor<int32, []>(1)];
            tensor<int32, [4]> model_conv2d_23_Conv2Dx_pad_0 = const()[name = tensor<string, []>("model_conv2d_23_Conv2Dx_pad_0"), val = tensor<int32, [4]>([0, 0, 0, 0])];
            tensor<fp16, [32, 32, 1, 1]> transpose_48_to_fp16 = const()[name = tensor<string, []>("transpose_48_to_fp16"), val = tensor<fp16, [32, 32, 1, 1]>(BLOBFILE(path = tensor<string, []>("@model_path/weights/weight.bin"), offset = tensor<uint64, []>(55104)))];
            tensor<fp16, [32]> const_122_to_fp16 = const()[name = tensor<string, []>("const_122_to_fp16"), val = tensor<fp16, [32]>(BLOBFILE(path = tensor<string, []>("@model_path/weights/weight.bin"), offset = tensor<uint64, []>(57216)))];
            tensor<fp16, [1, 32, 80, 144]> model_conv2d_23_BiasAdd_cast_fp16 = conv(bias = const_122_to_fp16, dilations = model_conv2d_23_Conv2Dx_dilations_0, groups = model_conv2d_23_Conv2Dx_groups_0, pad = model_conv2d_23_Conv2Dx_pad_0, pad_type = model_conv2d_23_Conv2Dx_pad_type_0, strides = model_conv2d_23_Conv2Dx_strides_0, weight = transpose_48_to_fp16, x = model_multiply_32_mul_cast_fp16)[name = tensor<string, []>("model_conv2d_23_BiasAdd_cast_fp16")];
            tensor<string, []> model_expanded_conv_4_expand_Conv2Dx_pad_type_0 = const()[name = tensor<string, []>("model_expanded_conv_4_expand_Conv2Dx_pad_type_0"), val = tensor<string, []>("same")];
            tensor<int32, [2]> model_expanded_conv_4_expand_Conv2Dx_strides_0 = const()[name = tensor<string, []>("model_expanded_conv_4_expand_Conv2Dx_strides_0"), val = tensor<int32, [2]>([1, 1])];
            tensor<int32, [2]> model_expanded_conv_4_expand_Conv2Dx_dilations_0 = const()[name = tensor<string, []>("model_expanded_conv_4_expand_Conv2Dx_dilations_0"), val = tensor<int32, [2]>([1, 1])];
            tensor<int32, []> model_expanded_conv_4_expand_Conv2Dx_groups_0 = const()[name = tensor<string, []>("model_expanded_conv_4_expand_Conv2Dx_groups_0"), val = tensor<int32, []>(1)];
            tensor<int32, [4]> model_expanded_conv_4_expand_Conv2Dx_pad_0 = const()[name = tensor<string, []>("model_expanded_conv_4_expand_Conv2Dx_pad_0"), val = tensor<int32, [4]>([0, 0, 0, 0])];
            tensor<fp16, [120, 40, 1, 1]> const_233_to_fp16 = const()[name = tensor<string, []>("const_233_to_fp16"), val = tensor<fp16, [120, 40, 1, 1]>(BLOBFILE(path = tensor<string, []>("@model_path/weights/weight.bin"), offset = tensor<uint64, []>(57344)))];
            tensor<fp16, [120]> const_234_to_fp16 = const()[name = tensor<string, []>("const_234_to_fp16"), val = tensor<fp16, [120]>(BLOBFILE(path = tensor<string, []>("@model_path/weights/weight.bin"), offset = tensor<uint64, []>(67008)))];
            tensor<fp16, [1, 120, 40, 72]> model_expanded_conv_4_expand_BatchNorm_FusedBatchNormV3_nchw_cast_fp16 = conv(bias = const_234_to_fp16, dilations = model_expanded_conv_4_expand_Conv2Dx_dilations_0, groups = model_expanded_conv_4_expand_Conv2Dx_groups_0, pad = model_expanded_conv_4_expand_Conv2Dx_pad_0, pad_type = model_expanded_conv_4_expand_Conv2Dx_pad_type_0, strides = model_expanded_conv_4_expand_Conv2Dx_strides_0, weight = const_233_to_fp16, x = model_expanded_conv_3_project_BatchNorm_FusedBatchNormV3_nchw_cast_fp16)[name = tensor<string, []>("model_expanded_conv_4_expand_BatchNorm_FusedBatchNormV3_nchw_cast_fp16")];
            tensor<fp16, [1, 32, 80, 144]> model_conv2d_23_Sigmoid_cast_fp16 = sigmoid(x = model_conv2d_23_BiasAdd_cast_fp16)[name = tensor<string, []>("model_conv2d_23_Sigmoid_cast_fp16")];
            tensor<fp16, [1, 120, 40, 72]> model_re_lu_9_Relu_cast_fp16 = relu(x = model_expanded_conv_4_expand_BatchNorm_FusedBatchNormV3_nchw_cast_fp16)[name = tensor<string, []>("model_re_lu_9_Relu_cast_fp16")];
            tensor<fp16, []> model_lambda_5_clip_by_value_Minimum_y_to_fp16 = const()[name = tensor<string, []>("model_lambda_5_clip_by_value_Minimum_y_to_fp16"), val = tensor<fp16, []>(0x1.cccp-1)];
            tensor<fp16, [1, 32, 80, 144]> model_lambda_5_clip_by_value_Minimum_cast_fp16 = minimum(x = model_conv2d_23_Sigmoid_cast_fp16, y = model_lambda_5_clip_by_value_Minimum_y_to_fp16)[name = tensor<string, []>("model_lambda_5_clip_by_value_Minimum_cast_fp16")];
            tensor<string, []> model_expanded_conv_4_depthwise_depthwisex_pad_type_0 = const()[name = tensor<string, []>("model_expanded_conv_4_depthwise_depthwisex_pad_type_0"), val = tensor<string, []>("same")];
            tensor<int32, [2]> model_expanded_conv_4_depthwise_depthwisex_strides_0 = const()[name = tensor<string, []>("model_expanded_conv_4_depthwise_depthwisex_strides_0"), val = tensor<int32, [2]>([1, 1])];
            tensor<int32, [2]> model_expanded_conv_4_depthwise_depthwisex_dilations_0 = const()[name = tensor<string, []>("model_expanded_conv_4_depthwise_depthwisex_dilations_0"), val = tensor<int32, [2]>([1, 1])];
            tensor<int32, []> model_expanded_conv_4_depthwise_depthwisex_groups_0 = const()[name = tensor<string, []>("model_expanded_conv_4_depthwise_depthwisex_groups_0"), val = tensor<int32, []>(120)];
            tensor<int32, [4]> model_expanded_conv_4_depthwise_depthwisex_pad_0 = const()[name = tensor<string, []>("model_expanded_conv_4_depthwise_depthwisex_pad_0"), val = tensor<int32, [4]>([0, 0, 0, 0])];
            tensor<fp16, [120, 1, 5, 5]> const_235_to_fp16 = const()[name = tensor<string, []>("const_235_to_fp16"), val = tensor<fp16, [120, 1, 5, 5]>(BLOBFILE(path = tensor<string, []>("@model_path/weights/weight.bin"), offset = tensor<uint64, []>(67328)))];
            tensor<fp16, [120]> const_236_to_fp16 = const()[name = tensor<string, []>("const_236_to_fp16"), val = tensor<fp16, [120]>(BLOBFILE(path = tensor<string, []>("@model_path/weights/weight.bin"), offset = tensor<uint64, []>(73408)))];
            tensor<fp16, [1, 120, 40, 72]> model_expanded_conv_4_depthwise_BatchNorm_FusedBatchNormV3_nchw_cast_fp16 = conv(bias = const_236_to_fp16, dilations = model_expanded_conv_4_depthwise_depthwisex_dilations_0, groups = model_expanded_conv_4_depthwise_depthwisex_groups_0, pad = model_expanded_conv_4_depthwise_depthwisex_pad_0, pad_type = model_expanded_conv_4_depthwise_depthwisex_pad_type_0, strides = model_expanded_conv_4_depthwise_depthwisex_strides_0, weight = const_235_to_fp16, x = model_re_lu_9_Relu_cast_fp16)[name = tensor<string, []>("model_expanded_conv_4_depthwise_BatchNorm_FusedBatchNormV3_nchw_cast_fp16")];
            tensor<fp16, []> model_lambda_5_clip_by_value_y_to_fp16 = const()[name = tensor<string, []>("model_lambda_5_clip_by_value_y_to_fp16"), val = tensor<fp16, []>(0x1.998p-4)];
            tensor<fp16, [1, 32, 80, 144]> model_lambda_5_clip_by_value_cast_fp16 = maximum(x = model_lambda_5_clip_by_value_Minimum_cast_fp16, y = model_lambda_5_clip_by_value_y_to_fp16)[name = tensor<string, []>("model_lambda_5_clip_by_value_cast_fp16")];
            tensor<fp16, [1, 32, 80, 144]> model_subtract_2_sub_cast_fp16 = sub(x = model_multiply_32_mul_cast_fp16, y = model_lambda_5_clip_by_value_cast_fp16)[name = tensor<string, []>("model_subtract_2_sub_cast_fp16")];
            tensor<fp16, [1, 120, 40, 72]> model_re_lu_10_Relu_cast_fp16 = relu(x = model_expanded_conv_4_depthwise_BatchNorm_FusedBatchNormV3_nchw_cast_fp16)[name = tensor<string, []>("model_re_lu_10_Relu_cast_fp16")];
            tensor<string, []> model_conv2d_24_Conv2Dx_pad_type_0 = const()[name = tensor<string, []>("model_conv2d_24_Conv2Dx_pad_type_0"), val = tensor<string, []>("same")];
            tensor<int32, [2]> model_conv2d_24_Conv2Dx_strides_0 = const()[name = tensor<string, []>("model_conv2d_24_Conv2Dx_strides_0"), val = tensor<int32, [2]>([1, 1])];
            tensor<int32, [2]> model_conv2d_24_Conv2Dx_dilations_0 = const()[name = tensor<string, []>("model_conv2d_24_Conv2Dx_dilations_0"), val = tensor<int32, [2]>([1, 1])];
            tensor<int32, []> model_conv2d_24_Conv2Dx_groups_0 = const()[name = tensor<string, []>("model_conv2d_24_Conv2Dx_groups_0"), val = tensor<int32, []>(1)];
            tensor<int32, [4]> model_conv2d_24_Conv2Dx_pad_0 = const()[name = tensor<string, []>("model_conv2d_24_Conv2Dx_pad_0"), val = tensor<int32, [4]>([0, 0, 0, 0])];
            tensor<fp16, [32, 32, 1, 1]> transpose_56_to_fp16 = const()[name = tensor<string, []>("transpose_56_to_fp16"), val = tensor<fp16, [32, 32, 1, 1]>(BLOBFILE(path = tensor<string, []>("@model_path/weights/weight.bin"), offset = tensor<uint64, []>(73728)))];
            tensor<fp16, [32]> const_123_to_fp16 = const()[name = tensor<string, []>("const_123_to_fp16"), val = tensor<fp16, [32]>(BLOBFILE(path = tensor<string, []>("@model_path/weights/weight.bin"), offset = tensor<uint64, []>(75840)))];
            tensor<fp16, [1, 32, 80, 144]> model_conv2d_24_BiasAdd_cast_fp16 = conv(bias = const_123_to_fp16, dilations = model_conv2d_24_Conv2Dx_dilations_0, groups = model_conv2d_24_Conv2Dx_groups_0, pad = model_conv2d_24_Conv2Dx_pad_0, pad_type = model_conv2d_24_Conv2Dx_pad_type_0, strides = model_conv2d_24_Conv2Dx_strides_0, weight = transpose_56_to_fp16, x = model_subtract_2_sub_cast_fp16)[name = tensor<string, []>("model_conv2d_24_BiasAdd_cast_fp16")];
            tensor<bool, []> model_expanded_conv_4_squeeze_excite_AvgPool_Mean_keep_dims_0 = const()[name = tensor<string, []>("model_expanded_conv_4_squeeze_excite_AvgPool_Mean_keep_dims_0"), val = tensor<bool, []>(true)];
            tensor<int32, [2]> const_19 = const()[name = tensor<string, []>("const_19"), val = tensor<int32, [2]>([2, 3])];
            tensor<fp16, [1, 120, 1, 1]> model_expanded_conv_4_squeeze_excite_AvgPool_Mean_cast_fp16 = reduce_mean(axes = const_19, keep_dims = model_expanded_conv_4_squeeze_excite_AvgPool_Mean_keep_dims_0, x = model_re_lu_10_Relu_cast_fp16)[name = tensor<string, []>("model_expanded_conv_4_squeeze_excite_AvgPool_Mean_cast_fp16")];
            tensor<string, []> model_expanded_conv_4_squeeze_excite_Conv_Conv2Dx_pad_type_0 = const()[name = tensor<string, []>("model_expanded_conv_4_squeeze_excite_Conv_Conv2Dx_pad_type_0"), val = tensor<string, []>("same")];
            tensor<int32, [2]> model_expanded_conv_4_squeeze_excite_Conv_Conv2Dx_strides_0 = const()[name = tensor<string, []>("model_expanded_conv_4_squeeze_excite_Conv_Conv2Dx_strides_0"), val = tensor<int32, [2]>([1, 1])];
            tensor<int32, [2]> model_expanded_conv_4_squeeze_excite_Conv_Conv2Dx_dilations_0 = const()[name = tensor<string, []>("model_expanded_conv_4_squeeze_excite_Conv_Conv2Dx_dilations_0"), val = tensor<int32, [2]>([1, 1])];
            tensor<int32, []> model_expanded_conv_4_squeeze_excite_Conv_Conv2Dx_groups_0 = const()[name = tensor<string, []>("model_expanded_conv_4_squeeze_excite_Conv_Conv2Dx_groups_0"), val = tensor<int32, []>(1)];
            tensor<int32, [4]> model_expanded_conv_4_squeeze_excite_Conv_Conv2Dx_pad_0 = const()[name = tensor<string, []>("model_expanded_conv_4_squeeze_excite_Conv_Conv2Dx_pad_0"), val = tensor<int32, [4]>([0, 0, 0, 0])];
            tensor<fp16, [32, 120, 1, 1]> transpose_58_to_fp16 = const()[name = tensor<string, []>("transpose_58_to_fp16"), val = tensor<fp16, [32, 120, 1, 1]>(BLOBFILE(path = tensor<string, []>("@model_path/weights/weight.bin"), offset = tensor<uint64, []>(75968)))];
            tensor<fp16, [32]> const_124_to_fp16 = const()[name = tensor<string, []>("const_124_to_fp16"), val = tensor<fp16, [32]>(BLOBFILE(path = tensor<string, []>("@model_path/weights/weight.bin"), offset = tensor<uint64, []>(83712)))];
            tensor<fp16, [1, 32, 1, 1]> model_expanded_conv_4_squeeze_excite_Conv_BiasAdd_cast_fp16 = conv(bias = const_124_to_fp16, dilations = model_expanded_conv_4_squeeze_excite_Conv_Conv2Dx_dilations_0, groups = model_expanded_conv_4_squeeze_excite_Conv_Conv2Dx_groups_0, pad = model_expanded_conv_4_squeeze_excite_Conv_Conv2Dx_pad_0, pad_type = model_expanded_conv_4_squeeze_excite_Conv_Conv2Dx_pad_type_0, strides = model_expanded_conv_4_squeeze_excite_Conv_Conv2Dx_strides_0, weight = transpose_58_to_fp16, x = model_expanded_conv_4_squeeze_excite_AvgPool_Mean_cast_fp16)[name = tensor<string, []>("model_expanded_conv_4_squeeze_excite_Conv_BiasAdd_cast_fp16")];
            tensor<fp16, [1, 32, 80, 144]> model_conv2d_24_Sigmoid_cast_fp16 = sigmoid(x = model_conv2d_24_BiasAdd_cast_fp16)[name = tensor<string, []>("model_conv2d_24_Sigmoid_cast_fp16")];
            tensor<fp16, [1, 32, 80, 144]> model_multiply_33_mul_cast_fp16 = mul(x = model_multiply_32_mul_cast_fp16, y = model_conv2d_24_Sigmoid_cast_fp16)[name = tensor<string, []>("model_multiply_33_mul_cast_fp16")];
            tensor<fp16, [1, 32, 1, 1]> model_expanded_conv_4_squeeze_excite_Relu_Relu_cast_fp16 = relu(x = model_expanded_conv_4_squeeze_excite_Conv_BiasAdd_cast_fp16)[name = tensor<string, []>("model_expanded_conv_4_squeeze_excite_Relu_Relu_cast_fp16")];
            tensor<string, []> model_expanded_conv_4_squeeze_excite_Conv_1_Conv2Dx_pad_type_0 = const()[name = tensor<string, []>("model_expanded_conv_4_squeeze_excite_Conv_1_Conv2Dx_pad_type_0"), val = tensor<string, []>("same")];
            tensor<int32, [2]> model_expanded_conv_4_squeeze_excite_Conv_1_Conv2Dx_strides_0 = const()[name = tensor<string, []>("model_expanded_conv_4_squeeze_excite_Conv_1_Conv2Dx_strides_0"), val = tensor<int32, [2]>([1, 1])];
            tensor<int32, [2]> model_expanded_conv_4_squeeze_excite_Conv_1_Conv2Dx_dilations_0 = const()[name = tensor<string, []>("model_expanded_conv_4_squeeze_excite_Conv_1_Conv2Dx_dilations_0"), val = tensor<int32, [2]>([1, 1])];
            tensor<int32, []> model_expanded_conv_4_squeeze_excite_Conv_1_Conv2Dx_groups_0 = const()[name = tensor<string, []>("model_expanded_conv_4_squeeze_excite_Conv_1_Conv2Dx_groups_0"), val = tensor<int32, []>(1)];
            tensor<int32, [4]> model_expanded_conv_4_squeeze_excite_Conv_1_Conv2Dx_pad_0 = const()[name = tensor<string, []>("model_expanded_conv_4_squeeze_excite_Conv_1_Conv2Dx_pad_0"), val = tensor<int32, [4]>([0, 0, 0, 0])];
            tensor<fp16, [120, 32, 1, 1]> transpose_60_to_fp16 = const()[name = tensor<string, []>("transpose_60_to_fp16"), val = tensor<fp16, [120, 32, 1, 1]>(BLOBFILE(path = tensor<string, []>("@model_path/weights/weight.bin"), offset = tensor<uint64, []>(83840)))];
            tensor<fp16, [120]> const_202_to_fp16 = const()[name = tensor<string, []>("const_202_to_fp16"), val = tensor<fp16, [120]>(BLOBFILE(path = tensor<string, []>("@model_path/weights/weight.bin"), offset = tensor<uint64, []>(91584)))];
            tensor<fp16, [1, 120, 1, 1]> model_tf___operators___add_2_AddV2_cast_fp16 = conv(bias = const_202_to_fp16, dilations = model_expanded_conv_4_squeeze_excite_Conv_1_Conv2Dx_dilations_0, groups = model_expanded_conv_4_squeeze_excite_Conv_1_Conv2Dx_groups_0, pad = model_expanded_conv_4_squeeze_excite_Conv_1_Conv2Dx_pad_0, pad_type = model_expanded_conv_4_squeeze_excite_Conv_1_Conv2Dx_pad_type_0, strides = model_expanded_conv_4_squeeze_excite_Conv_1_Conv2Dx_strides_0, weight = transpose_60_to_fp16, x = model_expanded_conv_4_squeeze_excite_Relu_Relu_cast_fp16)[name = tensor<string, []>("model_tf___operators___add_2_AddV2_cast_fp16")];
            tensor<fp16, [1, 120, 1, 1]> model_re_lu_11_Relu6_cast_fp16 = relu6(x = model_tf___operators___add_2_AddV2_cast_fp16)[name = tensor<string, []>("model_re_lu_11_Relu6_cast_fp16")];
            tensor<fp16, []> model_tf_math_multiply_2_Mul_y_to_fp16 = const()[name = tensor<string, []>("model_tf_math_multiply_2_Mul_y_to_fp16"), val = tensor<fp16, []>(0x1.554p-3)];
            tensor<fp16, [1, 120, 1, 1]> model_tf_math_multiply_2_Mul_cast_fp16 = mul(x = model_re_lu_11_Relu6_cast_fp16, y = model_tf_math_multiply_2_Mul_y_to_fp16)[name = tensor<string, []>("model_tf_math_multiply_2_Mul_cast_fp16")];
            tensor<fp16, [1, 120, 40, 72]> model_expanded_conv_4_squeeze_excite_Mul_mul_cast_fp16 = mul(x = model_re_lu_10_Relu_cast_fp16, y = model_tf_math_multiply_2_Mul_cast_fp16)[name = tensor<string, []>("model_expanded_conv_4_squeeze_excite_Mul_mul_cast_fp16")];
            tensor<string, []> model_expanded_conv_4_project_Conv2Dx_pad_type_0 = const()[name = tensor<string, []>("model_expanded_conv_4_project_Conv2Dx_pad_type_0"), val = tensor<string, []>("same")];
            tensor<int32, [2]> model_expanded_conv_4_project_Conv2Dx_strides_0 = const()[name = tensor<string, []>("model_expanded_conv_4_project_Conv2Dx_strides_0"), val = tensor<int32, [2]>([1, 1])];
            tensor<int32, [2]> model_expanded_conv_4_project_Conv2Dx_dilations_0 = const()[name = tensor<string, []>("model_expanded_conv_4_project_Conv2Dx_dilations_0"), val = tensor<int32, [2]>([1, 1])];
            tensor<int32, []> model_expanded_conv_4_project_Conv2Dx_groups_0 = const()[name = tensor<string, []>("model_expanded_conv_4_project_Conv2Dx_groups_0"), val = tensor<int32, []>(1)];
            tensor<int32, [4]> model_expanded_conv_4_project_Conv2Dx_pad_0 = const()[name = tensor<string, []>("model_expanded_conv_4_project_Conv2Dx_pad_0"), val = tensor<int32, [4]>([0, 0, 0, 0])];
            tensor<fp16, [40, 120, 1, 1]> const_237_to_fp16 = const()[name = tensor<string, []>("const_237_to_fp16"), val = tensor<fp16, [40, 120, 1, 1]>(BLOBFILE(path = tensor<string, []>("@model_path/weights/weight.bin"), offset = tensor<uint64, []>(91904)))];
            tensor<fp16, [40]> const_238_to_fp16 = const()[name = tensor<string, []>("const_238_to_fp16"), val = tensor<fp16, [40]>(BLOBFILE(path = tensor<string, []>("@model_path/weights/weight.bin"), offset = tensor<uint64, []>(101568)))];
            tensor<fp16, [1, 40, 40, 72]> model_expanded_conv_4_project_BatchNorm_FusedBatchNormV3_nchw_cast_fp16 = conv(bias = const_238_to_fp16, dilations = model_expanded_conv_4_project_Conv2Dx_dilations_0, groups = model_expanded_conv_4_project_Conv2Dx_groups_0, pad = model_expanded_conv_4_project_Conv2Dx_pad_0, pad_type = model_expanded_conv_4_project_Conv2Dx_pad_type_0, strides = model_expanded_conv_4_project_Conv2Dx_strides_0, weight = const_237_to_fp16, x = model_expanded_conv_4_squeeze_excite_Mul_mul_cast_fp16)[name = tensor<string, []>("model_expanded_conv_4_project_BatchNorm_FusedBatchNormV3_nchw_cast_fp16")];
            tensor<fp16, [1, 40, 40, 72]> model_expanded_conv_4_Add_add_cast_fp16 = add(x = model_expanded_conv_3_project_BatchNorm_FusedBatchNormV3_nchw_cast_fp16, y = model_expanded_conv_4_project_BatchNorm_FusedBatchNormV3_nchw_cast_fp16)[name = tensor<string, []>("model_expanded_conv_4_Add_add_cast_fp16")];
            tensor<string, []> model_expanded_conv_5_expand_Conv2Dx_pad_type_0 = const()[name = tensor<string, []>("model_expanded_conv_5_expand_Conv2Dx_pad_type_0"), val = tensor<string, []>("same")];
            tensor<int32, [2]> model_expanded_conv_5_expand_Conv2Dx_strides_0 = const()[name = tensor<string, []>("model_expanded_conv_5_expand_Conv2Dx_strides_0"), val = tensor<int32, [2]>([1, 1])];
            tensor<int32, [2]> model_expanded_conv_5_expand_Conv2Dx_dilations_0 = const()[name = tensor<string, []>("model_expanded_conv_5_expand_Conv2Dx_dilations_0"), val = tensor<int32, [2]>([1, 1])];
            tensor<int32, []> model_expanded_conv_5_expand_Conv2Dx_groups_0 = const()[name = tensor<string, []>("model_expanded_conv_5_expand_Conv2Dx_groups_0"), val = tensor<int32, []>(1)];
            tensor<int32, [4]> model_expanded_conv_5_expand_Conv2Dx_pad_0 = const()[name = tensor<string, []>("model_expanded_conv_5_expand_Conv2Dx_pad_0"), val = tensor<int32, [4]>([0, 0, 0, 0])];
            tensor<fp16, [120, 40, 1, 1]> const_239_to_fp16 = const()[name = tensor<string, []>("const_239_to_fp16"), val = tensor<fp16, [120, 40, 1, 1]>(BLOBFILE(path = tensor<string, []>("@model_path/weights/weight.bin"), offset = tensor<uint64, []>(101760)))];
            tensor<fp16, [120]> const_240_to_fp16 = const()[name = tensor<string, []>("const_240_to_fp16"), val = tensor<fp16, [120]>(BLOBFILE(path = tensor<string, []>("@model_path/weights/weight.bin"), offset = tensor<uint64, []>(111424)))];
            tensor<fp16, [1, 120, 40, 72]> model_expanded_conv_5_expand_BatchNorm_FusedBatchNormV3_nchw_cast_fp16 = conv(bias = const_240_to_fp16, dilations = model_expanded_conv_5_expand_Conv2Dx_dilations_0, groups = model_expanded_conv_5_expand_Conv2Dx_groups_0, pad = model_expanded_conv_5_expand_Conv2Dx_pad_0, pad_type = model_expanded_conv_5_expand_Conv2Dx_pad_type_0, strides = model_expanded_conv_5_expand_Conv2Dx_strides_0, weight = const_239_to_fp16, x = model_expanded_conv_4_Add_add_cast_fp16)[name = tensor<string, []>("model_expanded_conv_5_expand_BatchNorm_FusedBatchNormV3_nchw_cast_fp16")];
            tensor<fp16, [1, 120, 40, 72]> model_re_lu_12_Relu_cast_fp16 = relu(x = model_expanded_conv_5_expand_BatchNorm_FusedBatchNormV3_nchw_cast_fp16)[name = tensor<string, []>("model_re_lu_12_Relu_cast_fp16")];
            tensor<string, []> model_expanded_conv_5_depthwise_depthwisex_pad_type_0 = const()[name = tensor<string, []>("model_expanded_conv_5_depthwise_depthwisex_pad_type_0"), val = tensor<string, []>("same")];
            tensor<int32, [2]> model_expanded_conv_5_depthwise_depthwisex_strides_0 = const()[name = tensor<string, []>("model_expanded_conv_5_depthwise_depthwisex_strides_0"), val = tensor<int32, [2]>([1, 1])];
            tensor<int32, [2]> model_expanded_conv_5_depthwise_depthwisex_dilations_0 = const()[name = tensor<string, []>("model_expanded_conv_5_depthwise_depthwisex_dilations_0"), val = tensor<int32, [2]>([1, 1])];
            tensor<int32, []> model_expanded_conv_5_depthwise_depthwisex_groups_0 = const()[name = tensor<string, []>("model_expanded_conv_5_depthwise_depthwisex_groups_0"), val = tensor<int32, []>(120)];
            tensor<int32, [4]> model_expanded_conv_5_depthwise_depthwisex_pad_0 = const()[name = tensor<string, []>("model_expanded_conv_5_depthwise_depthwisex_pad_0"), val = tensor<int32, [4]>([0, 0, 0, 0])];
            tensor<fp16, [120, 1, 5, 5]> const_241_to_fp16 = const()[name = tensor<string, []>("const_241_to_fp16"), val = tensor<fp16, [120, 1, 5, 5]>(BLOBFILE(path = tensor<string, []>("@model_path/weights/weight.bin"), offset = tensor<uint64, []>(111744)))];
            tensor<fp16, [120]> const_242_to_fp16 = const()[name = tensor<string, []>("const_242_to_fp16"), val = tensor<fp16, [120]>(BLOBFILE(path = tensor<string, []>("@model_path/weights/weight.bin"), offset = tensor<uint64, []>(117824)))];
            tensor<fp16, [1, 120, 40, 72]> model_expanded_conv_5_depthwise_BatchNorm_FusedBatchNormV3_nchw_cast_fp16 = conv(bias = const_242_to_fp16, dilations = model_expanded_conv_5_depthwise_depthwisex_dilations_0, groups = model_expanded_conv_5_depthwise_depthwisex_groups_0, pad = model_expanded_conv_5_depthwise_depthwisex_pad_0, pad_type = model_expanded_conv_5_depthwise_depthwisex_pad_type_0, strides = model_expanded_conv_5_depthwise_depthwisex_strides_0, weight = const_241_to_fp16, x = model_re_lu_12_Relu_cast_fp16)[name = tensor<string, []>("model_expanded_conv_5_depthwise_BatchNorm_FusedBatchNormV3_nchw_cast_fp16")];
            tensor<fp16, [1, 120, 40, 72]> model_re_lu_13_Relu_cast_fp16 = relu(x = model_expanded_conv_5_depthwise_BatchNorm_FusedBatchNormV3_nchw_cast_fp16)[name = tensor<string, []>("model_re_lu_13_Relu_cast_fp16")];
            tensor<bool, []> model_expanded_conv_5_squeeze_excite_AvgPool_Mean_keep_dims_0 = const()[name = tensor<string, []>("model_expanded_conv_5_squeeze_excite_AvgPool_Mean_keep_dims_0"), val = tensor<bool, []>(true)];
            tensor<int32, [2]> const_22 = const()[name = tensor<string, []>("const_22"), val = tensor<int32, [2]>([2, 3])];
            tensor<fp16, [1, 120, 1, 1]> model_expanded_conv_5_squeeze_excite_AvgPool_Mean_cast_fp16 = reduce_mean(axes = const_22, keep_dims = model_expanded_conv_5_squeeze_excite_AvgPool_Mean_keep_dims_0, x = model_re_lu_13_Relu_cast_fp16)[name = tensor<string, []>("model_expanded_conv_5_squeeze_excite_AvgPool_Mean_cast_fp16")];
            tensor<string, []> model_expanded_conv_5_squeeze_excite_Conv_Conv2Dx_pad_type_0 = const()[name = tensor<string, []>("model_expanded_conv_5_squeeze_excite_Conv_Conv2Dx_pad_type_0"), val = tensor<string, []>("same")];
            tensor<int32, [2]> model_expanded_conv_5_squeeze_excite_Conv_Conv2Dx_strides_0 = const()[name = tensor<string, []>("model_expanded_conv_5_squeeze_excite_Conv_Conv2Dx_strides_0"), val = tensor<int32, [2]>([1, 1])];
            tensor<int32, [2]> model_expanded_conv_5_squeeze_excite_Conv_Conv2Dx_dilations_0 = const()[name = tensor<string, []>("model_expanded_conv_5_squeeze_excite_Conv_Conv2Dx_dilations_0"), val = tensor<int32, [2]>([1, 1])];
            tensor<int32, []> model_expanded_conv_5_squeeze_excite_Conv_Conv2Dx_groups_0 = const()[name = tensor<string, []>("model_expanded_conv_5_squeeze_excite_Conv_Conv2Dx_groups_0"), val = tensor<int32, []>(1)];
            tensor<int32, [4]> model_expanded_conv_5_squeeze_excite_Conv_Conv2Dx_pad_0 = const()[name = tensor<string, []>("model_expanded_conv_5_squeeze_excite_Conv_Conv2Dx_pad_0"), val = tensor<int32, [4]>([0, 0, 0, 0])];
            tensor<fp16, [32, 120, 1, 1]> transpose_71_to_fp16 = const()[name = tensor<string, []>("transpose_71_to_fp16"), val = tensor<fp16, [32, 120, 1, 1]>(BLOBFILE(path = tensor<string, []>("@model_path/weights/weight.bin"), offset = tensor<uint64, []>(118144)))];
            tensor<fp16, [32]> const_126_to_fp16 = const()[name = tensor<string, []>("const_126_to_fp16"), val = tensor<fp16, [32]>(BLOBFILE(path = tensor<string, []>("@model_path/weights/weight.bin"), offset = tensor<uint64, []>(125888)))];
            tensor<fp16, [1, 32, 1, 1]> model_expanded_conv_5_squeeze_excite_Conv_BiasAdd_cast_fp16 = conv(bias = const_126_to_fp16, dilations = model_expanded_conv_5_squeeze_excite_Conv_Conv2Dx_dilations_0, groups = model_expanded_conv_5_squeeze_excite_Conv_Conv2Dx_groups_0, pad = model_expanded_conv_5_squeeze_excite_Conv_Conv2Dx_pad_0, pad_type = model_expanded_conv_5_squeeze_excite_Conv_Conv2Dx_pad_type_0, strides = model_expanded_conv_5_squeeze_excite_Conv_Conv2Dx_strides_0, weight = transpose_71_to_fp16, x = model_expanded_conv_5_squeeze_excite_AvgPool_Mean_cast_fp16)[name = tensor<string, []>("model_expanded_conv_5_squeeze_excite_Conv_BiasAdd_cast_fp16")];
            tensor<fp16, [1, 32, 1, 1]> model_expanded_conv_5_squeeze_excite_Relu_Relu_cast_fp16 = relu(x = model_expanded_conv_5_squeeze_excite_Conv_BiasAdd_cast_fp16)[name = tensor<string, []>("model_expanded_conv_5_squeeze_excite_Relu_Relu_cast_fp16")];
            tensor<string, []> model_expanded_conv_5_squeeze_excite_Conv_1_Conv2Dx_pad_type_0 = const()[name = tensor<string, []>("model_expanded_conv_5_squeeze_excite_Conv_1_Conv2Dx_pad_type_0"), val = tensor<string, []>("same")];
            tensor<int32, [2]> model_expanded_conv_5_squeeze_excite_Conv_1_Conv2Dx_strides_0 = const()[name = tensor<string, []>("model_expanded_conv_5_squeeze_excite_Conv_1_Conv2Dx_strides_0"), val = tensor<int32, [2]>([1, 1])];
            tensor<int32, [2]> model_expanded_conv_5_squeeze_excite_Conv_1_Conv2Dx_dilations_0 = const()[name = tensor<string, []>("model_expanded_conv_5_squeeze_excite_Conv_1_Conv2Dx_dilations_0"), val = tensor<int32, [2]>([1, 1])];
            tensor<int32, []> model_expanded_conv_5_squeeze_excite_Conv_1_Conv2Dx_groups_0 = const()[name = tensor<string, []>("model_expanded_conv_5_squeeze_excite_Conv_1_Conv2Dx_groups_0"), val = tensor<int32, []>(1)];
            tensor<int32, [4]> model_expanded_conv_5_squeeze_excite_Conv_1_Conv2Dx_pad_0 = const()[name = tensor<string, []>("model_expanded_conv_5_squeeze_excite_Conv_1_Conv2Dx_pad_0"), val = tensor<int32, [4]>([0, 0, 0, 0])];
            tensor<fp16, [120, 32, 1, 1]> transpose_73_to_fp16 = const()[name = tensor<string, []>("transpose_73_to_fp16"), val = tensor<fp16, [120, 32, 1, 1]>(BLOBFILE(path = tensor<string, []>("@model_path/weights/weight.bin"), offset = tensor<uint64, []>(126016)))];
            tensor<fp16, [120]> const_203_to_fp16 = const()[name = tensor<string, []>("const_203_to_fp16"), val = tensor<fp16, [120]>(BLOBFILE(path = tensor<string, []>("@model_path/weights/weight.bin"), offset = tensor<uint64, []>(133760)))];
            tensor<fp16, [1, 120, 1, 1]> model_tf___operators___add_3_AddV2_cast_fp16 = conv(bias = const_203_to_fp16, dilations = model_expanded_conv_5_squeeze_excite_Conv_1_Conv2Dx_dilations_0, groups = model_expanded_conv_5_squeeze_excite_Conv_1_Conv2Dx_groups_0, pad = model_expanded_conv_5_squeeze_excite_Conv_1_Conv2Dx_pad_0, pad_type = model_expanded_conv_5_squeeze_excite_Conv_1_Conv2Dx_pad_type_0, strides = model_expanded_conv_5_squeeze_excite_Conv_1_Conv2Dx_strides_0, weight = transpose_73_to_fp16, x = model_expanded_conv_5_squeeze_excite_Relu_Relu_cast_fp16)[name = tensor<string, []>("model_tf___operators___add_3_AddV2_cast_fp16")];
            tensor<fp16, [1, 120, 1, 1]> model_re_lu_14_Relu6_cast_fp16 = relu6(x = model_tf___operators___add_3_AddV2_cast_fp16)[name = tensor<string, []>("model_re_lu_14_Relu6_cast_fp16")];
            tensor<fp16, []> model_tf_math_multiply_3_Mul_y_to_fp16 = const()[name = tensor<string, []>("model_tf_math_multiply_3_Mul_y_to_fp16"), val = tensor<fp16, []>(0x1.554p-3)];
            tensor<fp16, [1, 120, 1, 1]> model_tf_math_multiply_3_Mul_cast_fp16 = mul(x = model_re_lu_14_Relu6_cast_fp16, y = model_tf_math_multiply_3_Mul_y_to_fp16)[name = tensor<string, []>("model_tf_math_multiply_3_Mul_cast_fp16")];
            tensor<fp16, [1, 120, 40, 72]> model_expanded_conv_5_squeeze_excite_Mul_mul_cast_fp16 = mul(x = model_re_lu_13_Relu_cast_fp16, y = model_tf_math_multiply_3_Mul_cast_fp16)[name = tensor<string, []>("model_expanded_conv_5_squeeze_excite_Mul_mul_cast_fp16")];
            tensor<string, []> model_expanded_conv_5_project_Conv2Dx_pad_type_0 = const()[name = tensor<string, []>("model_expanded_conv_5_project_Conv2Dx_pad_type_0"), val = tensor<string, []>("same")];
            tensor<int32, [2]> model_expanded_conv_5_project_Conv2Dx_strides_0 = const()[name = tensor<string, []>("model_expanded_conv_5_project_Conv2Dx_strides_0"), val = tensor<int32, [2]>([1, 1])];
            tensor<int32, [2]> model_expanded_conv_5_project_Conv2Dx_dilations_0 = const()[name = tensor<string, []>("model_expanded_conv_5_project_Conv2Dx_dilations_0"), val = tensor<int32, [2]>([1, 1])];
            tensor<int32, []> model_expanded_conv_5_project_Conv2Dx_groups_0 = const()[name = tensor<string, []>("model_expanded_conv_5_project_Conv2Dx_groups_0"), val = tensor<int32, []>(1)];
            tensor<int32, [4]> model_expanded_conv_5_project_Conv2Dx_pad_0 = const()[name = tensor<string, []>("model_expanded_conv_5_project_Conv2Dx_pad_0"), val = tensor<int32, [4]>([0, 0, 0, 0])];
            tensor<fp16, [40, 120, 1, 1]> const_243_to_fp16 = const()[name = tensor<string, []>("const_243_to_fp16"), val = tensor<fp16, [40, 120, 1, 1]>(BLOBFILE(path = tensor<string, []>("@model_path/weights/weight.bin"), offset = tensor<uint64, []>(134080)))];
            tensor<fp16, [40]> const_244_to_fp16 = const()[name = tensor<string, []>("const_244_to_fp16"), val = tensor<fp16, [40]>(BLOBFILE(path = tensor<string, []>("@model_path/weights/weight.bin"), offset = tensor<uint64, []>(143744)))];
            tensor<fp16, [1, 40, 40, 72]> model_expanded_conv_5_project_BatchNorm_FusedBatchNormV3_nchw_cast_fp16 = conv(bias = const_244_to_fp16, dilations = model_expanded_conv_5_project_Conv2Dx_dilations_0, groups = model_expanded_conv_5_project_Conv2Dx_groups_0, pad = model_expanded_conv_5_project_Conv2Dx_pad_0, pad_type = model_expanded_conv_5_project_Conv2Dx_pad_type_0, strides = model_expanded_conv_5_project_Conv2Dx_strides_0, weight = const_243_to_fp16, x = model_expanded_conv_5_squeeze_excite_Mul_mul_cast_fp16)[name = tensor<string, []>("model_expanded_conv_5_project_BatchNorm_FusedBatchNormV3_nchw_cast_fp16")];
            tensor<fp16, [1, 40, 40, 72]> model_expanded_conv_5_Add_add_cast_fp16 = add(x = model_expanded_conv_4_Add_add_cast_fp16, y = model_expanded_conv_5_project_BatchNorm_FusedBatchNormV3_nchw_cast_fp16)[name = tensor<string, []>("model_expanded_conv_5_Add_add_cast_fp16")];
            tensor<string, []> model_expanded_conv_6_expand_Conv2Dx_pad_type_0 = const()[name = tensor<string, []>("model_expanded_conv_6_expand_Conv2Dx_pad_type_0"), val = tensor<string, []>("same")];
            tensor<int32, [2]> model_expanded_conv_6_expand_Conv2Dx_strides_0 = const()[name = tensor<string, []>("model_expanded_conv_6_expand_Conv2Dx_strides_0"), val = tensor<int32, [2]>([1, 1])];
            tensor<int32, [2]> model_expanded_conv_6_expand_Conv2Dx_dilations_0 = const()[name = tensor<string, []>("model_expanded_conv_6_expand_Conv2Dx_dilations_0"), val = tensor<int32, [2]>([1, 1])];
            tensor<int32, []> model_expanded_conv_6_expand_Conv2Dx_groups_0 = const()[name = tensor<string, []>("model_expanded_conv_6_expand_Conv2Dx_groups_0"), val = tensor<int32, []>(1)];
            tensor<int32, [4]> model_expanded_conv_6_expand_Conv2Dx_pad_0 = const()[name = tensor<string, []>("model_expanded_conv_6_expand_Conv2Dx_pad_0"), val = tensor<int32, [4]>([0, 0, 0, 0])];
            tensor<fp16, [240, 40, 1, 1]> const_245_to_fp16 = const()[name = tensor<string, []>("const_245_to_fp16"), val = tensor<fp16, [240, 40, 1, 1]>(BLOBFILE(path = tensor<string, []>("@model_path/weights/weight.bin"), offset = tensor<uint64, []>(143936)))];
            tensor<fp16, [240]> const_246_to_fp16 = const()[name = tensor<string, []>("const_246_to_fp16"), val = tensor<fp16, [240]>(BLOBFILE(path = tensor<string, []>("@model_path/weights/weight.bin"), offset = tensor<uint64, []>(163200)))];
            tensor<fp16, [1, 240, 40, 72]> model_expanded_conv_6_expand_BatchNorm_FusedBatchNormV3_nchw_cast_fp16 = conv(bias = const_246_to_fp16, dilations = model_expanded_conv_6_expand_Conv2Dx_dilations_0, groups = model_expanded_conv_6_expand_Conv2Dx_groups_0, pad = model_expanded_conv_6_expand_Conv2Dx_pad_0, pad_type = model_expanded_conv_6_expand_Conv2Dx_pad_type_0, strides = model_expanded_conv_6_expand_Conv2Dx_strides_0, weight = const_245_to_fp16, x = model_expanded_conv_5_Add_add_cast_fp16)[name = tensor<string, []>("model_expanded_conv_6_expand_BatchNorm_FusedBatchNormV3_nchw_cast_fp16")];
            tensor<fp16, []> model_tf___operators___add_4_y_to_fp16 = const()[name = tensor<string, []>("model_tf___operators___add_4_y_to_fp16"), val = tensor<fp16, []>(0x1.8p+1)];
            tensor<fp16, [1, 240, 40, 72]> model_tf___operators___add_4_AddV2_cast_fp16 = add(x = model_expanded_conv_6_expand_BatchNorm_FusedBatchNormV3_nchw_cast_fp16, y = model_tf___operators___add_4_y_to_fp16)[name = tensor<string, []>("model_tf___operators___add_4_AddV2_cast_fp16")];
            tensor<fp16, [1, 240, 40, 72]> model_re_lu_15_Relu6_cast_fp16 = relu6(x = model_tf___operators___add_4_AddV2_cast_fp16)[name = tensor<string, []>("model_re_lu_15_Relu6_cast_fp16")];
            tensor<fp16, []> model_tf_math_multiply_4_Mul_y_to_fp16 = const()[name = tensor<string, []>("model_tf_math_multiply_4_Mul_y_to_fp16"), val = tensor<fp16, []>(0x1.554p-3)];
            tensor<fp16, [1, 240, 40, 72]> model_tf_math_multiply_4_Mul_cast_fp16 = mul(x = model_re_lu_15_Relu6_cast_fp16, y = model_tf_math_multiply_4_Mul_y_to_fp16)[name = tensor<string, []>("model_tf_math_multiply_4_Mul_cast_fp16")];
            tensor<string, []> model_conv2d_11_Conv2Dx_pad_type_0 = const()[name = tensor<string, []>("model_conv2d_11_Conv2Dx_pad_type_0"), val = tensor<string, []>("same")];
            tensor<int32, [2]> model_conv2d_11_Conv2Dx_strides_0 = const()[name = tensor<string, []>("model_conv2d_11_Conv2Dx_strides_0"), val = tensor<int32, [2]>([1, 1])];
            tensor<int32, [2]> model_conv2d_11_Conv2Dx_dilations_0 = const()[name = tensor<string, []>("model_conv2d_11_Conv2Dx_dilations_0"), val = tensor<int32, [2]>([1, 1])];
            tensor<int32, []> model_conv2d_11_Conv2Dx_groups_0 = const()[name = tensor<string, []>("model_conv2d_11_Conv2Dx_groups_0"), val = tensor<int32, []>(1)];
            tensor<int32, [4]> model_conv2d_11_Conv2Dx_pad_0 = const()[name = tensor<string, []>("model_conv2d_11_Conv2Dx_pad_0"), val = tensor<int32, [4]>([0, 0, 0, 0])];
            tensor<fp16, [64, 240, 1, 1]> transpose_81_to_fp16 = const()[name = tensor<string, []>("transpose_81_to_fp16"), val = tensor<fp16, [64, 240, 1, 1]>(BLOBFILE(path = tensor<string, []>("@model_path/weights/weight.bin"), offset = tensor<uint64, []>(163776)))];
            tensor<fp16, [64]> const_128_to_fp16 = const()[name = tensor<string, []>("const_128_to_fp16"), val = tensor<fp16, [64]>(BLOBFILE(path = tensor<string, []>("@model_path/weights/weight.bin"), offset = tensor<uint64, []>(194560)))];
            tensor<fp16, [1, 64, 40, 72]> model_conv2d_11_BiasAdd_cast_fp16 = conv(bias = const_128_to_fp16, dilations = model_conv2d_11_Conv2Dx_dilations_0, groups = model_conv2d_11_Conv2Dx_groups_0, pad = model_conv2d_11_Conv2Dx_pad_0, pad_type = model_conv2d_11_Conv2Dx_pad_type_0, strides = model_conv2d_11_Conv2Dx_strides_0, weight = transpose_81_to_fp16, x = model_re_lu_15_Relu6_cast_fp16)[name = tensor<string, []>("model_conv2d_11_BiasAdd_cast_fp16")];
            tensor<fp16, [1, 240, 40, 72]> model_multiply_1_mul_cast_fp16 = mul(x = model_expanded_conv_6_expand_BatchNorm_FusedBatchNormV3_nchw_cast_fp16, y = model_tf_math_multiply_4_Mul_cast_fp16)[name = tensor<string, []>("model_multiply_1_mul_cast_fp16")];
            tensor<string, []> pad_2_mode_0 = const()[name = tensor<string, []>("pad_2_mode_0"), val = tensor<string, []>("constant")];
            tensor<int32, [2]> model_global_average_pooling2d_3_Mean_axes_0 = const()[name = tensor<string, []>("model_global_average_pooling2d_3_Mean_axes_0"), val = tensor<int32, [2]>([1, 2])];
            tensor<bool, []> model_global_average_pooling2d_3_Mean_keep_dims_0 = const()[name = tensor<string, []>("model_global_average_pooling2d_3_Mean_keep_dims_0"), val = tensor<bool, []>(false)];
            tensor<int32, [4]> transpose_378_perm_0 = const()[name = tensor<string, []>("transpose_378_perm_0"), val = tensor<int32, [4]>([0, 2, 3, 1])];
            tensor<fp16, [1, 40, 72, 64]> transpose_378_cast_fp16 = transpose(perm = transpose_378_perm_0, x = model_conv2d_11_BiasAdd_cast_fp16)[name = tensor<string, []>("transpose_399")];
            tensor<fp16, [1, 64]> model_global_average_pooling2d_3_Mean_cast_fp16 = reduce_mean(axes = model_global_average_pooling2d_3_Mean_axes_0, keep_dims = model_global_average_pooling2d_3_Mean_keep_dims_0, x = transpose_378_cast_fp16)[name = tensor<string, []>("model_global_average_pooling2d_3_Mean_cast_fp16")];
            tensor<int32, [2]> model_global_max_pooling2d_2_Max_axes_0 = const()[name = tensor<string, []>("model_global_max_pooling2d_2_Max_axes_0"), val = tensor<int32, [2]>([1, 2])];
            tensor<bool, []> model_global_max_pooling2d_2_Max_keep_dims_0 = const()[name = tensor<string, []>("model_global_max_pooling2d_2_Max_keep_dims_0"), val = tensor<bool, []>(false)];
            tensor<fp16, [1, 64]> model_global_max_pooling2d_2_Max_cast_fp16 = reduce_max(axes = model_global_max_pooling2d_2_Max_axes_0, keep_dims = model_global_max_pooling2d_2_Max_keep_dims_0, x = transpose_378_cast_fp16)[name = tensor<string, []>("model_global_max_pooling2d_2_Max_cast_fp16")];
            tensor<int32, [8]> pad_6_pad_0 = const()[name = tensor<string, []>("pad_6_pad_0"), val = tensor<int32, [8]>([0, 0, 0, 0, 0, 1, 0, 1])];
            tensor<fp16, []> const_2_to_fp16 = const()[name = tensor<string, []>("const_2_to_fp16"), val = tensor<fp16, []>(0x0p+0)];
            tensor<fp16, [1, 240, 41, 73]> pad_6_cast_fp16 = pad(constant_val = const_2_to_fp16, mode = pad_2_mode_0, pad = pad_6_pad_0, x = model_multiply_1_mul_cast_fp16)[name = tensor<string, []>("pad_6_cast_fp16")];
            tensor<string, []> model_expanded_conv_6_depthwise_depthwisex_pad_type_0 = const()[name = tensor<string, []>("model_expanded_conv_6_depthwise_depthwisex_pad_type_0"), val = tensor<string, []>("valid")];
            tensor<int32, [2]> model_expanded_conv_6_depthwise_depthwisex_strides_0 = const()[name = tensor<string, []>("model_expanded_conv_6_depthwise_depthwisex_strides_0"), val = tensor<int32, [2]>([2, 2])];
            tensor<int32, [2]> model_expanded_conv_6_depthwise_depthwisex_dilations_0 = const()[name = tensor<string, []>("model_expanded_conv_6_depthwise_depthwisex_dilations_0"), val = tensor<int32, [2]>([1, 1])];
            tensor<int32, []> model_expanded_conv_6_depthwise_depthwisex_groups_0 = const()[name = tensor<string, []>("model_expanded_conv_6_depthwise_depthwisex_groups_0"), val = tensor<int32, []>(240)];
            tensor<int32, [4]> model_expanded_conv_6_depthwise_depthwisex_pad_0 = const()[name = tensor<string, []>("model_expanded_conv_6_depthwise_depthwisex_pad_0"), val = tensor<int32, [4]>([0, 0, 0, 0])];
            tensor<fp16, [240, 1, 3, 3]> const_247_to_fp16 = const()[name = tensor<string, []>("const_247_to_fp16"), val = tensor<fp16, [240, 1, 3, 3]>(BLOBFILE(path = tensor<string, []>("@model_path/weights/weight.bin"), offset = tensor<uint64, []>(194752)))];
            tensor<fp16, [240]> const_248_to_fp16 = const()[name = tensor<string, []>("const_248_to_fp16"), val = tensor<fp16, [240]>(BLOBFILE(path = tensor<string, []>("@model_path/weights/weight.bin"), offset = tensor<uint64, []>(199168)))];
            tensor<fp16, [1, 240, 20, 36]> model_expanded_conv_6_depthwise_BatchNorm_FusedBatchNormV3_nchw_cast_fp16 = conv(bias = const_248_to_fp16, dilations = model_expanded_conv_6_depthwise_depthwisex_dilations_0, groups = model_expanded_conv_6_depthwise_depthwisex_groups_0, pad = model_expanded_conv_6_depthwise_depthwisex_pad_0, pad_type = model_expanded_conv_6_depthwise_depthwisex_pad_type_0, strides = model_expanded_conv_6_depthwise_depthwisex_strides_0, weight = const_247_to_fp16, x = pad_6_cast_fp16)[name = tensor<string, []>("model_expanded_conv_6_depthwise_BatchNorm_FusedBatchNormV3_nchw_cast_fp16")];
            tensor<bool, []> model_concatenate_5_concat_interleave_0 = const()[name = tensor<string, []>("model_concatenate_5_concat_interleave_0"), val = tensor<bool, []>(false)];
            tensor<fp16, [1, 128]> model_concatenate_5_concat_cast_fp16 = concat(axis = model_concatenate_5_concat_axis, interleave = model_concatenate_5_concat_interleave_0, values = (model_global_average_pooling2d_3_Mean_cast_fp16, model_global_max_pooling2d_2_Max_cast_fp16))[name = tensor<string, []>("model_concatenate_5_concat_cast_fp16")];
            tensor<fp16, [16, 128]> transpose_349_cast_fp16_to_fp32_to_fp16 = const()[name = tensor<string, []>("transpose_349_cast_fp16_to_fp32_to_fp16"), val = tensor<fp16, [16, 128]>(BLOBFILE(path = tensor<string, []>("@model_path/weights/weight.bin"), offset = tensor<uint64, []>(199744)))];
            tensor<fp16, [16]> model_dense_5_BiasAdd_bias_0_to_fp16 = const()[name = tensor<string, []>("model_dense_5_BiasAdd_bias_0_to_fp16"), val = tensor<fp16, [16]>(BLOBFILE(path = tensor<string, []>("@model_path/weights/weight.bin"), offset = tensor<uint64, []>(203904)))];
            tensor<fp16, [1, 16]> model_dense_5_BiasAdd_cast_fp16 = linear(bias = model_dense_5_BiasAdd_bias_0_to_fp16, weight = transpose_349_cast_fp16_to_fp32_to_fp16, x = model_concatenate_5_concat_cast_fp16)[name = tensor<string, []>("model_dense_5_BiasAdd_cast_fp16")];
            tensor<fp16, []> model_tf___operators___add_5_y_to_fp16 = const()[name = tensor<string, []>("model_tf___operators___add_5_y_to_fp16"), val = tensor<fp16, []>(0x1.8p+1)];
            tensor<fp16, [1, 240, 20, 36]> model_tf___operators___add_5_AddV2_cast_fp16 = add(x = model_expanded_conv_6_depthwise_BatchNorm_FusedBatchNormV3_nchw_cast_fp16, y = model_tf___operators___add_5_y_to_fp16)[name = tensor<string, []>("model_tf___operators___add_5_AddV2_cast_fp16")];
            tensor<fp16, [1, 240, 20, 36]> model_re_lu_16_Relu6_cast_fp16 = relu6(x = model_tf___operators___add_5_AddV2_cast_fp16)[name = tensor<string, []>("model_re_lu_16_Relu6_cast_fp16")];
            tensor<fp16, [1, 16]> model_dense_5_Relu_cast_fp16 = relu(x = model_dense_5_BiasAdd_cast_fp16)[name = tensor<string, []>("model_dense_5_Relu_cast_fp16")];
            tensor<fp16, []> model_tf_math_multiply_5_Mul_y_to_fp16 = const()[name = tensor<string, []>("model_tf_math_multiply_5_Mul_y_to_fp16"), val = tensor<fp16, []>(0x1.554p-3)];
            tensor<fp16, [1, 240, 20, 36]> model_tf_math_multiply_5_Mul_cast_fp16 = mul(x = model_re_lu_16_Relu6_cast_fp16, y = model_tf_math_multiply_5_Mul_y_to_fp16)[name = tensor<string, []>("model_tf_math_multiply_5_Mul_cast_fp16")];
            tensor<fp16, [64, 16]> transpose_350_cast_fp16_to_fp32_to_fp16 = const()[name = tensor<string, []>("transpose_350_cast_fp16_to_fp32_to_fp16"), val = tensor<fp16, [64, 16]>(BLOBFILE(path = tensor<string, []>("@model_path/weights/weight.bin"), offset = tensor<uint64, []>(204032)))];
            tensor<fp16, [64]> model_dense_6_BiasAdd_bias_0_to_fp16 = const()[name = tensor<string, []>("model_dense_6_BiasAdd_bias_0_to_fp16"), val = tensor<fp16, [64]>(BLOBFILE(path = tensor<string, []>("@model_path/weights/weight.bin"), offset = tensor<uint64, []>(206144)))];
            tensor<fp16, [1, 64]> model_dense_6_BiasAdd_cast_fp16 = linear(bias = model_dense_6_BiasAdd_bias_0_to_fp16, weight = transpose_350_cast_fp16_to_fp32_to_fp16, x = model_dense_5_Relu_cast_fp16)[name = tensor<string, []>("model_dense_6_BiasAdd_cast_fp16")];
            tensor<fp16, [1, 240, 20, 36]> model_multiply_2_mul_cast_fp16 = mul(x = model_expanded_conv_6_depthwise_BatchNorm_FusedBatchNormV3_nchw_cast_fp16, y = model_tf_math_multiply_5_Mul_cast_fp16)[name = tensor<string, []>("model_multiply_2_mul_cast_fp16")];
            tensor<string, []> model_expanded_conv_6_project_Conv2Dx_pad_type_0 = const()[name = tensor<string, []>("model_expanded_conv_6_project_Conv2Dx_pad_type_0"), val = tensor<string, []>("same")];
            tensor<int32, [2]> model_expanded_conv_6_project_Conv2Dx_strides_0 = const()[name = tensor<string, []>("model_expanded_conv_6_project_Conv2Dx_strides_0"), val = tensor<int32, [2]>([1, 1])];
            tensor<int32, [2]> model_expanded_conv_6_project_Conv2Dx_dilations_0 = const()[name = tensor<string, []>("model_expanded_conv_6_project_Conv2Dx_dilations_0"), val = tensor<int32, [2]>([1, 1])];
            tensor<int32, []> model_expanded_conv_6_project_Conv2Dx_groups_0 = const()[name = tensor<string, []>("model_expanded_conv_6_project_Conv2Dx_groups_0"), val = tensor<int32, []>(1)];
            tensor<int32, [4]> model_expanded_conv_6_project_Conv2Dx_pad_0 = const()[name = tensor<string, []>("model_expanded_conv_6_project_Conv2Dx_pad_0"), val = tensor<int32, [4]>([0, 0, 0, 0])];
            tensor<fp16, [80, 240, 1, 1]> const_249_to_fp16 = const()[name = tensor<string, []>("const_249_to_fp16"), val = tensor<fp16, [80, 240, 1, 1]>(BLOBFILE(path = tensor<string, []>("@model_path/weights/weight.bin"), offset = tensor<uint64, []>(206336)))];
            tensor<fp16, [80]> const_250_to_fp16 = const()[name = tensor<string, []>("const_250_to_fp16"), val = tensor<fp16, [80]>(BLOBFILE(path = tensor<string, []>("@model_path/weights/weight.bin"), offset = tensor<uint64, []>(244800)))];
            tensor<fp16, [1, 80, 20, 36]> model_expanded_conv_6_project_BatchNorm_FusedBatchNormV3_nchw_cast_fp16 = conv(bias = const_250_to_fp16, dilations = model_expanded_conv_6_project_Conv2Dx_dilations_0, groups = model_expanded_conv_6_project_Conv2Dx_groups_0, pad = model_expanded_conv_6_project_Conv2Dx_pad_0, pad_type = model_expanded_conv_6_project_Conv2Dx_pad_type_0, strides = model_expanded_conv_6_project_Conv2Dx_strides_0, weight = const_249_to_fp16, x = model_multiply_2_mul_cast_fp16)[name = tensor<string, []>("model_expanded_conv_6_project_BatchNorm_FusedBatchNormV3_nchw_cast_fp16")];
            tensor<fp16, [1, 64]> model_dense_6_Sigmoid_cast_fp16 = sigmoid(x = model_dense_6_BiasAdd_cast_fp16)[name = tensor<string, []>("model_dense_6_Sigmoid_cast_fp16")];
            tensor<string, []> model_expanded_conv_7_expand_Conv2Dx_pad_type_0 = const()[name = tensor<string, []>("model_expanded_conv_7_expand_Conv2Dx_pad_type_0"), val = tensor<string, []>("same")];
            tensor<int32, [2]> model_expanded_conv_7_expand_Conv2Dx_strides_0 = const()[name = tensor<string, []>("model_expanded_conv_7_expand_Conv2Dx_strides_0"), val = tensor<int32, [2]>([1, 1])];
            tensor<int32, [2]> model_expanded_conv_7_expand_Conv2Dx_dilations_0 = const()[name = tensor<string, []>("model_expanded_conv_7_expand_Conv2Dx_dilations_0"), val = tensor<int32, [2]>([1, 1])];
            tensor<int32, []> model_expanded_conv_7_expand_Conv2Dx_groups_0 = const()[name = tensor<string, []>("model_expanded_conv_7_expand_Conv2Dx_groups_0"), val = tensor<int32, []>(1)];
            tensor<int32, [4]> model_expanded_conv_7_expand_Conv2Dx_pad_0 = const()[name = tensor<string, []>("model_expanded_conv_7_expand_Conv2Dx_pad_0"), val = tensor<int32, [4]>([0, 0, 0, 0])];
            tensor<fp16, [200, 80, 1, 1]> const_251_to_fp16 = const()[name = tensor<string, []>("const_251_to_fp16"), val = tensor<fp16, [200, 80, 1, 1]>(BLOBFILE(path = tensor<string, []>("@model_path/weights/weight.bin"), offset = tensor<uint64, []>(245056)))];
            tensor<fp16, [200]> const_252_to_fp16 = const()[name = tensor<string, []>("const_252_to_fp16"), val = tensor<fp16, [200]>(BLOBFILE(path = tensor<string, []>("@model_path/weights/weight.bin"), offset = tensor<uint64, []>(277120)))];
            tensor<fp16, [1, 200, 20, 36]> model_expanded_conv_7_expand_BatchNorm_FusedBatchNormV3_nchw_cast_fp16 = conv(bias = const_252_to_fp16, dilations = model_expanded_conv_7_expand_Conv2Dx_dilations_0, groups = model_expanded_conv_7_expand_Conv2Dx_groups_0, pad = model_expanded_conv_7_expand_Conv2Dx_pad_0, pad_type = model_expanded_conv_7_expand_Conv2Dx_pad_type_0, strides = model_expanded_conv_7_expand_Conv2Dx_strides_0, weight = const_251_to_fp16, x = model_expanded_conv_6_project_BatchNorm_FusedBatchNormV3_nchw_cast_fp16)[name = tensor<string, []>("model_expanded_conv_7_expand_BatchNorm_FusedBatchNormV3_nchw_cast_fp16")];
            tensor<fp16, []> model_tf___operators___add_6_y_to_fp16 = const()[name = tensor<string, []>("model_tf___operators___add_6_y_to_fp16"), val = tensor<fp16, []>(0x1.8p+1)];
            tensor<fp16, [1, 200, 20, 36]> model_tf___operators___add_6_AddV2_cast_fp16 = add(x = model_expanded_conv_7_expand_BatchNorm_FusedBatchNormV3_nchw_cast_fp16, y = model_tf___operators___add_6_y_to_fp16)[name = tensor<string, []>("model_tf___operators___add_6_AddV2_cast_fp16")];
            tensor<fp16, [1, 200, 20, 36]> model_re_lu_17_Relu6_cast_fp16 = relu6(x = model_tf___operators___add_6_AddV2_cast_fp16)[name = tensor<string, []>("model_re_lu_17_Relu6_cast_fp16")];
            tensor<int32, [4]> reshape_27_shape_0 = const()[name = tensor<string, []>("reshape_27_shape_0"), val = tensor<int32, [4]>([1, 64, 1, 1])];
            tensor<fp16, [1, 64, 1, 1]> reshape_27_cast_fp16 = reshape(shape = reshape_27_shape_0, x = model_dense_6_Sigmoid_cast_fp16)[name = tensor<string, []>("reshape_27_cast_fp16")];
            tensor<fp16, [1, 64, 40, 72]> model_multiply_26_mul_cast_fp16 = mul(x = model_conv2d_11_BiasAdd_cast_fp16, y = reshape_27_cast_fp16)[name = tensor<string, []>("model_multiply_26_mul_cast_fp16")];
            tensor<fp16, []> model_tf_math_multiply_6_Mul_y_to_fp16 = const()[name = tensor<string, []>("model_tf_math_multiply_6_Mul_y_to_fp16"), val = tensor<fp16, []>(0x1.554p-3)];
            tensor<fp16, [1, 200, 20, 36]> model_tf_math_multiply_6_Mul_cast_fp16 = mul(x = model_re_lu_17_Relu6_cast_fp16, y = model_tf_math_multiply_6_Mul_y_to_fp16)[name = tensor<string, []>("model_tf_math_multiply_6_Mul_cast_fp16")];
            tensor<string, []> model_conv2d_12_Conv2Dx_pad_type_0 = const()[name = tensor<string, []>("model_conv2d_12_Conv2Dx_pad_type_0"), val = tensor<string, []>("same")];
            tensor<int32, [2]> model_conv2d_12_Conv2Dx_strides_0 = const()[name = tensor<string, []>("model_conv2d_12_Conv2Dx_strides_0"), val = tensor<int32, [2]>([1, 1])];
            tensor<int32, [2]> model_conv2d_12_Conv2Dx_dilations_0 = const()[name = tensor<string, []>("model_conv2d_12_Conv2Dx_dilations_0"), val = tensor<int32, [2]>([1, 1])];
            tensor<int32, []> model_conv2d_12_Conv2Dx_groups_0 = const()[name = tensor<string, []>("model_conv2d_12_Conv2Dx_groups_0"), val = tensor<int32, []>(1)];
            tensor<int32, [4]> model_conv2d_12_Conv2Dx_pad_0 = const()[name = tensor<string, []>("model_conv2d_12_Conv2Dx_pad_0"), val = tensor<int32, [4]>([0, 0, 0, 0])];
            tensor<fp16, [64, 64, 1, 1]> transpose_92_to_fp16 = const()[name = tensor<string, []>("transpose_92_to_fp16"), val = tensor<fp16, [64, 64, 1, 1]>(BLOBFILE(path = tensor<string, []>("@model_path/weights/weight.bin"), offset = tensor<uint64, []>(277632)))];
            tensor<fp16, [64]> const_129_to_fp16 = const()[name = tensor<string, []>("const_129_to_fp16"), val = tensor<fp16, [64]>(BLOBFILE(path = tensor<string, []>("@model_path/weights/weight.bin"), offset = tensor<uint64, []>(285888)))];
            tensor<fp16, [1, 64, 40, 72]> model_conv2d_12_BiasAdd_cast_fp16 = conv(bias = const_129_to_fp16, dilations = model_conv2d_12_Conv2Dx_dilations_0, groups = model_conv2d_12_Conv2Dx_groups_0, pad = model_conv2d_12_Conv2Dx_pad_0, pad_type = model_conv2d_12_Conv2Dx_pad_type_0, strides = model_conv2d_12_Conv2Dx_strides_0, weight = transpose_92_to_fp16, x = model_multiply_26_mul_cast_fp16)[name = tensor<string, []>("model_conv2d_12_BiasAdd_cast_fp16")];
            tensor<fp16, [1, 200, 20, 36]> model_multiply_3_mul_cast_fp16 = mul(x = model_expanded_conv_7_expand_BatchNorm_FusedBatchNormV3_nchw_cast_fp16, y = model_tf_math_multiply_6_Mul_cast_fp16)[name = tensor<string, []>("model_multiply_3_mul_cast_fp16")];
            tensor<string, []> model_expanded_conv_7_depthwise_depthwisex_pad_type_0 = const()[name = tensor<string, []>("model_expanded_conv_7_depthwise_depthwisex_pad_type_0"), val = tensor<string, []>("same")];
            tensor<int32, [2]> model_expanded_conv_7_depthwise_depthwisex_strides_0 = const()[name = tensor<string, []>("model_expanded_conv_7_depthwise_depthwisex_strides_0"), val = tensor<int32, [2]>([1, 1])];
            tensor<int32, [2]> model_expanded_conv_7_depthwise_depthwisex_dilations_0 = const()[name = tensor<string, []>("model_expanded_conv_7_depthwise_depthwisex_dilations_0"), val = tensor<int32, [2]>([1, 1])];
            tensor<int32, []> model_expanded_conv_7_depthwise_depthwisex_groups_0 = const()[name = tensor<string, []>("model_expanded_conv_7_depthwise_depthwisex_groups_0"), val = tensor<int32, []>(200)];
            tensor<int32, [4]> model_expanded_conv_7_depthwise_depthwisex_pad_0 = const()[name = tensor<string, []>("model_expanded_conv_7_depthwise_depthwisex_pad_0"), val = tensor<int32, [4]>([0, 0, 0, 0])];
            tensor<fp16, [200, 1, 3, 3]> const_253_to_fp16 = const()[name = tensor<string, []>("const_253_to_fp16"), val = tensor<fp16, [200, 1, 3, 3]>(BLOBFILE(path = tensor<string, []>("@model_path/weights/weight.bin"), offset = tensor<uint64, []>(286080)))];
            tensor<fp16, [200]> const_254_to_fp16 = const()[name = tensor<string, []>("const_254_to_fp16"), val = tensor<fp16, [200]>(BLOBFILE(path = tensor<string, []>("@model_path/weights/weight.bin"), offset = tensor<uint64, []>(289792)))];
            tensor<fp16, [1, 200, 20, 36]> model_expanded_conv_7_depthwise_BatchNorm_FusedBatchNormV3_nchw_cast_fp16 = conv(bias = const_254_to_fp16, dilations = model_expanded_conv_7_depthwise_depthwisex_dilations_0, groups = model_expanded_conv_7_depthwise_depthwisex_groups_0, pad = model_expanded_conv_7_depthwise_depthwisex_pad_0, pad_type = model_expanded_conv_7_depthwise_depthwisex_pad_type_0, strides = model_expanded_conv_7_depthwise_depthwisex_strides_0, weight = const_253_to_fp16, x = model_multiply_3_mul_cast_fp16)[name = tensor<string, []>("model_expanded_conv_7_depthwise_BatchNorm_FusedBatchNormV3_nchw_cast_fp16")];
            tensor<fp16, [1, 64, 40, 72]> model_conv2d_12_Sigmoid_cast_fp16 = sigmoid(x = model_conv2d_12_BiasAdd_cast_fp16)[name = tensor<string, []>("model_conv2d_12_Sigmoid_cast_fp16")];
            tensor<fp16, []> model_lambda_3_clip_by_value_Minimum_y_to_fp16 = const()[name = tensor<string, []>("model_lambda_3_clip_by_value_Minimum_y_to_fp16"), val = tensor<fp16, []>(0x1.cccp-1)];
            tensor<fp16, [1, 64, 40, 72]> model_lambda_3_clip_by_value_Minimum_cast_fp16 = minimum(x = model_conv2d_12_Sigmoid_cast_fp16, y = model_lambda_3_clip_by_value_Minimum_y_to_fp16)[name = tensor<string, []>("model_lambda_3_clip_by_value_Minimum_cast_fp16")];
            tensor<fp16, []> model_tf___operators___add_7_y_to_fp16 = const()[name = tensor<string, []>("model_tf___operators___add_7_y_to_fp16"), val = tensor<fp16, []>(0x1.8p+1)];
            tensor<fp16, [1, 200, 20, 36]> model_tf___operators___add_7_AddV2_cast_fp16 = add(x = model_expanded_conv_7_depthwise_BatchNorm_FusedBatchNormV3_nchw_cast_fp16, y = model_tf___operators___add_7_y_to_fp16)[name = tensor<string, []>("model_tf___operators___add_7_AddV2_cast_fp16")];
            tensor<fp16, []> model_lambda_3_clip_by_value_y_to_fp16 = const()[name = tensor<string, []>("model_lambda_3_clip_by_value_y_to_fp16"), val = tensor<fp16, []>(0x1.998p-4)];
            tensor<fp16, [1, 64, 40, 72]> model_lambda_3_clip_by_value_cast_fp16 = maximum(x = model_lambda_3_clip_by_value_Minimum_cast_fp16, y = model_lambda_3_clip_by_value_y_to_fp16)[name = tensor<string, []>("model_lambda_3_clip_by_value_cast_fp16")];
            tensor<fp16, [1, 200, 20, 36]> model_re_lu_18_Relu6_cast_fp16 = relu6(x = model_tf___operators___add_7_AddV2_cast_fp16)[name = tensor<string, []>("model_re_lu_18_Relu6_cast_fp16")];
            tensor<fp16, [1, 64, 40, 72]> model_subtract_1_sub_cast_fp16 = sub(x = model_multiply_26_mul_cast_fp16, y = model_lambda_3_clip_by_value_cast_fp16)[name = tensor<string, []>("model_subtract_1_sub_cast_fp16")];
            tensor<fp16, []> model_tf_math_multiply_7_Mul_y_to_fp16 = const()[name = tensor<string, []>("model_tf_math_multiply_7_Mul_y_to_fp16"), val = tensor<fp16, []>(0x1.554p-3)];
            tensor<fp16, [1, 200, 20, 36]> model_tf_math_multiply_7_Mul_cast_fp16 = mul(x = model_re_lu_18_Relu6_cast_fp16, y = model_tf_math_multiply_7_Mul_y_to_fp16)[name = tensor<string, []>("model_tf_math_multiply_7_Mul_cast_fp16")];
            tensor<string, []> model_conv2d_13_Conv2Dx_pad_type_0 = const()[name = tensor<string, []>("model_conv2d_13_Conv2Dx_pad_type_0"), val = tensor<string, []>("same")];
            tensor<int32, [2]> model_conv2d_13_Conv2Dx_strides_0 = const()[name = tensor<string, []>("model_conv2d_13_Conv2Dx_strides_0"), val = tensor<int32, [2]>([1, 1])];
            tensor<int32, [2]> model_conv2d_13_Conv2Dx_dilations_0 = const()[name = tensor<string, []>("model_conv2d_13_Conv2Dx_dilations_0"), val = tensor<int32, [2]>([1, 1])];
            tensor<int32, []> model_conv2d_13_Conv2Dx_groups_0 = const()[name = tensor<string, []>("model_conv2d_13_Conv2Dx_groups_0"), val = tensor<int32, []>(1)];
            tensor<int32, [4]> model_conv2d_13_Conv2Dx_pad_0 = const()[name = tensor<string, []>("model_conv2d_13_Conv2Dx_pad_0"), val = tensor<int32, [4]>([0, 0, 0, 0])];
            tensor<fp16, [64, 64, 1, 1]> transpose_97_to_fp16 = const()[name = tensor<string, []>("transpose_97_to_fp16"), val = tensor<fp16, [64, 64, 1, 1]>(BLOBFILE(path = tensor<string, []>("@model_path/weights/weight.bin"), offset = tensor<uint64, []>(290304)))];
            tensor<fp16, [64]> const_130_to_fp16 = const()[name = tensor<string, []>("const_130_to_fp16"), val = tensor<fp16, [64]>(BLOBFILE(path = tensor<string, []>("@model_path/weights/weight.bin"), offset = tensor<uint64, []>(298560)))];
            tensor<fp16, [1, 64, 40, 72]> model_conv2d_13_BiasAdd_cast_fp16 = conv(bias = const_130_to_fp16, dilations = model_conv2d_13_Conv2Dx_dilations_0, groups = model_conv2d_13_Conv2Dx_groups_0, pad = model_conv2d_13_Conv2Dx_pad_0, pad_type = model_conv2d_13_Conv2Dx_pad_type_0, strides = model_conv2d_13_Conv2Dx_strides_0, weight = transpose_97_to_fp16, x = model_subtract_1_sub_cast_fp16)[name = tensor<string, []>("model_conv2d_13_BiasAdd_cast_fp16")];
            tensor<fp16, [1, 200, 20, 36]> model_multiply_4_mul_cast_fp16 = mul(x = model_expanded_conv_7_depthwise_BatchNorm_FusedBatchNormV3_nchw_cast_fp16, y = model_tf_math_multiply_7_Mul_cast_fp16)[name = tensor<string, []>("model_multiply_4_mul_cast_fp16")];
            tensor<string, []> model_expanded_conv_7_project_Conv2Dx_pad_type_0 = const()[name = tensor<string, []>("model_expanded_conv_7_project_Conv2Dx_pad_type_0"), val = tensor<string, []>("same")];
            tensor<int32, [2]> model_expanded_conv_7_project_Conv2Dx_strides_0 = const()[name = tensor<string, []>("model_expanded_conv_7_project_Conv2Dx_strides_0"), val = tensor<int32, [2]>([1, 1])];
            tensor<int32, [2]> model_expanded_conv_7_project_Conv2Dx_dilations_0 = const()[name = tensor<string, []>("model_expanded_conv_7_project_Conv2Dx_dilations_0"), val = tensor<int32, [2]>([1, 1])];
            tensor<int32, []> model_expanded_conv_7_project_Conv2Dx_groups_0 = const()[name = tensor<string, []>("model_expanded_conv_7_project_Conv2Dx_groups_0"), val = tensor<int32, []>(1)];
            tensor<int32, [4]> model_expanded_conv_7_project_Conv2Dx_pad_0 = const()[name = tensor<string, []>("model_expanded_conv_7_project_Conv2Dx_pad_0"), val = tensor<int32, [4]>([0, 0, 0, 0])];
            tensor<fp16, [80, 200, 1, 1]> const_255_to_fp16 = const()[name = tensor<string, []>("const_255_to_fp16"), val = tensor<fp16, [80, 200, 1, 1]>(BLOBFILE(path = tensor<string, []>("@model_path/weights/weight.bin"), offset = tensor<uint64, []>(298752)))];
            tensor<fp16, [80]> const_256_to_fp16 = const()[name = tensor<string, []>("const_256_to_fp16"), val = tensor<fp16, [80]>(BLOBFILE(path = tensor<string, []>("@model_path/weights/weight.bin"), offset = tensor<uint64, []>(330816)))];
            tensor<fp16, [1, 80, 20, 36]> model_expanded_conv_7_project_BatchNorm_FusedBatchNormV3_nchw_cast_fp16 = conv(bias = const_256_to_fp16, dilations = model_expanded_conv_7_project_Conv2Dx_dilations_0, groups = model_expanded_conv_7_project_Conv2Dx_groups_0, pad = model_expanded_conv_7_project_Conv2Dx_pad_0, pad_type = model_expanded_conv_7_project_Conv2Dx_pad_type_0, strides = model_expanded_conv_7_project_Conv2Dx_strides_0, weight = const_255_to_fp16, x = model_multiply_4_mul_cast_fp16)[name = tensor<string, []>("model_expanded_conv_7_project_BatchNorm_FusedBatchNormV3_nchw_cast_fp16")];
            tensor<fp16, [1, 64, 40, 72]> model_conv2d_13_Sigmoid_cast_fp16 = sigmoid(x = model_conv2d_13_BiasAdd_cast_fp16)[name = tensor<string, []>("model_conv2d_13_Sigmoid_cast_fp16")];
            tensor<fp16, [1, 64, 40, 72]> model_multiply_27_mul_cast_fp16 = mul(x = model_multiply_26_mul_cast_fp16, y = model_conv2d_13_Sigmoid_cast_fp16)[name = tensor<string, []>("model_multiply_27_mul_cast_fp16")];
            tensor<fp16, [1, 80, 20, 36]> model_expanded_conv_7_Add_add_cast_fp16 = add(x = model_expanded_conv_6_project_BatchNorm_FusedBatchNormV3_nchw_cast_fp16, y = model_expanded_conv_7_project_BatchNorm_FusedBatchNormV3_nchw_cast_fp16)[name = tensor<string, []>("model_expanded_conv_7_Add_add_cast_fp16")];
            tensor<string, []> model_expanded_conv_8_expand_Conv2Dx_pad_type_0 = const()[name = tensor<string, []>("model_expanded_conv_8_expand_Conv2Dx_pad_type_0"), val = tensor<string, []>("same")];
            tensor<int32, [2]> model_expanded_conv_8_expand_Conv2Dx_strides_0 = const()[name = tensor<string, []>("model_expanded_conv_8_expand_Conv2Dx_strides_0"), val = tensor<int32, [2]>([1, 1])];
            tensor<int32, [2]> model_expanded_conv_8_expand_Conv2Dx_dilations_0 = const()[name = tensor<string, []>("model_expanded_conv_8_expand_Conv2Dx_dilations_0"), val = tensor<int32, [2]>([1, 1])];
            tensor<int32, []> model_expanded_conv_8_expand_Conv2Dx_groups_0 = const()[name = tensor<string, []>("model_expanded_conv_8_expand_Conv2Dx_groups_0"), val = tensor<int32, []>(1)];
            tensor<int32, [4]> model_expanded_conv_8_expand_Conv2Dx_pad_0 = const()[name = tensor<string, []>("model_expanded_conv_8_expand_Conv2Dx_pad_0"), val = tensor<int32, [4]>([0, 0, 0, 0])];
            tensor<fp16, [184, 80, 1, 1]> const_257_to_fp16 = const()[name = tensor<string, []>("const_257_to_fp16"), val = tensor<fp16, [184, 80, 1, 1]>(BLOBFILE(path = tensor<string, []>("@model_path/weights/weight.bin"), offset = tensor<uint64, []>(331072)))];
            tensor<fp16, [184]> const_258_to_fp16 = const()[name = tensor<string, []>("const_258_to_fp16"), val = tensor<fp16, [184]>(BLOBFILE(path = tensor<string, []>("@model_path/weights/weight.bin"), offset = tensor<uint64, []>(360576)))];
            tensor<fp16, [1, 184, 20, 36]> model_expanded_conv_8_expand_BatchNorm_FusedBatchNormV3_nchw_cast_fp16 = conv(bias = const_258_to_fp16, dilations = model_expanded_conv_8_expand_Conv2Dx_dilations_0, groups = model_expanded_conv_8_expand_Conv2Dx_groups_0, pad = model_expanded_conv_8_expand_Conv2Dx_pad_0, pad_type = model_expanded_conv_8_expand_Conv2Dx_pad_type_0, strides = model_expanded_conv_8_expand_Conv2Dx_strides_0, weight = const_257_to_fp16, x = model_expanded_conv_7_Add_add_cast_fp16)[name = tensor<string, []>("model_expanded_conv_8_expand_BatchNorm_FusedBatchNormV3_nchw_cast_fp16")];
            tensor<fp16, []> model_tf___operators___add_8_y_to_fp16 = const()[name = tensor<string, []>("model_tf___operators___add_8_y_to_fp16"), val = tensor<fp16, []>(0x1.8p+1)];
            tensor<fp16, [1, 184, 20, 36]> model_tf___operators___add_8_AddV2_cast_fp16 = add(x = model_expanded_conv_8_expand_BatchNorm_FusedBatchNormV3_nchw_cast_fp16, y = model_tf___operators___add_8_y_to_fp16)[name = tensor<string, []>("model_tf___operators___add_8_AddV2_cast_fp16")];
            tensor<fp16, [1, 184, 20, 36]> model_re_lu_19_Relu6_cast_fp16 = relu6(x = model_tf___operators___add_8_AddV2_cast_fp16)[name = tensor<string, []>("model_re_lu_19_Relu6_cast_fp16")];
            tensor<fp16, []> model_tf_math_multiply_8_Mul_y_to_fp16 = const()[name = tensor<string, []>("model_tf_math_multiply_8_Mul_y_to_fp16"), val = tensor<fp16, []>(0x1.554p-3)];
            tensor<fp16, [1, 184, 20, 36]> model_tf_math_multiply_8_Mul_cast_fp16 = mul(x = model_re_lu_19_Relu6_cast_fp16, y = model_tf_math_multiply_8_Mul_y_to_fp16)[name = tensor<string, []>("model_tf_math_multiply_8_Mul_cast_fp16")];
            tensor<fp16, [1, 184, 20, 36]> model_multiply_5_mul_cast_fp16 = mul(x = model_expanded_conv_8_expand_BatchNorm_FusedBatchNormV3_nchw_cast_fp16, y = model_tf_math_multiply_8_Mul_cast_fp16)[name = tensor<string, []>("model_multiply_5_mul_cast_fp16")];
            tensor<string, []> model_expanded_conv_8_depthwise_depthwisex_pad_type_0 = const()[name = tensor<string, []>("model_expanded_conv_8_depthwise_depthwisex_pad_type_0"), val = tensor<string, []>("same")];
            tensor<int32, [2]> model_expanded_conv_8_depthwise_depthwisex_strides_0 = const()[name = tensor<string, []>("model_expanded_conv_8_depthwise_depthwisex_strides_0"), val = tensor<int32, [2]>([1, 1])];
            tensor<int32, [2]> model_expanded_conv_8_depthwise_depthwisex_dilations_0 = const()[name = tensor<string, []>("model_expanded_conv_8_depthwise_depthwisex_dilations_0"), val = tensor<int32, [2]>([1, 1])];
            tensor<int32, []> model_expanded_conv_8_depthwise_depthwisex_groups_0 = const()[name = tensor<string, []>("model_expanded_conv_8_depthwise_depthwisex_groups_0"), val = tensor<int32, []>(184)];
            tensor<int32, [4]> model_expanded_conv_8_depthwise_depthwisex_pad_0 = const()[name = tensor<string, []>("model_expanded_conv_8_depthwise_depthwisex_pad_0"), val = tensor<int32, [4]>([0, 0, 0, 0])];
            tensor<fp16, [184, 1, 3, 3]> const_259_to_fp16 = const()[name = tensor<string, []>("const_259_to_fp16"), val = tensor<fp16, [184, 1, 3, 3]>(BLOBFILE(path = tensor<string, []>("@model_path/weights/weight.bin"), offset = tensor<uint64, []>(361024)))];
            tensor<fp16, [184]> const_260_to_fp16 = const()[name = tensor<string, []>("const_260_to_fp16"), val = tensor<fp16, [184]>(BLOBFILE(path = tensor<string, []>("@model_path/weights/weight.bin"), offset = tensor<uint64, []>(364416)))];
            tensor<fp16, [1, 184, 20, 36]> model_expanded_conv_8_depthwise_BatchNorm_FusedBatchNormV3_nchw_cast_fp16 = conv(bias = const_260_to_fp16, dilations = model_expanded_conv_8_depthwise_depthwisex_dilations_0, groups = model_expanded_conv_8_depthwise_depthwisex_groups_0, pad = model_expanded_conv_8_depthwise_depthwisex_pad_0, pad_type = model_expanded_conv_8_depthwise_depthwisex_pad_type_0, strides = model_expanded_conv_8_depthwise_depthwisex_strides_0, weight = const_259_to_fp16, x = model_multiply_5_mul_cast_fp16)[name = tensor<string, []>("model_expanded_conv_8_depthwise_BatchNorm_FusedBatchNormV3_nchw_cast_fp16")];
            tensor<fp16, []> model_tf___operators___add_9_y_to_fp16 = const()[name = tensor<string, []>("model_tf___operators___add_9_y_to_fp16"), val = tensor<fp16, []>(0x1.8p+1)];
            tensor<fp16, [1, 184, 20, 36]> model_tf___operators___add_9_AddV2_cast_fp16 = add(x = model_expanded_conv_8_depthwise_BatchNorm_FusedBatchNormV3_nchw_cast_fp16, y = model_tf___operators___add_9_y_to_fp16)[name = tensor<string, []>("model_tf___operators___add_9_AddV2_cast_fp16")];
            tensor<fp16, [1, 184, 20, 36]> model_re_lu_20_Relu6_cast_fp16 = relu6(x = model_tf___operators___add_9_AddV2_cast_fp16)[name = tensor<string, []>("model_re_lu_20_Relu6_cast_fp16")];
            tensor<fp16, []> model_tf_math_multiply_9_Mul_y_to_fp16 = const()[name = tensor<string, []>("model_tf_math_multiply_9_Mul_y_to_fp16"), val = tensor<fp16, []>(0x1.554p-3)];
            tensor<fp16, [1, 184, 20, 36]> model_tf_math_multiply_9_Mul_cast_fp16 = mul(x = model_re_lu_20_Relu6_cast_fp16, y = model_tf_math_multiply_9_Mul_y_to_fp16)[name = tensor<string, []>("model_tf_math_multiply_9_Mul_cast_fp16")];
            tensor<fp16, [1, 184, 20, 36]> model_multiply_6_mul_cast_fp16 = mul(x = model_expanded_conv_8_depthwise_BatchNorm_FusedBatchNormV3_nchw_cast_fp16, y = model_tf_math_multiply_9_Mul_cast_fp16)[name = tensor<string, []>("model_multiply_6_mul_cast_fp16")];
            tensor<string, []> model_expanded_conv_8_project_Conv2Dx_pad_type_0 = const()[name = tensor<string, []>("model_expanded_conv_8_project_Conv2Dx_pad_type_0"), val = tensor<string, []>("same")];
            tensor<int32, [2]> model_expanded_conv_8_project_Conv2Dx_strides_0 = const()[name = tensor<string, []>("model_expanded_conv_8_project_Conv2Dx_strides_0"), val = tensor<int32, [2]>([1, 1])];
            tensor<int32, [2]> model_expanded_conv_8_project_Conv2Dx_dilations_0 = const()[name = tensor<string, []>("model_expanded_conv_8_project_Conv2Dx_dilations_0"), val = tensor<int32, [2]>([1, 1])];
            tensor<int32, []> model_expanded_conv_8_project_Conv2Dx_groups_0 = const()[name = tensor<string, []>("model_expanded_conv_8_project_Conv2Dx_groups_0"), val = tensor<int32, []>(1)];
            tensor<int32, [4]> model_expanded_conv_8_project_Conv2Dx_pad_0 = const()[name = tensor<string, []>("model_expanded_conv_8_project_Conv2Dx_pad_0"), val = tensor<int32, [4]>([0, 0, 0, 0])];
            tensor<fp16, [80, 184, 1, 1]> const_261_to_fp16 = const()[name = tensor<string, []>("const_261_to_fp16"), val = tensor<fp16, [80, 184, 1, 1]>(BLOBFILE(path = tensor<string, []>("@model_path/weights/weight.bin"), offset = tensor<uint64, []>(364864)))];
            tensor<fp16, [80]> const_262_to_fp16 = const()[name = tensor<string, []>("const_262_to_fp16"), val = tensor<fp16, [80]>(BLOBFILE(path = tensor<string, []>("@model_path/weights/weight.bin"), offset = tensor<uint64, []>(394368)))];
            tensor<fp16, [1, 80, 20, 36]> model_expanded_conv_8_project_BatchNorm_FusedBatchNormV3_nchw_cast_fp16 = conv(bias = const_262_to_fp16, dilations = model_expanded_conv_8_project_Conv2Dx_dilations_0, groups = model_expanded_conv_8_project_Conv2Dx_groups_0, pad = model_expanded_conv_8_project_Conv2Dx_pad_0, pad_type = model_expanded_conv_8_project_Conv2Dx_pad_type_0, strides = model_expanded_conv_8_project_Conv2Dx_strides_0, weight = const_261_to_fp16, x = model_multiply_6_mul_cast_fp16)[name = tensor<string, []>("model_expanded_conv_8_project_BatchNorm_FusedBatchNormV3_nchw_cast_fp16")];
            tensor<fp16, [1, 80, 20, 36]> model_expanded_conv_8_Add_add_cast_fp16 = add(x = model_expanded_conv_7_Add_add_cast_fp16, y = model_expanded_conv_8_project_BatchNorm_FusedBatchNormV3_nchw_cast_fp16)[name = tensor<string, []>("model_expanded_conv_8_Add_add_cast_fp16")];
            tensor<string, []> model_expanded_conv_9_expand_Conv2Dx_pad_type_0 = const()[name = tensor<string, []>("model_expanded_conv_9_expand_Conv2Dx_pad_type_0"), val = tensor<string, []>("same")];
            tensor<int32, [2]> model_expanded_conv_9_expand_Conv2Dx_strides_0 = const()[name = tensor<string, []>("model_expanded_conv_9_expand_Conv2Dx_strides_0"), val = tensor<int32, [2]>([1, 1])];
            tensor<int32, [2]> model_expanded_conv_9_expand_Conv2Dx_dilations_0 = const()[name = tensor<string, []>("model_expanded_conv_9_expand_Conv2Dx_dilations_0"), val = tensor<int32, [2]>([1, 1])];
            tensor<int32, []> model_expanded_conv_9_expand_Conv2Dx_groups_0 = const()[name = tensor<string, []>("model_expanded_conv_9_expand_Conv2Dx_groups_0"), val = tensor<int32, []>(1)];
            tensor<int32, [4]> model_expanded_conv_9_expand_Conv2Dx_pad_0 = const()[name = tensor<string, []>("model_expanded_conv_9_expand_Conv2Dx_pad_0"), val = tensor<int32, [4]>([0, 0, 0, 0])];
            tensor<fp16, [184, 80, 1, 1]> const_263_to_fp16 = const()[name = tensor<string, []>("const_263_to_fp16"), val = tensor<fp16, [184, 80, 1, 1]>(BLOBFILE(path = tensor<string, []>("@model_path/weights/weight.bin"), offset = tensor<uint64, []>(394624)))];
            tensor<fp16, [184]> const_264_to_fp16 = const()[name = tensor<string, []>("const_264_to_fp16"), val = tensor<fp16, [184]>(BLOBFILE(path = tensor<string, []>("@model_path/weights/weight.bin"), offset = tensor<uint64, []>(424128)))];
            tensor<fp16, [1, 184, 20, 36]> model_expanded_conv_9_expand_BatchNorm_FusedBatchNormV3_nchw_cast_fp16 = conv(bias = const_264_to_fp16, dilations = model_expanded_conv_9_expand_Conv2Dx_dilations_0, groups = model_expanded_conv_9_expand_Conv2Dx_groups_0, pad = model_expanded_conv_9_expand_Conv2Dx_pad_0, pad_type = model_expanded_conv_9_expand_Conv2Dx_pad_type_0, strides = model_expanded_conv_9_expand_Conv2Dx_strides_0, weight = const_263_to_fp16, x = model_expanded_conv_8_Add_add_cast_fp16)[name = tensor<string, []>("model_expanded_conv_9_expand_BatchNorm_FusedBatchNormV3_nchw_cast_fp16")];
            tensor<fp16, []> model_tf___operators___add_10_y_to_fp16 = const()[name = tensor<string, []>("model_tf___operators___add_10_y_to_fp16"), val = tensor<fp16, []>(0x1.8p+1)];
            tensor<fp16, [1, 184, 20, 36]> model_tf___operators___add_10_AddV2_cast_fp16 = add(x = model_expanded_conv_9_expand_BatchNorm_FusedBatchNormV3_nchw_cast_fp16, y = model_tf___operators___add_10_y_to_fp16)[name = tensor<string, []>("model_tf___operators___add_10_AddV2_cast_fp16")];
            tensor<fp16, [1, 184, 20, 36]> model_re_lu_21_Relu6_cast_fp16 = relu6(x = model_tf___operators___add_10_AddV2_cast_fp16)[name = tensor<string, []>("model_re_lu_21_Relu6_cast_fp16")];
            tensor<fp16, []> model_tf_math_multiply_10_Mul_y_to_fp16 = const()[name = tensor<string, []>("model_tf_math_multiply_10_Mul_y_to_fp16"), val = tensor<fp16, []>(0x1.554p-3)];
            tensor<fp16, [1, 184, 20, 36]> model_tf_math_multiply_10_Mul_cast_fp16 = mul(x = model_re_lu_21_Relu6_cast_fp16, y = model_tf_math_multiply_10_Mul_y_to_fp16)[name = tensor<string, []>("model_tf_math_multiply_10_Mul_cast_fp16")];
            tensor<fp16, [1, 184, 20, 36]> model_multiply_7_mul_cast_fp16 = mul(x = model_expanded_conv_9_expand_BatchNorm_FusedBatchNormV3_nchw_cast_fp16, y = model_tf_math_multiply_10_Mul_cast_fp16)[name = tensor<string, []>("model_multiply_7_mul_cast_fp16")];
            tensor<string, []> model_expanded_conv_9_depthwise_depthwisex_pad_type_0 = const()[name = tensor<string, []>("model_expanded_conv_9_depthwise_depthwisex_pad_type_0"), val = tensor<string, []>("same")];
            tensor<int32, [2]> model_expanded_conv_9_depthwise_depthwisex_strides_0 = const()[name = tensor<string, []>("model_expanded_conv_9_depthwise_depthwisex_strides_0"), val = tensor<int32, [2]>([1, 1])];
            tensor<int32, [2]> model_expanded_conv_9_depthwise_depthwisex_dilations_0 = const()[name = tensor<string, []>("model_expanded_conv_9_depthwise_depthwisex_dilations_0"), val = tensor<int32, [2]>([1, 1])];
            tensor<int32, []> model_expanded_conv_9_depthwise_depthwisex_groups_0 = const()[name = tensor<string, []>("model_expanded_conv_9_depthwise_depthwisex_groups_0"), val = tensor<int32, []>(184)];
            tensor<int32, [4]> model_expanded_conv_9_depthwise_depthwisex_pad_0 = const()[name = tensor<string, []>("model_expanded_conv_9_depthwise_depthwisex_pad_0"), val = tensor<int32, [4]>([0, 0, 0, 0])];
            tensor<fp16, [184, 1, 3, 3]> const_265_to_fp16 = const()[name = tensor<string, []>("const_265_to_fp16"), val = tensor<fp16, [184, 1, 3, 3]>(BLOBFILE(path = tensor<string, []>("@model_path/weights/weight.bin"), offset = tensor<uint64, []>(424576)))];
            tensor<fp16, [184]> const_266_to_fp16 = const()[name = tensor<string, []>("const_266_to_fp16"), val = tensor<fp16, [184]>(BLOBFILE(path = tensor<string, []>("@model_path/weights/weight.bin"), offset = tensor<uint64, []>(427968)))];
            tensor<fp16, [1, 184, 20, 36]> model_expanded_conv_9_depthwise_BatchNorm_FusedBatchNormV3_nchw_cast_fp16 = conv(bias = const_266_to_fp16, dilations = model_expanded_conv_9_depthwise_depthwisex_dilations_0, groups = model_expanded_conv_9_depthwise_depthwisex_groups_0, pad = model_expanded_conv_9_depthwise_depthwisex_pad_0, pad_type = model_expanded_conv_9_depthwise_depthwisex_pad_type_0, strides = model_expanded_conv_9_depthwise_depthwisex_strides_0, weight = const_265_to_fp16, x = model_multiply_7_mul_cast_fp16)[name = tensor<string, []>("model_expanded_conv_9_depthwise_BatchNorm_FusedBatchNormV3_nchw_cast_fp16")];
            tensor<fp16, []> model_tf___operators___add_11_y_to_fp16 = const()[name = tensor<string, []>("model_tf___operators___add_11_y_to_fp16"), val = tensor<fp16, []>(0x1.8p+1)];
            tensor<fp16, [1, 184, 20, 36]> model_tf___operators___add_11_AddV2_cast_fp16 = add(x = model_expanded_conv_9_depthwise_BatchNorm_FusedBatchNormV3_nchw_cast_fp16, y = model_tf___operators___add_11_y_to_fp16)[name = tensor<string, []>("model_tf___operators___add_11_AddV2_cast_fp16")];
            tensor<fp16, [1, 184, 20, 36]> model_re_lu_22_Relu6_cast_fp16 = relu6(x = model_tf___operators___add_11_AddV2_cast_fp16)[name = tensor<string, []>("model_re_lu_22_Relu6_cast_fp16")];
            tensor<fp16, []> model_tf_math_multiply_11_Mul_y_to_fp16 = const()[name = tensor<string, []>("model_tf_math_multiply_11_Mul_y_to_fp16"), val = tensor<fp16, []>(0x1.554p-3)];
            tensor<fp16, [1, 184, 20, 36]> model_tf_math_multiply_11_Mul_cast_fp16 = mul(x = model_re_lu_22_Relu6_cast_fp16, y = model_tf_math_multiply_11_Mul_y_to_fp16)[name = tensor<string, []>("model_tf_math_multiply_11_Mul_cast_fp16")];
            tensor<fp16, [1, 184, 20, 36]> model_multiply_8_mul_cast_fp16 = mul(x = model_expanded_conv_9_depthwise_BatchNorm_FusedBatchNormV3_nchw_cast_fp16, y = model_tf_math_multiply_11_Mul_cast_fp16)[name = tensor<string, []>("model_multiply_8_mul_cast_fp16")];
            tensor<string, []> model_expanded_conv_9_project_Conv2Dx_pad_type_0 = const()[name = tensor<string, []>("model_expanded_conv_9_project_Conv2Dx_pad_type_0"), val = tensor<string, []>("same")];
            tensor<int32, [2]> model_expanded_conv_9_project_Conv2Dx_strides_0 = const()[name = tensor<string, []>("model_expanded_conv_9_project_Conv2Dx_strides_0"), val = tensor<int32, [2]>([1, 1])];
            tensor<int32, [2]> model_expanded_conv_9_project_Conv2Dx_dilations_0 = const()[name = tensor<string, []>("model_expanded_conv_9_project_Conv2Dx_dilations_0"), val = tensor<int32, [2]>([1, 1])];
            tensor<int32, []> model_expanded_conv_9_project_Conv2Dx_groups_0 = const()[name = tensor<string, []>("model_expanded_conv_9_project_Conv2Dx_groups_0"), val = tensor<int32, []>(1)];
            tensor<int32, [4]> model_expanded_conv_9_project_Conv2Dx_pad_0 = const()[name = tensor<string, []>("model_expanded_conv_9_project_Conv2Dx_pad_0"), val = tensor<int32, [4]>([0, 0, 0, 0])];
            tensor<fp16, [80, 184, 1, 1]> const_267_to_fp16 = const()[name = tensor<string, []>("const_267_to_fp16"), val = tensor<fp16, [80, 184, 1, 1]>(BLOBFILE(path = tensor<string, []>("@model_path/weights/weight.bin"), offset = tensor<uint64, []>(428416)))];
            tensor<fp16, [80]> const_268_to_fp16 = const()[name = tensor<string, []>("const_268_to_fp16"), val = tensor<fp16, [80]>(BLOBFILE(path = tensor<string, []>("@model_path/weights/weight.bin"), offset = tensor<uint64, []>(457920)))];
            tensor<fp16, [1, 80, 20, 36]> model_expanded_conv_9_project_BatchNorm_FusedBatchNormV3_nchw_cast_fp16 = conv(bias = const_268_to_fp16, dilations = model_expanded_conv_9_project_Conv2Dx_dilations_0, groups = model_expanded_conv_9_project_Conv2Dx_groups_0, pad = model_expanded_conv_9_project_Conv2Dx_pad_0, pad_type = model_expanded_conv_9_project_Conv2Dx_pad_type_0, strides = model_expanded_conv_9_project_Conv2Dx_strides_0, weight = const_267_to_fp16, x = model_multiply_8_mul_cast_fp16)[name = tensor<string, []>("model_expanded_conv_9_project_BatchNorm_FusedBatchNormV3_nchw_cast_fp16")];
            tensor<fp16, [1, 80, 20, 36]> model_expanded_conv_9_Add_add_cast_fp16 = add(x = model_expanded_conv_8_Add_add_cast_fp16, y = model_expanded_conv_9_project_BatchNorm_FusedBatchNormV3_nchw_cast_fp16)[name = tensor<string, []>("model_expanded_conv_9_Add_add_cast_fp16")];
            tensor<string, []> model_expanded_conv_10_expand_Conv2Dx_pad_type_0 = const()[name = tensor<string, []>("model_expanded_conv_10_expand_Conv2Dx_pad_type_0"), val = tensor<string, []>("same")];
            tensor<int32, [2]> model_expanded_conv_10_expand_Conv2Dx_strides_0 = const()[name = tensor<string, []>("model_expanded_conv_10_expand_Conv2Dx_strides_0"), val = tensor<int32, [2]>([1, 1])];
            tensor<int32, [2]> model_expanded_conv_10_expand_Conv2Dx_dilations_0 = const()[name = tensor<string, []>("model_expanded_conv_10_expand_Conv2Dx_dilations_0"), val = tensor<int32, [2]>([1, 1])];
            tensor<int32, []> model_expanded_conv_10_expand_Conv2Dx_groups_0 = const()[name = tensor<string, []>("model_expanded_conv_10_expand_Conv2Dx_groups_0"), val = tensor<int32, []>(1)];
            tensor<int32, [4]> model_expanded_conv_10_expand_Conv2Dx_pad_0 = const()[name = tensor<string, []>("model_expanded_conv_10_expand_Conv2Dx_pad_0"), val = tensor<int32, [4]>([0, 0, 0, 0])];
            tensor<fp16, [480, 80, 1, 1]> const_269_to_fp16 = const()[name = tensor<string, []>("const_269_to_fp16"), val = tensor<fp16, [480, 80, 1, 1]>(BLOBFILE(path = tensor<string, []>("@model_path/weights/weight.bin"), offset = tensor<uint64, []>(458176)))];
            tensor<fp16, [480]> const_270_to_fp16 = const()[name = tensor<string, []>("const_270_to_fp16"), val = tensor<fp16, [480]>(BLOBFILE(path = tensor<string, []>("@model_path/weights/weight.bin"), offset = tensor<uint64, []>(535040)))];
            tensor<fp16, [1, 480, 20, 36]> model_expanded_conv_10_expand_BatchNorm_FusedBatchNormV3_nchw_cast_fp16 = conv(bias = const_270_to_fp16, dilations = model_expanded_conv_10_expand_Conv2Dx_dilations_0, groups = model_expanded_conv_10_expand_Conv2Dx_groups_0, pad = model_expanded_conv_10_expand_Conv2Dx_pad_0, pad_type = model_expanded_conv_10_expand_Conv2Dx_pad_type_0, strides = model_expanded_conv_10_expand_Conv2Dx_strides_0, weight = const_269_to_fp16, x = model_expanded_conv_9_Add_add_cast_fp16)[name = tensor<string, []>("model_expanded_conv_10_expand_BatchNorm_FusedBatchNormV3_nchw_cast_fp16")];
            tensor<fp16, []> model_tf___operators___add_12_y_to_fp16 = const()[name = tensor<string, []>("model_tf___operators___add_12_y_to_fp16"), val = tensor<fp16, []>(0x1.8p+1)];
            tensor<fp16, [1, 480, 20, 36]> model_tf___operators___add_12_AddV2_cast_fp16 = add(x = model_expanded_conv_10_expand_BatchNorm_FusedBatchNormV3_nchw_cast_fp16, y = model_tf___operators___add_12_y_to_fp16)[name = tensor<string, []>("model_tf___operators___add_12_AddV2_cast_fp16")];
            tensor<fp16, [1, 480, 20, 36]> model_re_lu_23_Relu6_cast_fp16 = relu6(x = model_tf___operators___add_12_AddV2_cast_fp16)[name = tensor<string, []>("model_re_lu_23_Relu6_cast_fp16")];
            tensor<fp16, []> model_tf_math_multiply_12_Mul_y_to_fp16 = const()[name = tensor<string, []>("model_tf_math_multiply_12_Mul_y_to_fp16"), val = tensor<fp16, []>(0x1.554p-3)];
            tensor<fp16, [1, 480, 20, 36]> model_tf_math_multiply_12_Mul_cast_fp16 = mul(x = model_re_lu_23_Relu6_cast_fp16, y = model_tf_math_multiply_12_Mul_y_to_fp16)[name = tensor<string, []>("model_tf_math_multiply_12_Mul_cast_fp16")];
            tensor<fp16, [1, 480, 20, 36]> model_multiply_9_mul_cast_fp16 = mul(x = model_expanded_conv_10_expand_BatchNorm_FusedBatchNormV3_nchw_cast_fp16, y = model_tf_math_multiply_12_Mul_cast_fp16)[name = tensor<string, []>("model_multiply_9_mul_cast_fp16")];
            tensor<string, []> model_expanded_conv_10_depthwise_depthwisex_pad_type_0 = const()[name = tensor<string, []>("model_expanded_conv_10_depthwise_depthwisex_pad_type_0"), val = tensor<string, []>("same")];
            tensor<int32, [2]> model_expanded_conv_10_depthwise_depthwisex_strides_0 = const()[name = tensor<string, []>("model_expanded_conv_10_depthwise_depthwisex_strides_0"), val = tensor<int32, [2]>([1, 1])];
            tensor<int32, [2]> model_expanded_conv_10_depthwise_depthwisex_dilations_0 = const()[name = tensor<string, []>("model_expanded_conv_10_depthwise_depthwisex_dilations_0"), val = tensor<int32, [2]>([1, 1])];
            tensor<int32, []> model_expanded_conv_10_depthwise_depthwisex_groups_0 = const()[name = tensor<string, []>("model_expanded_conv_10_depthwise_depthwisex_groups_0"), val = tensor<int32, []>(480)];
            tensor<int32, [4]> model_expanded_conv_10_depthwise_depthwisex_pad_0 = const()[name = tensor<string, []>("model_expanded_conv_10_depthwise_depthwisex_pad_0"), val = tensor<int32, [4]>([0, 0, 0, 0])];
            tensor<fp16, [480, 1, 3, 3]> const_271_to_fp16 = const()[name = tensor<string, []>("const_271_to_fp16"), val = tensor<fp16, [480, 1, 3, 3]>(BLOBFILE(path = tensor<string, []>("@model_path/weights/weight.bin"), offset = tensor<uint64, []>(536064)))];
            tensor<fp16, [480]> const_272_to_fp16 = const()[name = tensor<string, []>("const_272_to_fp16"), val = tensor<fp16, [480]>(BLOBFILE(path = tensor<string, []>("@model_path/weights/weight.bin"), offset = tensor<uint64, []>(544768)))];
            tensor<fp16, [1, 480, 20, 36]> model_expanded_conv_10_depthwise_BatchNorm_FusedBatchNormV3_nchw_cast_fp16 = conv(bias = const_272_to_fp16, dilations = model_expanded_conv_10_depthwise_depthwisex_dilations_0, groups = model_expanded_conv_10_depthwise_depthwisex_groups_0, pad = model_expanded_conv_10_depthwise_depthwisex_pad_0, pad_type = model_expanded_conv_10_depthwise_depthwisex_pad_type_0, strides = model_expanded_conv_10_depthwise_depthwisex_strides_0, weight = const_271_to_fp16, x = model_multiply_9_mul_cast_fp16)[name = tensor<string, []>("model_expanded_conv_10_depthwise_BatchNorm_FusedBatchNormV3_nchw_cast_fp16")];
            tensor<fp16, []> model_tf___operators___add_13_y_to_fp16 = const()[name = tensor<string, []>("model_tf___operators___add_13_y_to_fp16"), val = tensor<fp16, []>(0x1.8p+1)];
            tensor<fp16, [1, 480, 20, 36]> model_tf___operators___add_13_AddV2_cast_fp16 = add(x = model_expanded_conv_10_depthwise_BatchNorm_FusedBatchNormV3_nchw_cast_fp16, y = model_tf___operators___add_13_y_to_fp16)[name = tensor<string, []>("model_tf___operators___add_13_AddV2_cast_fp16")];
            tensor<fp16, [1, 480, 20, 36]> model_re_lu_24_Relu6_cast_fp16 = relu6(x = model_tf___operators___add_13_AddV2_cast_fp16)[name = tensor<string, []>("model_re_lu_24_Relu6_cast_fp16")];
            tensor<fp16, []> model_tf_math_multiply_13_Mul_y_to_fp16 = const()[name = tensor<string, []>("model_tf_math_multiply_13_Mul_y_to_fp16"), val = tensor<fp16, []>(0x1.554p-3)];
            tensor<fp16, [1, 480, 20, 36]> model_tf_math_multiply_13_Mul_cast_fp16 = mul(x = model_re_lu_24_Relu6_cast_fp16, y = model_tf_math_multiply_13_Mul_y_to_fp16)[name = tensor<string, []>("model_tf_math_multiply_13_Mul_cast_fp16")];
            tensor<fp16, [1, 480, 20, 36]> model_multiply_10_mul_cast_fp16 = mul(x = model_expanded_conv_10_depthwise_BatchNorm_FusedBatchNormV3_nchw_cast_fp16, y = model_tf_math_multiply_13_Mul_cast_fp16)[name = tensor<string, []>("model_multiply_10_mul_cast_fp16")];
…
            tensor<fp16, []> model_batch_normalization_27_FusedBatchNormV3_nchw_epsilon_0_to_fp16 = const()[name = tensor<string, []>("model_batch_normalization_27_FusedBatchNormV3_nchw_epsilon_0_to_fp16"), val = tensor<fp16, []>(0x1.064p-10)];
            tensor<fp16, [1, 32, 160, 288]> model_batch_normalization_27_FusedBatchNormV3_nchw_cast_fp16 = batch_norm(beta = model_batch_normalization_27_ReadVariableOp_1_to_fp16, epsilon = model_batch_normalization_27_FusedBatchNormV3_nchw_epsilon_0_to_fp16, gamma = model_batch_normalization_27_ReadVariableOp_to_fp16, mean = model_batch_normalization_27_FusedBatchNormV3_ReadVariableOp_to_fp16, variance = model_batch_normalization_27_FusedBatchNormV3_ReadVariableOp_1_to_fp16, x = model_conv2d_43_Relu_cast_fp16)[name = tensor<string, []>("model_batch_normalization_27_FusedBatchNormV3_nchw_cast_fp16")];
            tensor<fp16, [1, 32, 160, 288]> model_conv2d_42_Relu_cast_fp16 = relu(x = model_conv2d_42_BiasAdd_cast_fp16)[name = tensor<string, []>("model_conv2d_42_Relu_cast_fp16")];
            tensor<fp16, [32]> model_batch_normalization_25_FusedBatchNormV3_ReadVariableOp_to_fp16 = const()[name = tensor<string, []>("model_batch_normalization_25_FusedBatchNormV3_ReadVariableOp_to_fp16"), val = tensor<fp16, [32]>(BLOBFILE(path = tensor<string, []>("@model_path/weights/weight.bin"), offset = tensor<uint64, []>(12688192)))];
            tensor<fp16, [32]> model_batch_normalization_25_FusedBatchNormV3_ReadVariableOp_1_to_fp16 = const()[name = tensor<string, []>("model_batch_normalization_25_FusedBatchNormV3_ReadVariableOp_1_to_fp16"), val = tensor<fp16, [32]>(BLOBFILE(path = tensor<string, []>("@model_path/weights/weight.bin"), offset = tensor<uint64, []>(12688320)))];
            tensor<fp16, [32]> model_batch_normalization_25_ReadVariableOp_to_fp16 = const()[name = tensor<string, []>("model_batch_normalization_25_ReadVariableOp_to_fp16"), val = tensor<fp16, [32]>(BLOBFILE(path = tensor<string, []>("@model_path/weights/weight.bin"), offset = tensor<uint64, []>(12688448)))];
            tensor<fp16, [32]> model_batch_normalization_25_ReadVariableOp_1_to_fp16 = const()[name = tensor<string, []>("model_batch_normalization_25_ReadVariableOp_1_to_fp16"), val = tensor<fp16, [32]>(BLOBFILE(path = tensor<string, []>("@model_path/weights/weight.bin"), offset = tensor<uint64, []>(12688576)))];
            tensor<fp16, []> model_batch_normalization_25_FusedBatchNormV3_nchw_epsilon_0_to_fp16 = const()[name = tensor<string, []>("model_batch_normalization_25_FusedBatchNormV3_nchw_epsilon_0_to_fp16"), val = tensor<fp16, []>(0x1.064p-10)];
            tensor<fp16, [1, 32, 160, 288]> model_batch_normalization_25_FusedBatchNormV3_nchw_cast_fp16 = batch_norm(beta = model_batch_normalization_25_ReadVariableOp_1_to_fp16, epsilon = model_batch_normalization_25_FusedBatchNormV3_nchw_epsilon_0_to_fp16, gamma = model_batch_normalization_25_ReadVariableOp_to_fp16, mean = model_batch_normalization_25_FusedBatchNormV3_ReadVariableOp_to_fp16, variance = model_batch_normalization_25_FusedBatchNormV3_ReadVariableOp_1_to_fp16, x = model_conv2d_42_Relu_cast_fp16)[name = tensor<string, []>("model_batch_normalization_25_FusedBatchNormV3_nchw_cast_fp16")];
            tensor<fp16, [1, 32, 160, 288]> model_add_15_add_cast_fp16 = add(x = model_batch_normalization_25_FusedBatchNormV3_nchw_cast_fp16, y = model_batch_normalization_27_FusedBatchNormV3_nchw_cast_fp16)[name = tensor<string, []>("model_add_15_add_cast_fp16")];
            tensor<int32, [2]> model_global_average_pooling2d_9_Mean_axes_0 = const()[name = tensor<string, []>("model_global_average_pooling2d_9_Mean_axes_0"), val = tensor<int32, [2]>([1, 2])];
            tensor<bool, []> model_global_average_pooling2d_9_Mean_keep_dims_0 = const()[name = tensor<string, []>("model_global_average_pooling2d_9_Mean_keep_dims_0"), val = tensor<bool, []>(false)];
            tensor<int32, [4]> transpose_387_perm_0 = const()[name = tensor<string, []>("transpose_387_perm_0"), val = tensor<int32, [4]>([0, 2, 3, 1])];
            tensor<fp16, [1, 160, 288, 32]> transpose_387_cast_fp16 = transpose(perm = transpose_387_perm_0, x = model_add_15_add_cast_fp16)[name = tensor<string, []>("transpose_392")];
            tensor<fp16, [1, 32]> model_global_average_pooling2d_9_Mean_cast_fp16 = reduce_mean(axes = model_global_average_pooling2d_9_Mean_axes_0, keep_dims = model_global_average_pooling2d_9_Mean_keep_dims_0, x = transpose_387_cast_fp16)[name = tensor<string, []>("model_global_average_pooling2d_9_Mean_cast_fp16")];
            tensor<fp16, [4, 32]> transpose_361_cast_fp16_to_fp32_to_fp16 = const()[name = tensor<string, []>("transpose_361_cast_fp16_to_fp32_to_fp16"), val = tensor<fp16, [4, 32]>(BLOBFILE(path = tensor<string, []>("@model_path/weights/weight.bin"), offset = tensor<uint64, []>(12688704)))];
            tensor<fp16, [4]> model_dense_16_BiasAdd_bias_0_to_fp16 = const()[name = tensor<string, []>("model_dense_16_BiasAdd_bias_0_to_fp16"), val = tensor<fp16, [4]>([0x1.3dcp-2, 0x1.9b4p-3, 0x1.38p-2, 0x1.9d4p-4])];
            tensor<fp16, [1, 4]> model_dense_16_BiasAdd_cast_fp16 = linear(bias = model_dense_16_BiasAdd_bias_0_to_fp16, weight = transpose_361_cast_fp16_to_fp32_to_fp16, x = model_global_average_pooling2d_9_Mean_cast_fp16)[name = tensor<string, []>("model_dense_16_BiasAdd_cast_fp16")];
            tensor<fp16, [1, 4]> model_dense_16_Relu_cast_fp16 = relu(x = model_dense_16_BiasAdd_cast_fp16)[name = tensor<string, []>("model_dense_16_Relu_cast_fp16")];
            tensor<fp16, [32, 4]> transpose_362_cast_fp16_to_fp32_to_fp16 = const()[name = tensor<string, []>("transpose_362_cast_fp16_to_fp32_to_fp16"), val = tensor<fp16, [32, 4]>(BLOBFILE(path = tensor<string, []>("@model_path/weights/weight.bin"), offset = tensor<uint64, []>(12689024)))];
            tensor<fp16, [32]> model_dense_17_BiasAdd_bias_0_to_fp16 = const()[name = tensor<string, []>("model_dense_17_BiasAdd_bias_0_to_fp16"), val = tensor<fp16, [32]>(BLOBFILE(path = tensor<string, []>("@model_path/weights/weight.bin"), offset = tensor<uint64, []>(12689344)))];
            tensor<fp16, [1, 32]> model_dense_17_BiasAdd_cast_fp16 = linear(bias = model_dense_17_BiasAdd_bias_0_to_fp16, weight = transpose_362_cast_fp16_to_fp32_to_fp16, x = model_dense_16_Relu_cast_fp16)[name = tensor<string, []>("model_dense_17_BiasAdd_cast_fp16")];
            tensor<fp16, [1, 32]> model_dense_17_Sigmoid_cast_fp16 = sigmoid(x = model_dense_17_BiasAdd_cast_fp16)[name = tensor<string, []>("model_dense_17_Sigmoid_cast_fp16")];
            tensor<int32, [4]> reshape_33_shape_0 = const()[name = tensor<string, []>("reshape_33_shape_0"), val = tensor<int32, [4]>([1, 32, 1, 1])];
            tensor<fp16, [1, 32, 1, 1]> reshape_33_cast_fp16 = reshape(shape = reshape_33_shape_0, x = model_dense_17_Sigmoid_cast_fp16)[name = tensor<string, []>("reshape_33_cast_fp16")];
            tensor<fp16, [1, 32, 160, 288]> model_multiply_45_mul_cast_fp16 = mul(x = model_add_15_add_cast_fp16, y = reshape_33_cast_fp16)[name = tensor<string, []>("model_multiply_45_mul_cast_fp16")];
            tensor<fp16, [1, 32, 160, 288]> model_add_16_add_cast_fp16 = add(x = model_multiply_45_mul_cast_fp16, y = model_add_14_add_cast_fp16)[name = tensor<string, []>("model_add_16_add_cast_fp16")];
            tensor<string, []> model_conv2d_44_Conv2Dx_pad_type_0 = const()[name = tensor<string, []>("model_conv2d_44_Conv2Dx_pad_type_0"), val = tensor<string, []>("same")];
            tensor<int32, [2]> model_conv2d_44_Conv2Dx_strides_0 = const()[name = tensor<string, []>("model_conv2d_44_Conv2Dx_strides_0"), val = tensor<int32, [2]>([1, 1])];
            tensor<int32, [2]> model_conv2d_44_Conv2Dx_dilations_0 = const()[name = tensor<string, []>("model_conv2d_44_Conv2Dx_dilations_0"), val = tensor<int32, [2]>([1, 1])];
            tensor<int32, []> model_conv2d_44_Conv2Dx_groups_0 = const()[name = tensor<string, []>("model_conv2d_44_Conv2Dx_groups_0"), val = tensor<int32, []>(1)];
            tensor<int32, [4]> model_conv2d_44_Conv2Dx_pad_0 = const()[name = tensor<string, []>("model_conv2d_44_Conv2Dx_pad_0"), val = tensor<int32, [4]>([0, 0, 0, 0])];
            tensor<fp16, [32, 32, 3, 3]> const_325_to_fp16 = const()[name = tensor<string, []>("const_325_to_fp16"), val = tensor<fp16, [32, 32, 3, 3]>(BLOBFILE(path = tensor<string, []>("@model_path/weights/weight.bin"), offset = tensor<uint64, []>(12689472)))];
            tensor<fp16, [32]> const_326_to_fp16 = const()[name = tensor<string, []>("const_326_to_fp16"), val = tensor<fp16, [32]>(BLOBFILE(path = tensor<string, []>("@model_path/weights/weight.bin"), offset = tensor<uint64, []>(12707968)))];
            tensor<fp16, [1, 32, 160, 288]> model_batch_normalization_28_FusedBatchNormV3_nchw_cast_fp16 = conv(bias = const_326_to_fp16, dilations = model_conv2d_44_Conv2Dx_dilations_0, groups = model_conv2d_44_Conv2Dx_groups_0, pad = model_conv2d_44_Conv2Dx_pad_0, pad_type = model_conv2d_44_Conv2Dx_pad_type_0, strides = model_conv2d_44_Conv2Dx_strides_0, weight = const_325_to_fp16, x = model_add_16_add_cast_fp16)[name = tensor<string, []>("model_batch_normalization_28_FusedBatchNormV3_nchw_cast_fp16")];
            tensor<int32, [2]> model_global_average_pooling2d_10_Mean_axes_0 = const()[name = tensor<string, []>("model_global_average_pooling2d_10_Mean_axes_0"), val = tensor<int32, [2]>([1, 2])];
            tensor<bool, []> model_global_average_pooling2d_10_Mean_keep_dims_0 = const()[name = tensor<string, []>("model_global_average_pooling2d_10_Mean_keep_dims_0"), val = tensor<bool, []>(false)];
            tensor<int32, [4]> transpose_373_perm_0 = const()[name = tensor<string, []>("transpose_373_perm_0"), val = tensor<int32, [4]>([0, 2, 3, 1])];
            tensor<fp16, [1, 160, 288, 32]> transpose_373_cast_fp16 = transpose(perm = transpose_373_perm_0, x = model_add_16_add_cast_fp16)[name = tensor<string, []>("transpose_391")];
            tensor<fp16, [1, 32]> model_global_average_pooling2d_10_Mean_cast_fp16 = reduce_mean(axes = model_global_average_pooling2d_10_Mean_axes_0, keep_dims = model_global_average_pooling2d_10_Mean_keep_dims_0, x = transpose_373_cast_fp16)[name = tensor<string, []>("model_global_average_pooling2d_10_Mean_cast_fp16")];
            tensor<fp16, [32, 32]> transpose_363_cast_fp16_to_fp32_to_fp16 = const()[name = tensor<string, []>("transpose_363_cast_fp16_to_fp32_to_fp16"), val = tensor<fp16, [32, 32]>(BLOBFILE(path = tensor<string, []>("@model_path/weights/weight.bin"), offset = tensor<uint64, []>(12708096)))];
            tensor<fp16, [32]> model_dense_18_BiasAdd_bias_0_to_fp16 = const()[name = tensor<string, []>("model_dense_18_BiasAdd_bias_0_to_fp16"), val = tensor<fp16, [32]>(BLOBFILE(path = tensor<string, []>("@model_path/weights/weight.bin"), offset = tensor<uint64, []>(12710208)))];
            tensor<fp16, [1, 32]> model_dense_18_BiasAdd_cast_fp16 = linear(bias = model_dense_18_BiasAdd_bias_0_to_fp16, weight = transpose_363_cast_fp16_to_fp32_to_fp16, x = model_global_average_pooling2d_10_Mean_cast_fp16)[name = tensor<string, []>("model_dense_18_BiasAdd_cast_fp16")];
            tensor<string, []> model_conv2d_45_Conv2Dx_pad_type_0 = const()[name = tensor<string, []>("model_conv2d_45_Conv2Dx_pad_type_0"), val = tensor<string, []>("same")];
            tensor<int32, [2]> model_conv2d_45_Conv2Dx_strides_0 = const()[name = tensor<string, []>("model_conv2d_45_Conv2Dx_strides_0"), val = tensor<int32, [2]>([1, 1])];
            tensor<int32, [2]> model_conv2d_45_Conv2Dx_dilations_0 = const()[name = tensor<string, []>("model_conv2d_45_Conv2Dx_dilations_0"), val = tensor<int32, [2]>([1, 1])];
            tensor<int32, []> model_conv2d_45_Conv2Dx_groups_0 = const()[name = tensor<string, []>("model_conv2d_45_Conv2Dx_groups_0"), val = tensor<int32, []>(1)];
            tensor<int32, [4]> model_conv2d_45_Conv2Dx_pad_0 = const()[name = tensor<string, []>("model_conv2d_45_Conv2Dx_pad_0"), val = tensor<int32, [4]>([0, 0, 0, 0])];
            tensor<fp16, [1, 32, 1, 1]> transpose_316_to_fp16 = const()[name = tensor<string, []>("transpose_316_to_fp16"), val = tensor<fp16, [1, 32, 1, 1]>(BLOBFILE(path = tensor<string, []>("@model_path/weights/weight.bin"), offset = tensor<uint64, []>(12710336)))];
            tensor<fp16, [1]> const_189_to_fp16 = const()[name = tensor<string, []>("const_189_to_fp16"), val = tensor<fp16, [1]>([0x1.e4p-5])];
            tensor<fp16, [1, 1, 160, 288]> model_conv2d_45_BiasAdd_cast_fp16 = conv(bias = const_189_to_fp16, dilations = model_conv2d_45_Conv2Dx_dilations_0, groups = model_conv2d_45_Conv2Dx_groups_0, pad = model_conv2d_45_Conv2Dx_pad_0, pad_type = model_conv2d_45_Conv2Dx_pad_type_0, strides = model_conv2d_45_Conv2Dx_strides_0, weight = transpose_316_to_fp16, x = model_batch_normalization_28_FusedBatchNormV3_nchw_cast_fp16)[name = tensor<string, []>("model_conv2d_45_BiasAdd_cast_fp16")];
            tensor<fp16, [1, 32]> model_dense_18_Relu_cast_fp16 = relu(x = model_dense_18_BiasAdd_cast_fp16)[name = tensor<string, []>("model_dense_18_Relu_cast_fp16")];
            tensor<fp16, [1, 1, 160, 288]> model_conv2d_45_Sigmoid_cast_fp16 = sigmoid(x = model_conv2d_45_BiasAdd_cast_fp16)[name = tensor<string, []>("model_conv2d_45_Sigmoid_cast_fp16")];
            tensor<fp16, [1, 32, 160, 288]> model_multiply_46_mul_cast_fp16 = mul(x = model_add_16_add_cast_fp16, y = model_conv2d_45_Sigmoid_cast_fp16)[name = tensor<string, []>("model_multiply_46_mul_cast_fp16")];
            tensor<fp16, []> model_12759234_to_fp16 = const()[name = tensor<string, []>("model_12759234_to_fp16"), val = tensor<fp16, []>(0x1p+0)];
            tensor<fp16, [1, 1, 160, 288]> model_tf_math_subtract_Sub_cast_fp16 = sub(x = model_12759234_to_fp16, y = model_conv2d_45_Sigmoid_cast_fp16)[name = tensor<string, []>("model_tf_math_subtract_Sub_cast_fp16")];
            tensor<int32, [4]> model_reshape_10_Reshape_shape = const()[name = tensor<string, []>("model_reshape_10_Reshape_shape"), val = tensor<int32, [4]>([1, 1, 1, 32])];
            tensor<fp16, [1, 1, 1, 32]> model_reshape_10_Reshape_cast_fp16 = reshape(shape = model_reshape_10_Reshape_shape, x = model_dense_18_Relu_cast_fp16)[name = tensor<string, []>("model_reshape_10_Reshape_cast_fp16")];
            tensor<int32, [4]> transpose_318_perm_0 = const()[name = tensor<string, []>("transpose_318_perm_0"), val = tensor<int32, [4]>([0, 3, 1, 2])];
            tensor<int32, []> model_up_sampling2d_3_resize_ResizeNearestNeighbor_channel_first_resize_target_size_height_0 = const()[name = tensor<string, []>("model_up_sampling2d_3_resize_ResizeNearestNeighbor_channel_first_resize_target_size_height_0"), val = tensor<int32, []>(160)];
            tensor<int32, []> model_up_sampling2d_3_resize_ResizeNearestNeighbor_channel_first_resize_target_size_width_0 = const()[name = tensor<string, []>("model_up_sampling2d_3_resize_ResizeNearestNeighbor_channel_first_resize_target_size_width_0"), val = tensor<int32, []>(288)];
            tensor<fp16, [1, 32, 1, 1]> transpose_318_cast_fp16 = transpose(perm = transpose_318_perm_0, x = model_reshape_10_Reshape_cast_fp16)[name = tensor<string, []>("transpose_390")];
            tensor<fp16, [1, 32, 160, 288]> model_up_sampling2d_3_resize_ResizeNearestNeighbor_channel_first_resize_cast_fp16 = resize_nearest_neighbor(target_size_height = model_up_sampling2d_3_resize_ResizeNearestNeighbor_channel_first_resize_target_size_height_0, target_size_width = model_up_sampling2d_3_resize_ResizeNearestNeighbor_channel_first_resize_target_size_width_0, x = transpose_318_cast_fp16)[name = tensor<string, []>("model_up_sampling2d_3_resize_ResizeNearestNeighbor_channel_first_resize_cast_fp16")];
            tensor<fp16, [1, 32, 160, 288]> model_multiply_47_mul_cast_fp16 = mul(x = model_up_sampling2d_3_resize_ResizeNearestNeighbor_channel_first_resize_cast_fp16, y = model_tf_math_subtract_Sub_cast_fp16)[name = tensor<string, []>("model_multiply_47_mul_cast_fp16")];
            tensor<fp16, [1, 32, 160, 288]> model_add_17_add_cast_fp16 = add(x = model_multiply_46_mul_cast_fp16, y = model_multiply_47_mul_cast_fp16)[name = tensor<string, []>("model_add_17_add_cast_fp16")];
            tensor<string, []> model_conv2d_46_Conv2Dx_pad_type_0 = const()[name = tensor<string, []>("model_conv2d_46_Conv2Dx_pad_type_0"), val = tensor<string, []>("same")];
            tensor<int32, [2]> model_conv2d_46_Conv2Dx_strides_0 = const()[name = tensor<string, []>("model_conv2d_46_Conv2Dx_strides_0"), val = tensor<int32, [2]>([1, 1])];
            tensor<int32, [2]> model_conv2d_46_Conv2Dx_dilations_0 = const()[name = tensor<string, []>("model_conv2d_46_Conv2Dx_dilations_0"), val = tensor<int32, [2]>([1, 1])];
            tensor<int32, []> model_conv2d_46_Conv2Dx_groups_0 = const()[name = tensor<string, []>("model_conv2d_46_Conv2Dx_groups_0"), val = tensor<int32, []>(1)];
            tensor<int32, [4]> model_conv2d_46_Conv2Dx_pad_0 = const()[name = tensor<string, []>("model_conv2d_46_Conv2Dx_pad_0"), val = tensor<int32, [4]>([0, 0, 0, 0])];
            tensor<fp16, [8, 32, 3, 1]> transpose_319_to_fp16 = const()[name = tensor<string, []>("transpose_319_to_fp16"), val = tensor<fp16, [8, 32, 3, 1]>(BLOBFILE(path = tensor<string, []>("@model_path/weights/weight.bin"), offset = tensor<uint64, []>(12710464)))];
            tensor<fp16, [8]> const_190_to_fp16 = const()[name = tensor<string, []>("const_190_to_fp16"), val = tensor<fp16, [8]>([0x1.06p-17, -0x1.ap-19, 0x1.c2p-17, 0x1.1ap-17, 0x1.56p-15, -0x1.5ap-17, -0x1.0fp-16, 0x1.56p-17])];
            tensor<fp16, [1, 8, 160, 288]> model_conv2d_46_BiasAdd_cast_fp16 = conv(bias = const_190_to_fp16, dilations = model_conv2d_46_Conv2Dx_dilations_0, groups = model_conv2d_46_Conv2Dx_groups_0, pad = model_conv2d_46_Conv2Dx_pad_0, pad_type = model_conv2d_46_Conv2Dx_pad_type_0, strides = model_conv2d_46_Conv2Dx_strides_0, weight = transpose_319_to_fp16, x = model_add_17_add_cast_fp16)[name = tensor<string, []>("model_conv2d_46_BiasAdd_cast_fp16")];
            tensor<string, []> model_conv2d_47_Conv2Dx_pad_type_0 = const()[name = tensor<string, []>("model_conv2d_47_Conv2Dx_pad_type_0"), val = tensor<string, []>("same")];
            tensor<int32, [2]> model_conv2d_47_Conv2Dx_strides_0 = const()[name = tensor<string, []>("model_conv2d_47_Conv2Dx_strides_0"), val = tensor<int32, [2]>([1, 1])];
            tensor<int32, [2]> model_conv2d_47_Conv2Dx_dilations_0 = const()[name = tensor<string, []>("model_conv2d_47_Conv2Dx_dilations_0"), val = tensor<int32, [2]>([1, 1])];
            tensor<int32, []> model_conv2d_47_Conv2Dx_groups_0 = const()[name = tensor<string, []>("model_conv2d_47_Conv2Dx_groups_0"), val = tensor<int32, []>(1)];
            tensor<int32, [4]> model_conv2d_47_Conv2Dx_pad_0 = const()[name = tensor<string, []>("model_conv2d_47_Conv2Dx_pad_0"), val = tensor<int32, [4]>([0, 0, 0, 0])];
            tensor<fp16, [8, 32, 1, 3]> transpose_321_to_fp16 = const()[name = tensor<string, []>("transpose_321_to_fp16"), val = tensor<fp16, [8, 32, 1, 3]>(BLOBFILE(path = tensor<string, []>("@model_path/weights/weight.bin"), offset = tensor<uint64, []>(12712064)))];
            tensor<fp16, [8]> const_191_to_fp16 = const()[name = tensor<string, []>("const_191_to_fp16"), val = tensor<fp16, [8]>([0x1.2fp-16, 0x1.054p-14, -0x1.1d8p-15, -0x1.1fp-15, -0x1.234p-14, -0x1.9p-19, 0x1.22p-16, 0x1.fcp-18])];
            tensor<fp16, [1, 8, 160, 288]> model_conv2d_47_BiasAdd_cast_fp16 = conv(bias = const_191_to_fp16, dilations = model_conv2d_47_Conv2Dx_dilations_0, groups = model_conv2d_47_Conv2Dx_groups_0, pad = model_conv2d_47_Conv2Dx_pad_0, pad_type = model_conv2d_47_Conv2Dx_pad_type_0, strides = model_conv2d_47_Conv2Dx_strides_0, weight = transpose_321_to_fp16, x = model_add_17_add_cast_fp16)[name = tensor<string, []>("model_conv2d_47_BiasAdd_cast_fp16")];
            tensor<string, []> model_conv2d_48_Conv2Dx_pad_type_0 = const()[name = tensor<string, []>("model_conv2d_48_Conv2Dx_pad_type_0"), val = tensor<string, []>("same")];
            tensor<int32, [2]> model_conv2d_48_Conv2Dx_strides_0 = const()[name = tensor<string, []>("model_conv2d_48_Conv2Dx_strides_0"), val = tensor<int32, [2]>([1, 1])];
            tensor<int32, [2]> model_conv2d_48_Conv2Dx_dilations_0 = const()[name = tensor<string, []>("model_conv2d_48_Conv2Dx_dilations_0"), val = tensor<int32, [2]>([1, 1])];
            tensor<int32, []> model_conv2d_48_Conv2Dx_groups_0 = const()[name = tensor<string, []>("model_conv2d_48_Conv2Dx_groups_0"), val = tensor<int32, []>(1)];
            tensor<int32, [4]> model_conv2d_48_Conv2Dx_pad_0 = const()[name = tensor<string, []>("model_conv2d_48_Conv2Dx_pad_0"), val = tensor<int32, [4]>([0, 0, 0, 0])];
            tensor<fp16, [8, 32, 3, 3]> transpose_323_to_fp16 = const()[name = tensor<string, []>("transpose_323_to_fp16"), val = tensor<fp16, [8, 32, 3, 3]>(BLOBFILE(path = tensor<string, []>("@model_path/weights/weight.bin"), offset = tensor<uint64, []>(12713664)))];
            tensor<fp16, [8]> const_192_to_fp16 = const()[name = tensor<string, []>("const_192_to_fp16"), val = tensor<fp16, [8]>([0x1.158p-14, -0x1.48p-17, 0x1.0e8p-15, 0x1.c7p-15, 0x1.28p-17, -0x1.33p-16, 0x1.bcp-17, 0x1.1p-16])];
            tensor<fp16, [1, 8, 160, 288]> model_conv2d_48_BiasAdd_cast_fp16 = conv(bias = const_192_to_fp16, dilations = model_conv2d_48_Conv2Dx_dilations_0, groups = model_conv2d_48_Conv2Dx_groups_0, pad = model_conv2d_48_Conv2Dx_pad_0, pad_type = model_conv2d_48_Conv2Dx_pad_type_0, strides = model_conv2d_48_Conv2Dx_strides_0, weight = transpose_323_to_fp16, x = model_add_17_add_cast_fp16)[name = tensor<string, []>("model_conv2d_48_BiasAdd_cast_fp16")];
            tensor<string, []> model_conv2d_49_Conv2Dx_pad_type_0 = const()[name = tensor<string, []>("model_conv2d_49_Conv2Dx_pad_type_0"), val = tensor<string, []>("same")];
            tensor<int32, [2]> model_conv2d_49_Conv2Dx_strides_0 = const()[name = tensor<string, []>("model_conv2d_49_Conv2Dx_strides_0"), val = tensor<int32, [2]>([1, 1])];
            tensor<int32, [2]> model_conv2d_49_Conv2Dx_dilations_0 = const()[name = tensor<string, []>("model_conv2d_49_Conv2Dx_dilations_0"), val = tensor<int32, [2]>([1, 1])];
            tensor<int32, []> model_conv2d_49_Conv2Dx_groups_0 = const()[name = tensor<string, []>("model_conv2d_49_Conv2Dx_groups_0"), val = tensor<int32, []>(1)];
            tensor<int32, [4]> model_conv2d_49_Conv2Dx_pad_0 = const()[name = tensor<string, []>("model_conv2d_49_Conv2Dx_pad_0"), val = tensor<int32, [4]>([0, 0, 0, 0])];
            tensor<fp16, [8, 32, 3, 3]> transpose_325_to_fp16 = const()[name = tensor<string, []>("transpose_325_to_fp16"), val = tensor<fp16, [8, 32, 3, 3]>(BLOBFILE(path = tensor<string, []>("@model_path/weights/weight.bin"), offset = tensor<uint64, []>(12718336)))];
            tensor<fp16, [8]> const_193_to_fp16 = const()[name = tensor<string, []>("const_193_to_fp16"), val = tensor<fp16, [8]>([-0x1.0fp-15, -0x1.1cp-17, 0x1.48p-14, -0x1.21p-16, 0x1.4p-19, 0x1.138p-15, 0x1.54p-17, -0x1.68p-15])];
            tensor<fp16, [1, 8, 160, 288]> model_conv2d_49_BiasAdd_cast_fp16 = conv(bias = const_193_to_fp16, dilations = model_conv2d_49_Conv2Dx_dilations_0, groups = model_conv2d_49_Conv2Dx_groups_0, pad = model_conv2d_49_Conv2Dx_pad_0, pad_type = model_conv2d_49_Conv2Dx_pad_type_0, strides = model_conv2d_49_Conv2Dx_strides_0, weight = transpose_325_to_fp16, x = model_add_17_add_cast_fp16)[name = tensor<string, []>("model_conv2d_49_BiasAdd_cast_fp16")];
            tensor<bool, []> model_concatenate_16_concat_interleave_0 = const()[name = tensor<string, []>("model_concatenate_16_concat_interleave_0"), val = tensor<bool, []>(false)];
            tensor<int32, []> const_104 = const()[name = tensor<string, []>("const_104"), val = tensor<int32, []>(1)];
            tensor<fp16, [1, 32, 160, 288]> model_concatenate_16_concat_cast_fp16 = concat(axis = const_104, interleave = model_concatenate_16_concat_interleave_0, values = (model_conv2d_46_BiasAdd_cast_fp16, model_conv2d_47_BiasAdd_cast_fp16, model_conv2d_48_BiasAdd_cast_fp16, model_conv2d_49_BiasAdd_cast_fp16))[name = tensor<string, []>("model_concatenate_16_concat_cast_fp16")];
            tensor<fp16, [32]> model_batch_normalization_29_FusedBatchNormV3_ReadVariableOp_to_fp16 = const()[name = tensor<string, []>("model_batch_normalization_29_FusedBatchNormV3_ReadVariableOp_to_fp16"), val = tensor<fp16, [32]>(BLOBFILE(path = tensor<string, []>("@model_path/weights/weight.bin"), offset = tensor<uint64, []>(12723008)))];
            tensor<fp16, [32]> model_batch_normalization_29_FusedBatchNormV3_ReadVariableOp_1_to_fp16 = const()[name = tensor<string, []>("model_batch_normalization_29_FusedBatchNormV3_ReadVariableOp_1_to_fp16"), val = tensor<fp16, [32]>(BLOBFILE(path = tensor<string, []>("@model_path/weights/weight.bin"), offset = tensor<uint64, []>(12723136)))];
            tensor<fp16, [32]> model_batch_normalization_29_ReadVariableOp_to_fp16 = const()[name = tensor<string, []>("model_batch_normalization_29_ReadVariableOp_to_fp16"), val = tensor<fp16, [32]>(BLOBFILE(path = tensor<string, []>("@model_path/weights/weight.bin"), offset = tensor<uint64, []>(12723264)))];
            tensor<fp16, [32]> model_batch_normalization_29_ReadVariableOp_1_to_fp16 = const()[name = tensor<string, []>("model_batch_normalization_29_ReadVariableOp_1_to_fp16"), val = tensor<fp16, [32]>(BLOBFILE(path = tensor<string, []>("@model_path/weights/weight.bin"), offset = tensor<uint64, []>(12723392)))];
            tensor<fp16, []> model_batch_normalization_29_FusedBatchNormV3_nchw_epsilon_0_to_fp16 = const()[name = tensor<string, []>("model_batch_normalization_29_FusedBatchNormV3_nchw_epsilon_0_to_fp16"), val = tensor<fp16, []>(0x1.064p-10)];
            tensor<fp16, [1, 32, 160, 288]> model_batch_normalization_29_FusedBatchNormV3_nchw_cast_fp16 = batch_norm(beta = model_batch_normalization_29_ReadVariableOp_1_to_fp16, epsilon = model_batch_normalization_29_FusedBatchNormV3_nchw_epsilon_0_to_fp16, gamma = model_batch_normalization_29_ReadVariableOp_to_fp16, mean = model_batch_normalization_29_FusedBatchNormV3_ReadVariableOp_to_fp16, variance = model_batch_normalization_29_FusedBatchNormV3_ReadVariableOp_1_to_fp16, x = model_concatenate_16_concat_cast_fp16)[name = tensor<string, []>("model_batch_normalization_29_FusedBatchNormV3_nchw_cast_fp16")];
            tensor<fp16, [1, 32, 160, 288]> model_re_lu_47_Relu_cast_fp16 = relu(x = model_batch_normalization_29_FusedBatchNormV3_nchw_cast_fp16)[name = tensor<string, []>("model_re_lu_47_Relu_cast_fp16")];
            tensor<string, []> model_conv2d_50_Conv2Dx_pad_type_0 = const()[name = tensor<string, []>("model_conv2d_50_Conv2Dx_pad_type_0"), val = tensor<string, []>("same")];
            tensor<int32, [2]> model_conv2d_50_Conv2Dx_strides_0 = const()[name = tensor<string, []>("model_conv2d_50_Conv2Dx_strides_0"), val = tensor<int32, [2]>([1, 1])];
            tensor<int32, [2]> model_conv2d_50_Conv2Dx_dilations_0 = const()[name = tensor<string, []>("model_conv2d_50_Conv2Dx_dilations_0"), val = tensor<int32, [2]>([1, 1])];
            tensor<int32, []> model_conv2d_50_Conv2Dx_groups_0 = const()[name = tensor<string, []>("model_conv2d_50_Conv2Dx_groups_0"), val = tensor<int32, []>(1)];
            tensor<int32, [4]> model_conv2d_50_Conv2Dx_pad_0 = const()[name = tensor<string, []>("model_conv2d_50_Conv2Dx_pad_0"), val = tensor<int32, [4]>([0, 0, 0, 0])];
            tensor<fp16, [32, 32, 3, 3]> const_327_to_fp16 = const()[name = tensor<string, []>("const_327_to_fp16"), val = tensor<fp16, [32, 32, 3, 3]>(BLOBFILE(path = tensor<string, []>("@model_path/weights/weight.bin"), offset = tensor<uint64, []>(12723520)))];
            tensor<fp16, [32]> const_328_to_fp16 = const()[name = tensor<string, []>("const_328_to_fp16"), val = tensor<fp16, [32]>(BLOBFILE(path = tensor<string, []>("@model_path/weights/weight.bin"), offset = tensor<uint64, []>(12742016)))];
            tensor<fp16, [1, 32, 160, 288]> model_batch_normalization_30_FusedBatchNormV3_nchw_cast_fp16 = conv(bias = const_328_to_fp16, dilations = model_conv2d_50_Conv2Dx_dilations_0, groups = model_conv2d_50_Conv2Dx_groups_0, pad = model_conv2d_50_Conv2Dx_pad_0, pad_type = model_conv2d_50_Conv2Dx_pad_type_0, strides = model_conv2d_50_Conv2Dx_strides_0, weight = const_327_to_fp16, x = model_re_lu_47_Relu_cast_fp16)[name = tensor<string, []>("model_batch_normalization_30_FusedBatchNormV3_nchw_cast_fp16")];
            tensor<fp16, [1, 32, 160, 288]> model_re_lu_48_Relu_cast_fp16 = relu(x = model_batch_normalization_30_FusedBatchNormV3_nchw_cast_fp16)[name = tensor<string, []>("model_re_lu_48_Relu_cast_fp16")];
            tensor<string, []> model_conv2d_51_Conv2Dx_pad_type_0 = const()[name = tensor<string, []>("model_conv2d_51_Conv2Dx_pad_type_0"), val = tensor<string, []>("same")];
            tensor<int32, [2]> model_conv2d_51_Conv2Dx_strides_0 = const()[name = tensor<string, []>("model_conv2d_51_Conv2Dx_strides_0"), val = tensor<int32, [2]>([1, 1])];
            tensor<int32, [2]> model_conv2d_51_Conv2Dx_dilations_0 = const()[name = tensor<string, []>("model_conv2d_51_Conv2Dx_dilations_0"), val = tensor<int32, [2]>([1, 1])];
            tensor<int32, []> model_conv2d_51_Conv2Dx_groups_0 = const()[name = tensor<string, []>("model_conv2d_51_Conv2Dx_groups_0"), val = tensor<int32, []>(1)];
            tensor<int32, [4]> model_conv2d_51_Conv2Dx_pad_0 = const()[name = tensor<string, []>("model_conv2d_51_Conv2Dx_pad_0"), val = tensor<int32, [4]>([0, 0, 0, 0])];
            tensor<fp16, [1, 32, 1, 1]> transpose_331_to_fp16 = const()[name = tensor<string, []>("transpose_331_to_fp16"), val = tensor<fp16, [1, 32, 1, 1]>(BLOBFILE(path = tensor<string, []>("@model_path/weights/weight.bin"), offset = tensor<uint64, []>(12742144)))];
            tensor<fp16, [1]> const_195_to_fp16 = const()[name = tensor<string, []>("const_195_to_fp16"), val = tensor<fp16, [1]>([0x1.8c4p-2])];
            tensor<fp16, [1, 1, 160, 288]> model_conv2d_51_BiasAdd_cast_fp16 = conv(bias = const_195_to_fp16, dilations = model_conv2d_51_Conv2Dx_dilations_0, groups = model_conv2d_51_Conv2Dx_groups_0, pad = model_conv2d_51_Conv2Dx_pad_0, pad_type = model_conv2d_51_Conv2Dx_pad_type_0, strides = model_conv2d_51_Conv2Dx_strides_0, weight = transpose_331_to_fp16, x = model_re_lu_48_Relu_cast_fp16)[name = tensor<string, []>("model_conv2d_51_BiasAdd_cast_fp16")];
            tensor<fp16, [1, 1, 160, 288]> model_conv2d_51_Sigmoid_cast_fp16 = sigmoid(x = model_conv2d_51_BiasAdd_cast_fp16)[name = tensor<string, []>("model_conv2d_51_Sigmoid_cast_fp16")];
            tensor<fp16, [1, 32, 160, 288]> model_multiply_48_mul_cast_fp16 = mul(x = model_add_17_add_cast_fp16, y = model_conv2d_51_Sigmoid_cast_fp16)[name = tensor<string, []>("model_multiply_48_mul_cast_fp16")];
            tensor<fp16, [1, 32, 160, 288]> model_add_18_add_cast_fp16 = add(x = model_add_17_add_cast_fp16, y = model_multiply_48_mul_cast_fp16)[name = tensor<string, []>("model_add_18_add_cast_fp16")];
            tensor<bool, []> model_lambda_11_Mean_keep_dims_0 = const()[name = tensor<string, []>("model_lambda_11_Mean_keep_dims_0"), val = tensor<bool, []>(true)];
            tensor<int32, [1]> const_9 = const()[name = tensor<string, []>("const_9"), val = tensor<int32, [1]>([1])];
            tensor<fp16, [1, 1, 160, 288]> model_lambda_11_Mean_cast_fp16 = reduce_mean(axes = const_9, keep_dims = model_lambda_11_Mean_keep_dims_0, x = model_add_18_add_cast_fp16)[name = tensor<string, []>("model_lambda_11_Mean_cast_fp16")];
            tensor<bool, []> model_lambda_12_Max_keep_dims_0 = const()[name = tensor<string, []>("model_lambda_12_Max_keep_dims_0"), val = tensor<bool, []>(true)];
            tensor<int32, [1]> const_10 = const()[name = tensor<string, []>("const_10"), val = tensor<int32, [1]>([1])];
            tensor<fp16, [1, 1, 160, 288]> model_lambda_12_Max_cast_fp16 = reduce_max(axes = const_10, keep_dims = model_lambda_12_Max_keep_dims_0, x = model_add_18_add_cast_fp16)[name = tensor<string, []>("model_lambda_12_Max_cast_fp16")];
            tensor<int32, [2]> model_global_average_pooling2d_11_Mean_axes_0 = const()[name = tensor<string, []>("model_global_average_pooling2d_11_Mean_axes_0"), val = tensor<int32, [2]>([1, 2])];
            tensor<bool, []> model_global_average_pooling2d_11_Mean_keep_dims_0 = const()[name = tensor<string, []>("model_global_average_pooling2d_11_Mean_keep_dims_0"), val = tensor<bool, []>(false)];
            tensor<int32, [4]> transpose_374_perm_0 = const()[name = tensor<string, []>("transpose_374_perm_0"), val = tensor<int32, [4]>([0, 2, 3, 1])];
            tensor<fp16, [1, 160, 288, 32]> transpose_374_cast_fp16 = transpose(perm = transpose_374_perm_0, x = model_add_18_add_cast_fp16)[name = tensor<string, []>("transpose_389")];
            tensor<fp16, [1, 32]> model_global_average_pooling2d_11_Mean_cast_fp16 = reduce_mean(axes = model_global_average_pooling2d_11_Mean_axes_0, keep_dims = model_global_average_pooling2d_11_Mean_keep_dims_0, x = transpose_374_cast_fp16)[name = tensor<string, []>("model_global_average_pooling2d_11_Mean_cast_fp16")];
            tensor<int32, [2]> model_global_max_pooling2d_6_Max_axes_0 = const()[name = tensor<string, []>("model_global_max_pooling2d_6_Max_axes_0"), val = tensor<int32, [2]>([1, 2])];
            tensor<bool, []> model_global_max_pooling2d_6_Max_keep_dims_0 = const()[name = tensor<string, []>("model_global_max_pooling2d_6_Max_keep_dims_0"), val = tensor<bool, []>(false)];
            tensor<fp16, [1, 32]> model_global_max_pooling2d_6_Max_cast_fp16 = reduce_max(axes = model_global_max_pooling2d_6_Max_axes_0, keep_dims = model_global_max_pooling2d_6_Max_keep_dims_0, x = transpose_374_cast_fp16)[name = tensor<string, []>("model_global_max_pooling2d_6_Max_cast_fp16")];
            tensor<bool, []> model_concatenate_17_concat_interleave_0 = const()[name = tensor<string, []>("model_concatenate_17_concat_interleave_0"), val = tensor<bool, []>(false)];
            tensor<int32, []> const_11 = const()[name = tensor<string, []>("const_11"), val = tensor<int32, []>(1)];
            tensor<fp16, [1, 2, 160, 288]> model_concatenate_17_concat_cast_fp16 = concat(axis = const_11, interleave = model_concatenate_17_concat_interleave_0, values = (model_lambda_11_Mean_cast_fp16, model_lambda_12_Max_cast_fp16))[name = tensor<string, []>("model_concatenate_17_concat_cast_fp16")];
            tensor<bool, []> model_concatenate_18_concat_interleave_0 = const()[name = tensor<string, []>("model_concatenate_18_concat_interleave_0"), val = tensor<bool, []>(false)];
            tensor<fp16, [1, 64]> model_concatenate_18_concat_cast_fp16 = concat(axis = model_concatenate_18_concat_axis, interleave = model_concatenate_18_concat_interleave_0, values = (model_global_average_pooling2d_11_Mean_cast_fp16, model_global_max_pooling2d_6_Max_cast_fp16))[name = tensor<string, []>("model_concatenate_18_concat_cast_fp16")];
            tensor<string, []> model_conv2d_52_Conv2Dx_pad_type_0 = const()[name = tensor<string, []>("model_conv2d_52_Conv2Dx_pad_type_0"), val = tensor<string, []>("same")];
            tensor<int32, [2]> model_conv2d_52_Conv2Dx_strides_0 = const()[name = tensor<string, []>("model_conv2d_52_Conv2Dx_strides_0"), val = tensor<int32, [2]>([1, 1])];
            tensor<int32, [2]> model_conv2d_52_Conv2Dx_dilations_0 = const()[name = tensor<string, []>("model_conv2d_52_Conv2Dx_dilations_0"), val = tensor<int32, [2]>([1, 1])];
            tensor<int32, []> model_conv2d_52_Conv2Dx_groups_0 = const()[name = tensor<string, []>("model_conv2d_52_Conv2Dx_groups_0"), val = tensor<int32, []>(1)];
            tensor<int32, [4]> model_conv2d_52_Conv2Dx_pad_0 = const()[name = tensor<string, []>("model_conv2d_52_Conv2Dx_pad_0"), val = tensor<int32, [4]>([0, 0, 0, 0])];
            tensor<fp16, [1, 2, 7, 7]> transpose_333_to_fp16 = const()[name = tensor<string, []>("transpose_333_to_fp16"), val = tensor<fp16, [1, 2, 7, 7]>(BLOBFILE(path = tensor<string, []>("@model_path/weights/weight.bin"), offset = tensor<uint64, []>(12742272)))];
            tensor<fp16, [1]> const_196_to_fp16 = const()[name = tensor<string, []>("const_196_to_fp16"), val = tensor<fp16, [1]>([-0x1.904p-1])];
            tensor<fp16, [1, 1, 160, 288]> model_conv2d_52_BiasAdd_cast_fp16 = conv(bias = const_196_to_fp16, dilations = model_conv2d_52_Conv2Dx_dilations_0, groups = model_conv2d_52_Conv2Dx_groups_0, pad = model_conv2d_52_Conv2Dx_pad_0, pad_type = model_conv2d_52_Conv2Dx_pad_type_0, strides = model_conv2d_52_Conv2Dx_strides_0, weight = transpose_333_to_fp16, x = model_concatenate_17_concat_cast_fp16)[name = tensor<string, []>("model_conv2d_52_BiasAdd_cast_fp16")];
            tensor<fp16, [32, 64]> transpose_364_cast_fp16_to_fp32_to_fp16 = const()[name = tensor<string, []>("transpose_364_cast_fp16_to_fp32_to_fp16"), val = tensor<fp16, [32, 64]>(BLOBFILE(path = tensor<string, []>("@model_path/weights/weight.bin"), offset = tensor<uint64, []>(12742592)))];
            tensor<fp16, [32]> model_dense_19_BiasAdd_bias_0_to_fp16 = const()[name = tensor<string, []>("model_dense_19_BiasAdd_bias_0_to_fp16"), val = tensor<fp16, [32]>(BLOBFILE(path = tensor<string, []>("@model_path/weights/weight.bin"), offset = tensor<uint64, []>(12746752)))];
            tensor<fp16, [1, 32]> model_dense_19_BiasAdd_cast_fp16 = linear(bias = model_dense_19_BiasAdd_bias_0_to_fp16, weight = transpose_364_cast_fp16_to_fp32_to_fp16, x = model_concatenate_18_concat_cast_fp16)[name = tensor<string, []>("model_dense_19_BiasAdd_cast_fp16")];
            tensor<fp16, [1, 1, 160, 288]> model_conv2d_52_Sigmoid_cast_fp16 = sigmoid(x = model_conv2d_52_BiasAdd_cast_fp16)[name = tensor<string, []>("model_conv2d_52_Sigmoid_cast_fp16")];
            tensor<fp16, [1, 32]> model_dense_19_Sigmoid_cast_fp16 = sigmoid(x = model_dense_19_BiasAdd_cast_fp16)[name = tensor<string, []>("model_dense_19_Sigmoid_cast_fp16")];
            tensor<fp16, [1, 32, 160, 288]> model_multiply_49_mul_cast_fp16 = mul(x = model_add_18_add_cast_fp16, y = model_conv2d_52_Sigmoid_cast_fp16)[name = tensor<string, []>("model_multiply_49_mul_cast_fp16")];
            tensor<int32, [4]> reshape_25_shape_0 = const()[name = tensor<string, []>("reshape_25_shape_0"), val = tensor<int32, [4]>([1, 32, 1, 1])];
            tensor<fp16, [1, 32, 1, 1]> reshape_25_cast_fp16 = reshape(shape = reshape_25_shape_0, x = model_dense_19_Sigmoid_cast_fp16)[name = tensor<string, []>("reshape_25_cast_fp16")];
            tensor<fp16, [1, 32, 160, 288]> model_multiply_50_mul_cast_fp16 = mul(x = model_multiply_49_mul_cast_fp16, y = reshape_25_cast_fp16)[name = tensor<string, []>("model_multiply_50_mul_cast_fp16")];
            tensor<fp16, [1, 32, 160, 288]> model_add_19_add_cast_fp16 = add(x = model_add_18_add_cast_fp16, y = model_multiply_50_mul_cast_fp16)[name = tensor<string, []>("model_add_19_add_cast_fp16")];
            tensor<string, []> model_conv2d_transpose_4_conv2d_transposex_pad_type_0 = const()[name = tensor<string, []>("model_conv2d_transpose_4_conv2d_transposex_pad_type_0"), val = tensor<string, []>("same")];
            tensor<int32, [4]> model_conv2d_transpose_4_conv2d_transposex_output_shape_0 = const()[name = tensor<string, []>("model_conv2d_transpose_4_conv2d_transposex_output_shape_0"), val = tensor<int32, [4]>([1, 1, 320, 576])];
            tensor<int32, [2]> model_conv2d_transpose_4_conv2d_transposex_strides_0 = const()[name = tensor<string, []>("model_conv2d_transpose_4_conv2d_transposex_strides_0"), val = tensor<int32, [2]>([2, 2])];
            tensor<int32, [2]> model_conv2d_transpose_4_conv2d_transposex_dilations_0 = const()[name = tensor<string, []>("model_conv2d_transpose_4_conv2d_transposex_dilations_0"), val = tensor<int32, [2]>([1, 1])];
            tensor<int32, [4]> model_conv2d_transpose_4_conv2d_transposex_pad_0 = const()[name = tensor<string, []>("model_conv2d_transpose_4_conv2d_transposex_pad_0"), val = tensor<int32, [4]>([0, 0, 0, 0])];
            tensor<int32, []> model_conv2d_transpose_4_conv2d_transposex_groups_0 = const()[name = tensor<string, []>("model_conv2d_transpose_4_conv2d_transposex_groups_0"), val = tensor<int32, []>(1)];
            tensor<fp16, [32, 1, 2, 2]> transpose_335_to_fp16 = const()[name = tensor<string, []>("transpose_335_to_fp16"), val = tensor<fp16, [32, 1, 2, 2]>(BLOBFILE(path = tensor<string, []>("@model_path/weights/weight.bin"), offset = tensor<uint64, []>(12746880)))];
            tensor<fp16, [1]> const_197_to_fp16 = const()[name = tensor<string, []>("const_197_to_fp16"), val = tensor<fp16, [1]>([-0x1.a3cp-3])];
            tensor<fp16, [1, 1, 320, 576]> model_conv2d_transpose_4_BiasAdd_cast_fp16 = conv_transpose(bias = const_197_to_fp16, dilations = model_conv2d_transpose_4_conv2d_transposex_dilations_0, groups = model_conv2d_transpose_4_conv2d_transposex_groups_0, output_shape = model_conv2d_transpose_4_conv2d_transposex_output_shape_0, pad = model_conv2d_transpose_4_conv2d_transposex_pad_0, pad_type = model_conv2d_transpose_4_conv2d_transposex_pad_type_0, strides = model_conv2d_transpose_4_conv2d_transposex_strides_0, weight = transpose_335_to_fp16, x = model_add_19_add_cast_fp16)[name = tensor<string, []>("model_conv2d_transpose_4_BiasAdd_cast_fp16")];
            tensor<string, []> model_conv2d_53_Conv2Dx_pad_type_0 = const()[name = tensor<string, []>("model_conv2d_53_Conv2Dx_pad_type_0"), val = tensor<string, []>("same")];
            tensor<int32, [2]> model_conv2d_53_Conv2Dx_strides_0 = const()[name = tensor<string, []>("model_conv2d_53_Conv2Dx_strides_0"), val = tensor<int32, [2]>([1, 1])];
            tensor<int32, [2]> model_conv2d_53_Conv2Dx_dilations_0 = const()[name = tensor<string, []>("model_conv2d_53_Conv2Dx_dilations_0"), val = tensor<int32, [2]>([1, 1])];
            tensor<int32, []> model_conv2d_53_Conv2Dx_groups_0 = const()[name = tensor<string, []>("model_conv2d_53_Conv2Dx_groups_0"), val = tensor<int32, []>(1)];
            tensor<int32, [4]> model_conv2d_53_Conv2Dx_pad_0 = const()[name = tensor<string, []>("model_conv2d_53_Conv2Dx_pad_0"), val = tensor<int32, [4]>([0, 0, 0, 0])];
            tensor<fp16, [8, 1, 3, 3]> transpose_337_to_fp16 = const()[name = tensor<string, []>("transpose_337_to_fp16"), val = tensor<fp16, [8, 1, 3, 3]>(BLOBFILE(path = tensor<string, []>("@model_path/weights/weight.bin"), offset = tensor<uint64, []>(12747200)))];
            tensor<fp16, [8]> const_198_to_fp16 = const()[name = tensor<string, []>("const_198_to_fp16"), val = tensor<fp16, [8]>([0x1.cd4p-3, -0x1.444p+0, -0x1.22p-2, -0x1.cccp-2, -0x1.e94p-2, -0x1.5p+0, -0x1.31p-3, -0x1.0ecp+0])];
            tensor<fp16, [1, 8, 320, 576]> model_conv2d_53_BiasAdd_cast_fp16 = conv(bias = const_198_to_fp16, dilations = model_conv2d_53_Conv2Dx_dilations_0, groups = model_conv2d_53_Conv2Dx_groups_0, pad = model_conv2d_53_Conv2Dx_pad_0, pad_type = model_conv2d_53_Conv2Dx_pad_type_0, strides = model_conv2d_53_Conv2Dx_strides_0, weight = transpose_337_to_fp16, x = model_conv2d_transpose_4_BiasAdd_cast_fp16)[name = tensor<string, []>("model_conv2d_53_BiasAdd_cast_fp16")];
            tensor<string, []> model_conv2d_54_Conv2Dx_pad_type_0 = const()[name = tensor<string, []>("model_conv2d_54_Conv2Dx_pad_type_0"), val = tensor<string, []>("same")];
            tensor<int32, [2]> model_conv2d_54_Conv2Dx_strides_0 = const()[name = tensor<string, []>("model_conv2d_54_Conv2Dx_strides_0"), val = tensor<int32, [2]>([1, 1])];
            tensor<int32, [2]> model_conv2d_54_Conv2Dx_dilations_0 = const()[name = tensor<string, []>("model_conv2d_54_Conv2Dx_dilations_0"), val = tensor<int32, [2]>([1, 1])];
            tensor<int32, []> model_conv2d_54_Conv2Dx_groups_0 = const()[name = tensor<string, []>("model_conv2d_54_Conv2Dx_groups_0"), val = tensor<int32, []>(1)];
            tensor<int32, [4]> model_conv2d_54_Conv2Dx_pad_0 = const()[name = tensor<string, []>("model_conv2d_54_Conv2Dx_pad_0"), val = tensor<int32, [4]>([0, 0, 0, 0])];
            tensor<fp16, [8, 1, 5, 5]> transpose_339_to_fp16 = const()[name = tensor<string, []>("transpose_339_to_fp16"), val = tensor<fp16, [8, 1, 5, 5]>(BLOBFILE(path = tensor<string, []>("@model_path/weights/weight.bin"), offset = tensor<uint64, []>(12747456)))];
            tensor<fp16, [8]> const_199_to_fp16 = const()[name = tensor<string, []>("const_199_to_fp16"), val = tensor<fp16, [8]>([-0x1.eep-1, -0x1.21p+0, -0x1.b7p-1, -0x1.12cp-1, 0x1.dfcp-2, -0x1.e9cp-1, 0x1.aap-2, 0x1.538p-2])];
            tensor<fp16, [1, 8, 320, 576]> model_conv2d_54_BiasAdd_cast_fp16 = conv(bias = const_199_to_fp16, dilations = model_conv2d_54_Conv2Dx_dilations_0, groups = model_conv2d_54_Conv2Dx_groups_0, pad = model_conv2d_54_Conv2Dx_pad_0, pad_type = model_conv2d_54_Conv2Dx_pad_type_0, strides = model_conv2d_54_Conv2Dx_strides_0, weight = transpose_339_to_fp16, x = model_conv2d_transpose_4_BiasAdd_cast_fp16)[name = tensor<string, []>("model_conv2d_54_BiasAdd_cast_fp16")];
            tensor<fp16, [1, 8, 320, 576]> model_conv2d_53_Relu_cast_fp16 = relu(x = model_conv2d_53_BiasAdd_cast_fp16)[name = tensor<string, []>("model_conv2d_53_Relu_cast_fp16")];
            tensor<fp16, [1, 8, 320, 576]> model_conv2d_54_Relu_cast_fp16 = relu(x = model_conv2d_54_BiasAdd_cast_fp16)[name = tensor<string, []>("model_conv2d_54_Relu_cast_fp16")];
            tensor<bool, []> model_concatenate_19_concat_interleave_0 = const()[name = tensor<string, []>("model_concatenate_19_concat_interleave_0"), val = tensor<bool, []>(false)];
            tensor<int32, []> const_113 = const()[name = tensor<string, []>("const_113"), val = tensor<int32, []>(1)];
            tensor<fp16, [1, 16, 320, 576]> model_concatenate_19_concat_cast_fp16 = concat(axis = const_113, interleave = model_concatenate_19_concat_interleave_0, values = (model_conv2d_53_Relu_cast_fp16, model_conv2d_54_Relu_cast_fp16))[name = tensor<string, []>("model_concatenate_19_concat_cast_fp16")];
            tensor<string, []> model_conv2d_55_Conv2Dx_pad_type_0 = const()[name = tensor<string, []>("model_conv2d_55_Conv2Dx_pad_type_0"), val = tensor<string, []>("same")];
            tensor<int32, [2]> model_conv2d_55_Conv2Dx_strides_0 = const()[name = tensor<string, []>("model_conv2d_55_Conv2Dx_strides_0"), val = tensor<int32, [2]>([1, 1])];
            tensor<int32, [2]> model_conv2d_55_Conv2Dx_dilations_0 = const()[name = tensor<string, []>("model_conv2d_55_Conv2Dx_dilations_0"), val = tensor<int32, [2]>([1, 1])];
            tensor<int32, []> model_conv2d_55_Conv2Dx_groups_0 = const()[name = tensor<string, []>("model_conv2d_55_Conv2Dx_groups_0"), val = tensor<int32, []>(1)];
            tensor<int32, [4]> model_conv2d_55_Conv2Dx_pad_0 = const()[name = tensor<string, []>("model_conv2d_55_Conv2Dx_pad_0"), val = tensor<int32, [4]>([0, 0, 0, 0])];
            tensor<fp16, [1, 16, 3, 3]> transpose_341_to_fp16 = const()[name = tensor<string, []>("transpose_341_to_fp16"), val = tensor<fp16, [1, 16, 3, 3]>(BLOBFILE(path = tensor<string, []>("@model_path/weights/weight.bin"), offset = tensor<uint64, []>(12747968)))];
            tensor<fp16, [1]> const_200_to_fp16 = const()[name = tensor<string, []>("const_200_to_fp16"), val = tensor<fp16, [1]>([0x1.00cp-1])];
            tensor<fp16, [1, 1, 320, 576]> model_conv2d_55_BiasAdd_cast_fp16 = conv(bias = const_200_to_fp16, dilations = model_conv2d_55_Conv2Dx_dilations_0, groups = model_conv2d_55_Conv2Dx_groups_0, pad = model_conv2d_55_Conv2Dx_pad_0, pad_type = model_conv2d_55_Conv2Dx_pad_type_0, strides = model_conv2d_55_Conv2Dx_strides_0, weight = transpose_341_to_fp16, x = model_concatenate_19_concat_cast_fp16)[name = tensor<string, []>("model_conv2d_55_BiasAdd_cast_fp16")];
            tensor<string, []> model_output_Conv2Dx_pad_type_0 = const()[name = tensor<string, []>("model_output_Conv2Dx_pad_type_0"), val = tensor<string, []>("valid")];
            tensor<int32, [2]> model_output_Conv2Dx_strides_0 = const()[name = tensor<string, []>("model_output_Conv2Dx_strides_0"), val = tensor<int32, [2]>([1, 1])];
            tensor<int32, [2]> model_output_Conv2Dx_dilations_0 = const()[name = tensor<string, []>("model_output_Conv2Dx_dilations_0"), val = tensor<int32, [2]>([1, 1])];
            tensor<int32, []> model_output_Conv2Dx_groups_0 = const()[name = tensor<string, []>("model_output_Conv2Dx_groups_0"), val = tensor<int32, []>(1)];
            tensor<int32, [4]> model_output_Conv2Dx_pad_0 = const()[name = tensor<string, []>("model_output_Conv2Dx_pad_0"), val = tensor<int32, [4]>([0, 0, 0, 0])];
            tensor<fp16, [1, 1, 1, 1]> conv_0_weight_0_to_fp16 = const()[name = tensor<string, []>("conv_0_weight_0_to_fp16"), val = tensor<fp16, [1, 1, 1, 1]>([[[[-0x1.7dcp-1]]]])];
            tensor<fp16, [1]> conv_0_bias_0_to_fp16 = const()[name = tensor<string, []>("conv_0_bias_0_to_fp16"), val = tensor<fp16, [1]>([-0x1.04cp-1])];
            tensor<fp16, [1, 1, 320, 576]> conv_0_cast_fp16 = conv(bias = conv_0_bias_0_to_fp16, dilations = model_output_Conv2Dx_dilations_0, groups = model_output_Conv2Dx_groups_0, pad = model_output_Conv2Dx_pad_0, pad_type = model_output_Conv2Dx_pad_type_0, strides = model_output_Conv2Dx_strides_0, weight = conv_0_weight_0_to_fp16, x = model_conv2d_55_BiasAdd_cast_fp16)[name = tensor<string, []>("conv_0_cast_fp16")];
            tensor<int32, [4]> model_output_Conv2D_perm_0 = const()[name = tensor<string, []>("model_output_Conv2D_perm_0"), val = tensor<int32, [4]>([0, 2, 3, 1])];
            tensor<fp16, [1, 320, 576, 1]> model_output_BiasAdd_cast_fp16 = transpose(perm = model_output_Conv2D_perm_0, x = conv_0_cast_fp16)[name = tensor<string, []>("transpose_388")];
            tensor<fp16, [1, 320, 576, 1]> model_output_Sigmoid_cast_fp16 = sigmoid(x = model_output_BiasAdd_cast_fp16)[name = tensor<string, []>("model_output_Sigmoid_cast_fp16")];
            tensor<string, []> model_output_Sigmoid_cast_fp16_to_fp32_dtype_0 = const()[name = tensor<string, []>("model_output_Sigmoid_cast_fp16_to_fp32_dtype_0"), val = tensor<string, []>("fp32")];
            tensor<fp32, [1, 320, 576, 1]> Identity = cast(dtype = model_output_Sigmoid_cast_fp16_to_fp32_dtype_0, x = model_output_Sigmoid_cast_fp16)[name = tensor<string, []>("cast_81")];
        } -> (Identity);
}