program(1.0)
[buildInfo = dict<tensor<string, []>, tensor<string, []>>({{"coremlc-component-MIL", "3405.2.1"}, {"coremlc-version", "3404.23.1"}, {"coremltools-component-tensorflow", "2.16.2"}, {"coremltools-version", "8.2"}})]
{
    func main<ios15>(tensor<fp32, [1, 3, 160, 256]> input) {
            tensor<string, []> input_to_fp16_dtype_0 = const()[name = tensor<string, []>("input_to_fp16_dtype_0"), val = tensor<string, []>("fp16")];
            tensor<fp16, []> model_1_model_rescaling_Cast_x_to_fp16 = const()[name = tensor<string, []>("model_1_model_rescaling_Cast_x_to_fp16"), val = tensor<fp16, []>(0x1.01p-7)];
            tensor<fp16, [1, 3, 160, 256]> input_to_fp16 = cast(dtype = input_to_fp16_dtype_0, x = input)[name = tensor<string, []>("cast_67")];
            tensor<fp16, [1, 3, 160, 256]> model_1_model_rescaling_mul_cast_fp16 = mul(x = input_to_fp16, y = model_1_model_rescaling_Cast_x_to_fp16)[name = tensor<string, []>("model_1_model_rescaling_mul_cast_fp16")];
            tensor<fp16, []> model_1_model_rescaling_Cast_1_to_fp16 = const()[name = tensor<string, []>("model_1_model_rescaling_Cast_1_to_fp16"), val = tensor<fp16, []>(-0x1p+0)];
            tensor<fp16, [1, 3, 160, 256]> model_1_model_rescaling_add_cast_fp16 = add(x = model_1_model_rescaling_mul_cast_fp16, y = model_1_model_rescaling_Cast_1_to_fp16)[name = tensor<string, []>("model_1_model_rescaling_add_cast_fp16")];
            tensor<string, []> model_1_model_Conv_Conv2Dx_pad_type_0 = const()[name = tensor<string, []>("model_1_model_Conv_Conv2Dx_pad_type_0"), val = tensor<string, []>("same")];
            tensor<int32, [2]> model_1_model_Conv_Conv2Dx_strides_0 = const()[name = tensor<string, []>("model_1_model_Conv_Conv2Dx_strides_0"), val = tensor<int32, [2]>([2, 2])];
            tensor<int32, [2]> model_1_model_Conv_Conv2Dx_dilations_0 = const()[name = tensor<string, []>("model_1_model_Conv_Conv2Dx_dilations_0"), val = tensor<int32, [2]>([1, 1])];
            tensor<int32, []> model_1_model_Conv_Conv2Dx_groups_0 = const()[name = tensor<string, []>("model_1_model_Conv_Conv2Dx_groups_0"), val = tensor<int32, []>(1)];
            tensor<int32, [4]> model_1_model_Conv_Conv2Dx_pad_0 = const()[name = tensor<string, []>("model_1_model_Conv_Conv2Dx_pad_0"), val = tensor<int32, [4]>([0, 0, 0, 0])];
            tensor<fp16, [16, 3, 3, 3]> const_98_to_fp16 = const()[name = tensor<string, []>("const_98_to_fp16"), val = tensor<fp16, [16, 3, 3, 3]>(BLOBFILE(path = tensor<string, []>("@model_path/weights/weight.bin"), offset = tensor<uint64, []>(64)))];
            tensor<fp16, [16]> const_99_to_fp16 = const()[name = tensor<string, []>("const_99_to_fp16"), val = tensor<fp16, [16]>(BLOBFILE(path = tensor<string, []>("@model_path/weights/weight.bin"), offset = tensor<uint64, []>(1024)))];
            tensor<fp16, [1, 16, 80, 128]> model_1_model_Conv_BatchNorm_FusedBatchNormV3_nchw_cast_fp16 = conv(bias = const_99_to_fp16, dilations = model_1_model_Conv_Conv2Dx_dilations_0, groups = model_1_model_Conv_Conv2Dx_groups_0, pad = model_1_model_Conv_Conv2Dx_pad_0, pad_type = model_1_model_Conv_Conv2Dx_pad_type_0, strides = model_1_model_Conv_Conv2Dx_strides_0, weight = const_98_to_fp16, x = model_1_model_rescaling_add_cast_fp16)[name = tensor<string, []>("model_1_model_Conv_BatchNorm_FusedBatchNormV3_nchw_cast_fp16")];
            tensor<fp16, []> model_1_model_tf___operators___add_28_y_to_fp16 = const()[name = tensor<string, []>("model_1_model_tf___operators___add_28_y_to_fp16"), val = tensor<fp16, []>(0x1.8p+1)];
            tensor<fp16, [1, 16, 80, 128]> model_1_model_tf___operators___add_28_AddV2_cast_fp16 = add(x = model_1_model_Conv_BatchNorm_FusedBatchNormV3_nchw_cast_fp16, y = model_1_model_tf___operators___add_28_y_to_fp16)[name = tensor<string, []>("model_1_model_tf___operators___add_28_AddV2_cast_fp16")];
            tensor<fp16, [1, 16, 80, 128]> model_1_model_re_lu_Relu6_cast_fp16 = relu6(x = model_1_model_tf___operators___add_28_AddV2_cast_fp16)[name = tensor<string, []>("model_1_model_re_lu_Relu6_cast_fp16")];
            tensor<fp16, []> model_1_model_tf_math_multiply_27_Mul_y_to_fp16 = const()[name = tensor<string, []>("model_1_model_tf_math_multiply_27_Mul_y_to_fp16"), val = tensor<fp16, []>(0x1.554p-3)];
            tensor<fp16, [1, 16, 80, 128]> model_1_model_tf_math_multiply_27_Mul_cast_fp16 = mul(x = model_1_model_re_lu_Relu6_cast_fp16, y = model_1_model_tf_math_multiply_27_Mul_y_to_fp16)[name = tensor<string, []>("model_1_model_tf_math_multiply_27_Mul_cast_fp16")];
            tensor<fp16, [1, 16, 80, 128]> model_1_model_multiply_mul_cast_fp16 = mul(x = model_1_model_Conv_BatchNorm_FusedBatchNormV3_nchw_cast_fp16, y = model_1_model_tf_math_multiply_27_Mul_cast_fp16)[name = tensor<string, []>("model_1_model_multiply_mul_cast_fp16")];
            tensor<string, []> model_1_model_expanded_conv_depthwise_depthwisex_pad_type_0 = const()[name = tensor<string, []>("model_1_model_expanded_conv_depthwise_depthwisex_pad_type_0"), val = tensor<string, []>("same")];
            tensor<int32, [2]> model_1_model_expanded_conv_depthwise_depthwisex_strides_0 = const()[name = tensor<string, []>("model_1_model_expanded_conv_depthwise_depthwisex_strides_0"), val = tensor<int32, [2]>([1, 1])];
            tensor<int32, [2]> model_1_model_expanded_conv_depthwise_depthwisex_dilations_0 = const()[name = tensor<string, []>("model_1_model_expanded_conv_depthwise_depthwisex_dilations_0"), val = tensor<int32, [2]>([1, 1])];
            tensor<int32, []> model_1_model_expanded_conv_depthwise_depthwisex_groups_0 = const()[name = tensor<string, []>("model_1_model_expanded_conv_depthwise_depthwisex_groups_0"), val = tensor<int32, []>(16)];
            tensor<int32, [4]> model_1_model_expanded_conv_depthwise_depthwisex_pad_0 = const()[name = tensor<string, []>("model_1_model_expanded_conv_depthwise_depthwisex_pad_0"), val = tensor<int32, [4]>([0, 0, 0, 0])];
            tensor<fp16, [16, 1, 3, 3]> const_100_to_fp16 = const()[name = tensor<string, []>("const_100_to_fp16"), val = tensor<fp16, [16, 1, 3, 3]>(BLOBFILE(path = tensor<string, []>("@model_path/weights/weight.bin"), offset = tensor<uint64, []>(1152)))];
            tensor<fp16, [16]> const_101_to_fp16 = const()[name = tensor<string, []>("const_101_to_fp16"), val = tensor<fp16, [16]>(BLOBFILE(path = tensor<string, []>("@model_path/weights/weight.bin"), offset = tensor<uint64, []>(1536)))];
            tensor<fp16, [1, 16, 80, 128]> model_1_model_expanded_conv_depthwise_BatchNorm_FusedBatchNormV3_nchw_cast_fp16 = conv(bias = const_101_to_fp16, dilations = model_1_model_expanded_conv_depthwise_depthwisex_dilations_0, groups = model_1_model_expanded_conv_depthwise_depthwisex_groups_0, pad = model_1_model_expanded_conv_depthwise_depthwisex_pad_0, pad_type = model_1_model_expanded_conv_depthwise_depthwisex_pad_type_0, strides = model_1_model_expanded_conv_depthwise_depthwisex_strides_0, weight = const_100_to_fp16, x = model_1_model_multiply_mul_cast_fp16)[name = tensor<string, []>("model_1_model_expanded_conv_depthwise_BatchNorm_FusedBatchNormV3_nchw_cast_fp16")];
            tensor<fp16, [1, 16, 80, 128]> model_1_model_re_lu_1_Relu_cast_fp16 = relu(x = model_1_model_expanded_conv_depthwise_BatchNorm_FusedBatchNormV3_nchw_cast_fp16)[name = tensor<string, []>("model_1_model_re_lu_1_Relu_cast_fp16")];
            tensor<string, []> model_1_model_expanded_conv_project_Conv2Dx_pad_type_0 = const()[name = tensor<string, []>("model_1_model_expanded_conv_project_Conv2Dx_pad_type_0"), val = tensor<string, []>("same")];
            tensor<int32, [2]> model_1_model_expanded_conv_project_Conv2Dx_strides_0 = const()[name = tensor<string, []>("model_1_model_expanded_conv_project_Conv2Dx_strides_0"), val = tensor<int32, [2]>([1, 1])];
            tensor<int32, [2]> model_1_model_expanded_conv_project_Conv2Dx_dilations_0 = const()[name = tensor<string, []>("model_1_model_expanded_conv_project_Conv2Dx_dilations_0"), val = tensor<int32, [2]>([1, 1])];
            tensor<int32, []> model_1_model_expanded_conv_project_Conv2Dx_groups_0 = const()[name = tensor<string, []>("model_1_model_expanded_conv_project_Conv2Dx_groups_0"), val = tensor<int32, []>(1)];
            tensor<int32, [4]> model_1_model_expanded_conv_project_Conv2Dx_pad_0 = const()[name = tensor<string, []>("model_1_model_expanded_conv_project_Conv2Dx_pad_0"), val = tensor<int32, [4]>([0, 0, 0, 0])];
            tensor<fp16, [16, 16, 1, 1]> const_102_to_fp16 = const()[name = tensor<string, []>("const_102_to_fp16"), val = tensor<fp16, [16, 16, 1, 1]>(BLOBFILE(path = tensor<string, []>("@model_path/weights/weight.bin"), offset = tensor<uint64, []>(1664)))];
            tensor<fp16, [16]> const_103_to_fp16 = const()[name = tensor<string, []>("const_103_to_fp16"), val = tensor<fp16, [16]>(BLOBFILE(path = tensor<string, []>("@model_path/weights/weight.bin"), offset = tensor<uint64, []>(2240)))];
            tensor<fp16, [1, 16, 80, 128]> model_1_model_expanded_conv_project_BatchNorm_FusedBatchNormV3_nchw_cast_fp16 = conv(bias = const_103_to_fp16, dilations = model_1_model_expanded_conv_project_Conv2Dx_dilations_0, groups = model_1_model_expanded_conv_project_Conv2Dx_groups_0, pad = model_1_model_expanded_conv_project_Conv2Dx_pad_0, pad_type = model_1_model_expanded_conv_project_Conv2Dx_pad_type_0, strides = model_1_model_expanded_conv_project_Conv2Dx_strides_0, weight = const_102_to_fp16, x = model_1_model_re_lu_1_Relu_cast_fp16)[name = tensor<string, []>("model_1_model_expanded_conv_project_BatchNorm_FusedBatchNormV3_nchw_cast_fp16")];
            tensor<fp16, [1, 16, 80, 128]> model_1_model_expanded_conv_Add_add_cast_fp16 = add(x = model_1_model_multiply_mul_cast_fp16, y = model_1_model_expanded_conv_project_BatchNorm_FusedBatchNormV3_nchw_cast_fp16)[name = tensor<string, []>("model_1_model_expanded_conv_Add_add_cast_fp16")];
            tensor<string, []> model_1_model_expanded_conv_1_expand_Conv2Dx_pad_type_0 = const()[name = tensor<string, []>("model_1_model_expanded_conv_1_expand_Conv2Dx_pad_type_0"), val = tensor<string, []>("same")];
            tensor<int32, [2]> model_1_model_expanded_conv_1_expand_Conv2Dx_strides_0 = const()[name = tensor<string, []>("model_1_model_expanded_conv_1_expand_Conv2Dx_strides_0"), val = tensor<int32, [2]>([1, 1])];
            tensor<int32, [2]> model_1_model_expanded_conv_1_expand_Conv2Dx_dilations_0 = const()[name = tensor<string, []>("model_1_model_expanded_conv_1_expand_Conv2Dx_dilations_0"), val = tensor<int32, [2]>([1, 1])];
            tensor<int32, []> model_1_model_expanded_conv_1_expand_Conv2Dx_groups_0 = const()[name = tensor<string, []>("model_1_model_expanded_conv_1_expand_Conv2Dx_groups_0"), val = tensor<int32, []>(1)];
            tensor<int32, [4]> model_1_model_expanded_conv_1_expand_Conv2Dx_pad_0 = const()[name = tensor<string, []>("model_1_model_expanded_conv_1_expand_Conv2Dx_pad_0"), val = tensor<int32, [4]>([0, 0, 0, 0])];
            tensor<fp16, [64, 16, 1, 1]> const_104_to_fp16 = const()[name = tensor<string, []>("const_104_to_fp16"), val = tensor<fp16, [64, 16, 1, 1]>(BLOBFILE(path = tensor<string, []>("@model_path/weights/weight.bin"), offset = tensor<uint64, []>(2368)))];
            tensor<fp16, [64]> const_105_to_fp16 = const()[name = tensor<string, []>("const_105_to_fp16"), val = tensor<fp16, [64]>(BLOBFILE(path = tensor<string, []>("@model_path/weights/weight.bin"), offset = tensor<uint64, []>(4480)))];
            tensor<fp16, [1, 64, 80, 128]> model_1_model_expanded_conv_1_expand_BatchNorm_FusedBatchNormV3_nchw_cast_fp16 = conv(bias = const_105_to_fp16, dilations = model_1_model_expanded_conv_1_expand_Conv2Dx_dilations_0, groups = model_1_model_expanded_conv_1_expand_Conv2Dx_groups_0, pad = model_1_model_expanded_conv_1_expand_Conv2Dx_pad_0, pad_type = model_1_model_expanded_conv_1_expand_Conv2Dx_pad_type_0, strides = model_1_model_expanded_conv_1_expand_Conv2Dx_strides_0, weight = const_104_to_fp16, x = model_1_model_expanded_conv_Add_add_cast_fp16)[name = tensor<string, []>("model_1_model_expanded_conv_1_expand_BatchNorm_FusedBatchNormV3_nchw_cast_fp16")];
            tensor<fp16, [1, 64, 80, 128]> model_1_model_re_lu_2_Relu_cast_fp16 = relu(x = model_1_model_expanded_conv_1_expand_BatchNorm_FusedBatchNormV3_nchw_cast_fp16)[name = tensor<string, []>("model_1_model_re_lu_2_Relu_cast_fp16")];
            tensor<string, []> pad_0_mode_0 = const()[name = tensor<string, []>("pad_0_mode_0"), val = tensor<string, []>("constant")];
            tensor<int32, [8]> pad_4_pad_0 = const()[name = tensor<string, []>("pad_4_pad_0"), val = tensor<int32, [8]>([0, 0, 0, 0, 0, 1, 0, 1])];
            tensor<fp16, []> const_0_to_fp16 = const()[name = tensor<string, []>("const_0_to_fp16"), val = tensor<fp16, []>(0x0p+0)];
            tensor<fp16, [1, 64, 81, 129]> pad_4_cast_fp16 = pad(constant_val = const_0_to_fp16, mode = pad_0_mode_0, pad = pad_4_pad_0, x = model_1_model_re_lu_2_Relu_cast_fp16)[name = tensor<string, []>("pad_4_cast_fp16")];
            tensor<string, []> model_1_model_expanded_conv_1_depthwise_depthwisex_pad_type_0 = const()[name = tensor<string, []>("model_1_model_expanded_conv_1_depthwise_depthwisex_pad_type_0"), val = tensor<string, []>("valid")];
            tensor<int32, [2]> model_1_model_expanded_conv_1_depthwise_depthwisex_strides_0 = const()[name = tensor<string, []>("model_1_model_expanded_conv_1_depthwise_depthwisex_strides_0"), val = tensor<int32, [2]>([2, 2])];
            tensor<int32, [2]> model_1_model_expanded_conv_1_depthwise_depthwisex_dilations_0 = const()[name = tensor<string, []>("model_1_model_expanded_conv_1_depthwise_depthwisex_dilations_0"), val = tensor<int32, [2]>([1, 1])];
            tensor<int32, []> model_1_model_expanded_conv_1_depthwise_depthwisex_groups_0 = const()[name = tensor<string, []>("model_1_model_expanded_conv_1_depthwise_depthwisex_groups_0"), val = tensor<int32, []>(64)];
            tensor<int32, [4]> model_1_model_expanded_conv_1_depthwise_depthwisex_pad_0 = const()[name = tensor<string, []>("model_1_model_expanded_conv_1_depthwise_depthwisex_pad_0"), val = tensor<int32, [4]>([0, 0, 0, 0])];
            tensor<fp16, [64, 1, 3, 3]> const_106_to_fp16 = const()[name = tensor<string, []>("const_106_to_fp16"), val = tensor<fp16, [64, 1, 3, 3]>(BLOBFILE(path = tensor<string, []>("@model_path/weights/weight.bin"), offset = tensor<uint64, []>(4672)))];
            tensor<fp16, [64]> const_107_to_fp16 = const()[name = tensor<string, []>("const_107_to_fp16"), val = tensor<fp16, [64]>(BLOBFILE(path = tensor<string, []>("@model_path/weights/weight.bin"), offset = tensor<uint64, []>(5888)))];
            tensor<fp16, [1, 64, 40, 64]> model_1_model_expanded_conv_1_depthwise_BatchNorm_FusedBatchNormV3_nchw_cast_fp16 = conv(bias = const_107_to_fp16, dilations = model_1_model_expanded_conv_1_depthwise_depthwisex_dilations_0, groups = model_1_model_expanded_conv_1_depthwise_depthwisex_groups_0, pad = model_1_model_expanded_conv_1_depthwise_depthwisex_pad_0, pad_type = model_1_model_expanded_conv_1_depthwise_depthwisex_pad_type_0, strides = model_1_model_expanded_conv_1_depthwise_depthwisex_strides_0, weight = const_106_to_fp16, x = pad_4_cast_fp16)[name = tensor<string, []>("model_1_model_expanded_conv_1_depthwise_BatchNorm_FusedBatchNormV3_nchw_cast_fp16")];
            tensor<fp16, [1, 64, 40, 64]> model_1_model_re_lu_3_Relu_cast_fp16 = relu(x = model_1_model_expanded_conv_1_depthwise_BatchNorm_FusedBatchNormV3_nchw_cast_fp16)[name = tensor<string, []>("model_1_model_re_lu_3_Relu_cast_fp16")];
            tensor<string, []> model_1_model_expanded_conv_1_project_Conv2Dx_pad_type_0 = const()[name = tensor<string, []>("model_1_model_expanded_conv_1_project_Conv2Dx_pad_type_0"), val = tensor<string, []>("same")];
            tensor<int32, [2]> model_1_model_expanded_conv_1_project_Conv2Dx_strides_0 = const()[name = tensor<string, []>("model_1_model_expanded_conv_1_project_Conv2Dx_strides_0"), val = tensor<int32, [2]>([1, 1])];
            tensor<int32, [2]> model_1_model_expanded_conv_1_project_Conv2Dx_dilations_0 = const()[name = tensor<string, []>("model_1_model_expanded_conv_1_project_Conv2Dx_dilations_0"), val = tensor<int32, [2]>([1, 1])];
            tensor<int32, []> model_1_model_expanded_conv_1_project_Conv2Dx_groups_0 = const()[name = tensor<string, []>("model_1_model_expanded_conv_1_project_Conv2Dx_groups_0"), val = tensor<int32, []>(1)];
            tensor<int32, [4]> model_1_model_expanded_conv_1_project_Conv2Dx_pad_0 = const()[name = tensor<string, []>("model_1_model_expanded_conv_1_project_Conv2Dx_pad_0"), val = tensor<int32, [4]>([0, 0, 0, 0])];
            tensor<fp16, [24, 64, 1, 1]> const_108_to_fp16 = const()[name = tensor<string, []>("const_108_to_fp16"), val = tensor<fp16, [24, 64, 1, 1]>(BLOBFILE(path = tensor<string, []>("@model_path/weights/weight.bin"), offset = tensor<uint64, []>(6080)))];
            tensor<fp16, [24]> const_109_to_fp16 = const()[name = tensor<string, []>("const_109_to_fp16"), val = tensor<fp16, [24]>(BLOBFILE(path = tensor<string, []>("@model_path/weights/weight.bin"), offset = tensor<uint64, []>(9216)))];
            tensor<fp16, [1, 24, 40, 64]> model_1_model_expanded_conv_1_project_BatchNorm_FusedBatchNormV3_nchw_cast_fp16 = conv(bias = const_109_to_fp16, dilations = model_1_model_expanded_conv_1_project_Conv2Dx_dilations_0, groups = model_1_model_expanded_conv_1_project_Conv2Dx_groups_0, pad = model_1_model_expanded_conv_1_project_Conv2Dx_pad_0, pad_type = model_1_model_expanded_conv_1_project_Conv2Dx_pad_type_0, strides = model_1_model_expanded_conv_1_project_Conv2Dx_strides_0, weight = const_108_to_fp16, x = model_1_model_re_lu_3_Relu_cast_fp16)[name = tensor<string, []>("model_1_model_expanded_conv_1_project_BatchNorm_FusedBatchNormV3_nchw_cast_fp16")];
            tensor<string, []> model_1_model_expanded_conv_2_expand_Conv2Dx_pad_type_0 = const()[name = tensor<string, []>("model_1_model_expanded_conv_2_expand_Conv2Dx_pad_type_0"), val = tensor<string, []>("same")];
            tensor<int32, [2]> model_1_model_expanded_conv_2_expand_Conv2Dx_strides_0 = const()[name = tensor<string, []>("model_1_model_expanded_conv_2_expand_Conv2Dx_strides_0"), val = tensor<int32, [2]>([1, 1])];
            tensor<int32, [2]> model_1_model_expanded_conv_2_expand_Conv2Dx_dilations_0 = const()[name = tensor<string, []>("model_1_model_expanded_conv_2_expand_Conv2Dx_dilations_0"), val = tensor<int32, [2]>([1, 1])];
            tensor<int32, []> model_1_model_expanded_conv_2_expand_Conv2Dx_groups_0 = const()[name = tensor<string, []>("model_1_model_expanded_conv_2_expand_Conv2Dx_groups_0"), val = tensor<int32, []>(1)];
            tensor<int32, [4]> model_1_model_expanded_conv_2_expand_Conv2Dx_pad_0 = const()[name = tensor<string, []>("model_1_model_expanded_conv_2_expand_Conv2Dx_pad_0"), val = tensor<int32, [4]>([0, 0, 0, 0])];
            tensor<fp16, [72, 24, 1, 1]> const_110_to_fp16 = const()[name = tensor<string, []>("const_110_to_fp16"), val = tensor<fp16, [72, 24, 1, 1]>(BLOBFILE(path = tensor<string, []>("@model_path/weights/weight.bin"), offset = tensor<uint64, []>(9344)))];
            tensor<fp16, [72]> const_111_to_fp16 = const()[name = tensor<string, []>("const_111_to_fp16"), val = tensor<fp16, [72]>(BLOBFILE(path = tensor<string, []>("@model_path/weights/weight.bin"), offset = tensor<uint64, []>(12864)))];
            tensor<fp16, [1, 72, 40, 64]> model_1_model_expanded_conv_2_expand_BatchNorm_FusedBatchNormV3_nchw_cast_fp16 = conv(bias = const_111_to_fp16, dilations = model_1_model_expanded_conv_2_expand_Conv2Dx_dilations_0, groups = model_1_model_expanded_conv_2_expand_Conv2Dx_groups_0, pad = model_1_model_expanded_conv_2_expand_Conv2Dx_pad_0, pad_type = model_1_model_expanded_conv_2_expand_Conv2Dx_pad_type_0, strides = model_1_model_expanded_conv_2_expand_Conv2Dx_strides_0, weight = const_110_to_fp16, x = model_1_model_expanded_conv_1_project_BatchNorm_FusedBatchNormV3_nchw_cast_fp16)[name = tensor<string, []>("model_1_model_expanded_conv_2_expand_BatchNorm_FusedBatchNormV3_nchw_cast_fp16")];
            tensor<fp16, [1, 72, 40, 64]> model_1_model_re_lu_4_Relu_cast_fp16 = relu(x = model_1_model_expanded_conv_2_expand_BatchNorm_FusedBatchNormV3_nchw_cast_fp16)[name = tensor<string, []>("model_1_model_re_lu_4_Relu_cast_fp16")];
            tensor<string, []> model_1_model_expanded_conv_2_depthwise_depthwisex_pad_type_0 = const()[name = tensor<string, []>("model_1_model_expanded_conv_2_depthwise_depthwisex_pad_type_0"), val = tensor<string, []>("same")];
            tensor<int32, [2]> model_1_model_expanded_conv_2_depthwise_depthwisex_strides_0 = const()[name = tensor<string, []>("model_1_model_expanded_conv_2_depthwise_depthwisex_strides_0"), val = tensor<int32, [2]>([1, 1])];
            tensor<int32, [2]> model_1_model_expanded_conv_2_depthwise_depthwisex_dilations_0 = const()[name = tensor<string, []>("model_1_model_expanded_conv_2_depthwise_depthwisex_dilations_0"), val = tensor<int32, [2]>([1, 1])];
            tensor<int32, []> model_1_model_expanded_conv_2_depthwise_depthwisex_groups_0 = const()[name = tensor<string, []>("model_1_model_expanded_conv_2_depthwise_depthwisex_groups_0"), val = tensor<int32, []>(72)];
            tensor<int32, [4]> model_1_model_expanded_conv_2_depthwise_depthwisex_pad_0 = const()[name = tensor<string, []>("model_1_model_expanded_conv_2_depthwise_depthwisex_pad_0"), val = tensor<int32, [4]>([0, 0, 0, 0])];
            tensor<fp16, [72, 1, 3, 3]> const_112_to_fp16 = const()[name = tensor<string, []>("const_112_to_fp16"), val = tensor<fp16, [72, 1, 3, 3]>(BLOBFILE(path = tensor<string, []>("@model_path/weights/weight.bin"), offset = tensor<uint64, []>(13120)))];
            tensor<fp16, [72]> const_113_to_fp16 = const()[name = tensor<string, []>("const_113_to_fp16"), val = tensor<fp16, [72]>(BLOBFILE(path = tensor<string, []>("@model_path/weights/weight.bin"), offset = tensor<uint64, []>(14528)))];
            tensor<fp16, [1, 72, 40, 64]> model_1_model_expanded_conv_2_depthwise_BatchNorm_FusedBatchNormV3_nchw_cast_fp16 = conv(bias = const_113_to_fp16, dilations = model_1_model_expanded_conv_2_depthwise_depthwisex_dilations_0, groups = model_1_model_expanded_conv_2_depthwise_depthwisex_groups_0, pad = model_1_model_expanded_conv_2_depthwise_depthwisex_pad_0, pad_type = model_1_model_expanded_conv_2_depthwise_depthwisex_pad_type_0, strides = model_1_model_expanded_conv_2_depthwise_depthwisex_strides_0, weight = const_112_to_fp16, x = model_1_model_re_lu_4_Relu_cast_fp16)[name = tensor<string, []>("model_1_model_expanded_conv_2_depthwise_BatchNorm_FusedBatchNormV3_nchw_cast_fp16")];
            tensor<fp16, [1, 72, 40, 64]> model_1_model_re_lu_5_Relu_cast_fp16 = relu(x = model_1_model_expanded_conv_2_depthwise_BatchNorm_FusedBatchNormV3_nchw_cast_fp16)[name = tensor<string, []>("model_1_model_re_lu_5_Relu_cast_fp16")];
            tensor<string, []> model_1_model_expanded_conv_2_project_Conv2Dx_pad_type_0 = const()[name = tensor<string, []>("model_1_model_expanded_conv_2_project_Conv2Dx_pad_type_0"), val = tensor<string, []>("same")];
            tensor<int32, [2]> model_1_model_expanded_conv_2_project_Conv2Dx_strides_0 = const()[name = tensor<string, []>("model_1_model_expanded_conv_2_project_Conv2Dx_strides_0"), val = tensor<int32, [2]>([1, 1])];
            tensor<int32, [2]> model_1_model_expanded_conv_2_project_Conv2Dx_dilations_0 = const()[name = tensor<string, []>("model_1_model_expanded_conv_2_project_Conv2Dx_dilations_0"), val = tensor<int32, [2]>([1, 1])];
            tensor<int32, []> model_1_model_expanded_conv_2_project_Conv2Dx_groups_0 = const()[name = tensor<string, []>("model_1_model_expanded_conv_2_project_Conv2Dx_groups_0"), val = tensor<int32, []>(1)];
            tensor<int32, [4]> model_1_model_expanded_conv_2_project_Conv2Dx_pad_0 = const()[name = tensor<string, []>("model_1_model_expanded_conv_2_project_Conv2Dx_pad_0"), val = tensor<int32, [4]>([0, 0, 0, 0])];
            tensor<fp16, [24, 72, 1, 1]> const_114_to_fp16 = const()[name = tensor<string, []>("const_114_to_fp16"), val = tensor<fp16, [24, 72, 1, 1]>(BLOBFILE(path = tensor<string, []>("@model_path/weights/weight.bin"), offset = tensor<uint64, []>(14784)))];
            tensor<fp16, [24]> const_115_to_fp16 = const()[name = tensor<string, []>("const_115_to_fp16"), val = tensor<fp16, [24]>(BLOBFILE(path = tensor<string, []>("@model_path/weights/weight.bin"), offset = tensor<uint64, []>(18304)))];
            tensor<fp16, [1, 24, 40, 64]> model_1_model_expanded_conv_2_project_BatchNorm_FusedBatchNormV3_nchw_cast_fp16 = conv(bias = const_115_to_fp16, dilations = model_1_model_expanded_conv_2_project_Conv2Dx_dilations_0, groups = model_1_model_expanded_conv_2_project_Conv2Dx_groups_0, pad = model_1_model_expanded_conv_2_project_Conv2Dx_pad_0, pad_type = model_1_model_expanded_conv_2_project_Conv2Dx_pad_type_0, strides = model_1_model_expanded_conv_2_project_Conv2Dx_strides_0, weight = const_114_to_fp16, x = model_1_model_re_lu_5_Relu_cast_fp16)[name = tensor<string, []>("model_1_model_expanded_conv_2_project_BatchNorm_FusedBatchNormV3_nchw_cast_fp16")];
            tensor<fp16, [1, 24, 40, 64]> model_1_model_expanded_conv_2_Add_add_cast_fp16 = add(x = model_1_model_expanded_conv_1_project_BatchNorm_FusedBatchNormV3_nchw_cast_fp16, y = model_1_model_expanded_conv_2_project_BatchNorm_FusedBatchNormV3_nchw_cast_fp16)[name = tensor<string, []>("model_1_model_expanded_conv_2_Add_add_cast_fp16")];
            tensor<string, []> model_1_model_expanded_conv_3_expand_Conv2Dx_pad_type_0 = const()[name = tensor<string, []>("model_1_model_expanded_conv_3_expand_Conv2Dx_pad_type_0"), val = tensor<string, []>("same")];
            tensor<int32, [2]> model_1_model_expanded_conv_3_expand_Conv2Dx_strides_0 = const()[name = tensor<string, []>("model_1_model_expanded_conv_3_expand_Conv2Dx_strides_0"), val = tensor<int32, [2]>([1, 1])];
            tensor<int32, [2]> model_1_model_expanded_conv_3_expand_Conv2Dx_dilations_0 = const()[name = tensor<string, []>("model_1_model_expanded_conv_3_expand_Conv2Dx_dilations_0"), val = tensor<int32, [2]>([1, 1])];
            tensor<int32, []> model_1_model_expanded_conv_3_expand_Conv2Dx_groups_0 = const()[name = tensor<string, []>("model_1_model_expanded_conv_3_expand_Conv2Dx_groups_0"), val = tensor<int32, []>(1)];
            tensor<int32, [4]> model_1_model_expanded_conv_3_expand_Conv2Dx_pad_0 = const()[name = tensor<string, []>("model_1_model_expanded_conv_3_expand_Conv2Dx_pad_0"), val = tensor<int32, [4]>([0, 0, 0, 0])];
            tensor<fp16, [72, 24, 1, 1]> const_116_to_fp16 = const()[name = tensor<string, []>("const_116_to_fp16"), val = tensor<fp16, [72, 24, 1, 1]>(BLOBFILE(path = tensor<string, []>("@model_path/weights/weight.bin"), offset = tensor<uint64, []>(18432)))];
            tensor<fp16, [72]> const_117_to_fp16 = const()[name = tensor<string, []>("const_117_to_fp16"), val = tensor<fp16, [72]>(BLOBFILE(path = tensor<string, []>("@model_path/weights/weight.bin"), offset = tensor<uint64, []>(21952)))];
            tensor<fp16, [1, 72, 40, 64]> model_1_model_expanded_conv_3_expand_BatchNorm_FusedBatchNormV3_nchw_cast_fp16 = conv(bias = const_117_to_fp16, dilations = model_1_model_expanded_conv_3_expand_Conv2Dx_dilations_0, groups = model_1_model_expanded_conv_3_expand_Conv2Dx_groups_0, pad = model_1_model_expanded_conv_3_expand_Conv2Dx_pad_0, pad_type = model_1_model_expanded_conv_3_expand_Conv2Dx_pad_type_0, strides = model_1_model_expanded_conv_3_expand_Conv2Dx_strides_0, weight = const_116_to_fp16, x = model_1_model_expanded_conv_2_Add_add_cast_fp16)[name = tensor<string, []>("model_1_model_expanded_conv_3_expand_BatchNorm_FusedBatchNormV3_nchw_cast_fp16")];
            tensor<fp16, [1, 72, 40, 64]> model_1_model_re_lu_6_Relu_cast_fp16 = relu(x = model_1_model_expanded_conv_3_expand_BatchNorm_FusedBatchNormV3_nchw_cast_fp16)[name = tensor<string, []>("model_1_model_re_lu_6_Relu_cast_fp16")];
            tensor<string, []> pad_1_mode_0 = const()[name = tensor<string, []>("pad_1_mode_0"), val = tensor<string, []>("constant")];
            tensor<int32, [8]> pad_5_pad_0 = const()[name = tensor<string, []>("pad_5_pad_0"), val = tensor<int32, [8]>([0, 0, 0, 0, 1, 2, 1, 2])];
            tensor<fp16, []> const_1_to_fp16 = const()[name = tensor<string, []>("const_1_to_fp16"), val = tensor<fp16, []>(0x0p+0)];
            tensor<fp16, [1, 72, 43, 67]> pad_5_cast_fp16 = pad(constant_val = const_1_to_fp16, mode = pad_1_mode_0, pad = pad_5_pad_0, x = model_1_model_re_lu_6_Relu_cast_fp16)[name = tensor<string, []>("pad_5_cast_fp16")];
            tensor<string, []> model_1_model_expanded_conv_3_depthwise_depthwisex_pad_type_0 = const()[name = tensor<string, []>("model_1_model_expanded_conv_3_depthwise_depthwisex_pad_type_0"), val = tensor<string, []>("valid")];
            tensor<int32, [2]> model_1_model_expanded_conv_3_depthwise_depthwisex_strides_0 = const()[name = tensor<string, []>("model_1_model_expanded_conv_3_depthwise_depthwisex_strides_0"), val = tensor<int32, [2]>([2, 2])];
            tensor<int32, [2]> model_1_model_expanded_conv_3_depthwise_depthwisex_dilations_0 = const()[name = tensor<string, []>("model_1_model_expanded_conv_3_depthwise_depthwisex_dilations_0"), val = tensor<int32, [2]>([1, 1])];
            tensor<int32, []> model_1_model_expanded_conv_3_depthwise_depthwisex_groups_0 = const()[name = tensor<string, []>("model_1_model_expanded_conv_3_depthwise_depthwisex_groups_0"), val = tensor<int32, []>(72)];
            tensor<int32, [4]> model_1_model_expanded_conv_3_depthwise_depthwisex_pad_0 = const()[name = tensor<string, []>("model_1_model_expanded_conv_3_depthwise_depthwisex_pad_0"), val = tensor<int32, [4]>([0, 0, 0, 0])];
            tensor<fp16, [72, 1, 5, 5]> const_118_to_fp16 = const()[name = tensor<string, []>("const_118_to_fp16"), val = tensor<fp16, [72, 1, 5, 5]>(BLOBFILE(path = tensor<string, []>("@model_path/weights/weight.bin"), offset = tensor<uint64, []>(22208)))];
            tensor<fp16, [72]> const_119_to_fp16 = const()[name = tensor<string, []>("const_119_to_fp16"), val = tensor<fp16, [72]>(BLOBFILE(path = tensor<string, []>("@model_path/weights/weight.bin"), offset = tensor<uint64, []>(25920)))];
            tensor<fp16, [1, 72, 20, 32]> model_1_model_expanded_conv_3_depthwise_BatchNorm_FusedBatchNormV3_nchw_cast_fp16 = conv(bias = const_119_to_fp16, dilations = model_1_model_expanded_conv_3_depthwise_depthwisex_dilations_0, groups = model_1_model_expanded_conv_3_depthwise_depthwisex_groups_0, pad = model_1_model_expanded_conv_3_depthwise_depthwisex_pad_0, pad_type = model_1_model_expanded_conv_3_depthwise_depthwisex_pad_type_0, strides = model_1_model_expanded_conv_3_depthwise_depthwisex_strides_0, weight = const_118_to_fp16, x = pad_5_cast_fp16)[name = tensor<string, []>("model_1_model_expanded_conv_3_depthwise_BatchNorm_FusedBatchNormV3_nchw_cast_fp16")];
            tensor<fp16, [1, 72, 20, 32]> model_1_model_re_lu_7_Relu_cast_fp16 = relu(x = model_1_model_expanded_conv_3_depthwise_BatchNorm_FusedBatchNormV3_nchw_cast_fp16)[name = tensor<string, []>("model_1_model_re_lu_7_Relu_cast_fp16")];
            tensor<bool, []> model_1_model_expanded_conv_3_squeeze_excite_AvgPool_Mean_keep_dims_0 = const()[name = tensor<string, []>("model_1_model_expanded_conv_3_squeeze_excite_AvgPool_Mean_keep_dims_0"), val = tensor<bool, []>(true)];
            tensor<int32, [2]> const_6 = const()[name = tensor<string, []>("const_6"), val = tensor<int32, [2]>([2, 3])];
            tensor<fp16, [1, 72, 1, 1]> model_1_model_expanded_conv_3_squeeze_excite_AvgPool_Mean_cast_fp16 = reduce_mean(axes = const_6, keep_dims = model_1_model_expanded_conv_3_squeeze_excite_AvgPool_Mean_keep_dims_0, x = model_1_model_re_lu_7_Relu_cast_fp16)[name = tensor<string, []>("model_1_model_expanded_conv_3_squeeze_excite_AvgPool_Mean_cast_fp16")];
            tensor<string, []> model_1_model_expanded_conv_3_squeeze_excite_Conv_Conv2Dx_pad_type_0 = const()[name = tensor<string, []>("model_1_model_expanded_conv_3_squeeze_excite_Conv_Conv2Dx_pad_type_0"), val = tensor<string, []>("same")];
            tensor<int32, [2]> model_1_model_expanded_conv_3_squeeze_excite_Conv_Conv2Dx_strides_0 = const()[name = tensor<string, []>("model_1_model_expanded_conv_3_squeeze_excite_Conv_Conv2Dx_strides_0"), val = tensor<int32, [2]>([1, 1])];
            tensor<int32, [2]> model_1_model_expanded_conv_3_squeeze_excite_Conv_Conv2Dx_dilations_0 = const()[name = tensor<string, []>("model_1_model_expanded_conv_3_squeeze_excite_Conv_Conv2Dx_dilations_0"), val = tensor<int32, [2]>([1, 1])];
            tensor<int32, []> model_1_model_expanded_conv_3_squeeze_excite_Conv_Conv2Dx_groups_0 = const()[name = tensor<string, []>("model_1_model_expanded_conv_3_squeeze_excite_Conv_Conv2Dx_groups_0"), val = tensor<int32, []>(1)];
            tensor<int32, [4]> model_1_model_expanded_conv_3_squeeze_excite_Conv_Conv2Dx_pad_0 = const()[name = tensor<string, []>("model_1_model_expanded_conv_3_squeeze_excite_Conv_Conv2Dx_pad_0"), val = tensor<int32, [4]>([0, 0, 0, 0])];
            tensor<fp16, [24, 72, 1, 1]> transpose_33_to_fp16 = const()[name = tensor<string, []>("transpose_33_to_fp16"), val = tensor<fp16, [24, 72, 1, 1]>(BLOBFILE(path = tensor<string, []>("@model_path/weights/weight.bin"), offset = tensor<uint64, []>(26176)))];
            tensor<fp16, [24]> const_53_to_fp16 = const()[name = tensor<string, []>("const_53_to_fp16"), val = tensor<fp16, [24]>(BLOBFILE(path = tensor<string, []>("@model_path/weights/weight.bin"), offset = tensor<uint64, []>(29696)))];
            tensor<fp16, [1, 24, 1, 1]> model_1_model_expanded_conv_3_squeeze_excite_Conv_BiasAdd_cast_fp16 = conv(bias = const_53_to_fp16, dilations = model_1_model_expanded_conv_3_squeeze_excite_Conv_Conv2Dx_dilations_0, groups = model_1_model_expanded_conv_3_squeeze_excite_Conv_Conv2Dx_groups_0, pad = model_1_model_expanded_conv_3_squeeze_excite_Conv_Conv2Dx_pad_0, pad_type = model_1_model_expanded_conv_3_squeeze_excite_Conv_Conv2Dx_pad_type_0, strides = model_1_model_expanded_conv_3_squeeze_excite_Conv_Conv2Dx_strides_0, weight = transpose_33_to_fp16, x = model_1_model_expanded_conv_3_squeeze_excite_AvgPool_Mean_cast_fp16)[name = tensor<string, []>("model_1_model_expanded_conv_3_squeeze_excite_Conv_BiasAdd_cast_fp16")];
            tensor<fp16, [1, 24, 1, 1]> model_1_model_expanded_conv_3_squeeze_excite_Relu_Relu_cast_fp16 = relu(x = model_1_model_expanded_conv_3_squeeze_excite_Conv_BiasAdd_cast_fp16)[name = tensor<string, []>("model_1_model_expanded_conv_3_squeeze_excite_Relu_Relu_cast_fp16")];
            tensor<string, []> model_1_model_expanded_conv_3_squeeze_excite_Conv_1_Conv2Dx_pad_type_0 = const()[name = tensor<string, []>("model_1_model_expanded_conv_3_squeeze_excite_Conv_1_Conv2Dx_pad_type_0"), val = tensor<string, []>("same")];
            tensor<int32, [2]> model_1_model_expanded_conv_3_squeeze_excite_Conv_1_Conv2Dx_strides_0 = const()[name = tensor<string, []>("model_1_model_expanded_conv_3_squeeze_excite_Conv_1_Conv2Dx_strides_0"), val = tensor<int32, [2]>([1, 1])];
            tensor<int32, [2]> model_1_model_expanded_conv_3_squeeze_excite_Conv_1_Conv2Dx_dilations_0 = const()[name = tensor<string, []>("model_1_model_expanded_conv_3_squeeze_excite_Conv_1_Conv2Dx_dilations_0"), val = tensor<int32, [2]>([1, 1])];
            tensor<int32, []> model_1_model_expanded_conv_3_squeeze_excite_Conv_1_Conv2Dx_groups_0 = const()[name = tensor<string, []>("model_1_model_expanded_conv_3_squeeze_excite_Conv_1_Conv2Dx_groups_0"), val = tensor<int32, []>(1)];
            tensor<int32, [4]> model_1_model_expanded_conv_3_squeeze_excite_Conv_1_Conv2Dx_pad_0 = const()[name = tensor<string, []>("model_1_model_expanded_conv_3_squeeze_excite_Conv_1_Conv2Dx_pad_0"), val = tensor<int32, [4]>([0, 0, 0, 0])];
            tensor<fp16, [72, 24, 1, 1]> transpose_35_to_fp16 = const()[name = tensor<string, []>("transpose_35_to_fp16"), val = tensor<fp16, [72, 24, 1, 1]>(BLOBFILE(path = tensor<string, []>("@model_path/weights/weight.bin"), offset = tensor<uint64, []>(29824)))];
            tensor<fp16, [72]> const_90_to_fp16 = const()[name = tensor<string, []>("const_90_to_fp16"), val = tensor<fp16, [72]>(BLOBFILE(path = tensor<string, []>("@model_path/weights/weight.bin"), offset = tensor<uint64, []>(33344)))];
            tensor<fp16, [1, 72, 1, 1]> model_1_model_tf___operators___add_29_AddV2_cast_fp16 = conv(bias = const_90_to_fp16, dilations = model_1_model_expanded_conv_3_squeeze_excite_Conv_1_Conv2Dx_dilations_0, groups = model_1_model_expanded_conv_3_squeeze_excite_Conv_1_Conv2Dx_groups_0, pad = model_1_model_expanded_conv_3_squeeze_excite_Conv_1_Conv2Dx_pad_0, pad_type = model_1_model_expanded_conv_3_squeeze_excite_Conv_1_Conv2Dx_pad_type_0, strides = model_1_model_expanded_conv_3_squeeze_excite_Conv_1_Conv2Dx_strides_0, weight = transpose_35_to_fp16, x = model_1_model_expanded_conv_3_squeeze_excite_Relu_Relu_cast_fp16)[name = tensor<string, []>("model_1_model_tf___operators___add_29_AddV2_cast_fp16")];
            tensor<fp16, [1, 72, 1, 1]> model_1_model_re_lu_8_Relu6_cast_fp16 = relu6(x = model_1_model_tf___operators___add_29_AddV2_cast_fp16)[name = tensor<string, []>("model_1_model_re_lu_8_Relu6_cast_fp16")];
            tensor<fp16, []> model_1_model_tf_math_multiply_28_Mul_y_to_fp16 = const()[name = tensor<string, []>("model_1_model_tf_math_multiply_28_Mul_y_to_fp16"), val = tensor<fp16, []>(0x1.554p-3)];
            tensor<fp16, [1, 72, 1, 1]> model_1_model_tf_math_multiply_28_Mul_cast_fp16 = mul(x = model_1_model_re_lu_8_Relu6_cast_fp16, y = model_1_model_tf_math_multiply_28_Mul_y_to_fp16)[name = tensor<string, []>("model_1_model_tf_math_multiply_28_Mul_cast_fp16")];
            tensor<fp16, [1, 72, 20, 32]> model_1_model_expanded_conv_3_squeeze_excite_Mul_mul_cast_fp16 = mul(x = model_1_model_re_lu_7_Relu_cast_fp16, y = model_1_model_tf_math_multiply_28_Mul_cast_fp16)[name = tensor<string, []>("model_1_model_expanded_conv_3_squeeze_excite_Mul_mul_cast_fp16")];
            tensor<string, []> model_1_model_expanded_conv_3_project_Conv2Dx_pad_type_0 = const()[name = tensor<string, []>("model_1_model_expanded_conv_3_project_Conv2Dx_pad_type_0"), val = tensor<string, []>("same")];
            tensor<int32, [2]> model_1_model_expanded_conv_3_project_Conv2Dx_strides_0 = const()[name = tensor<string, []>("model_1_model_expanded_conv_3_project_Conv2Dx_strides_0"), val = tensor<int32, [2]>([1, 1])];
            tensor<int32, [2]> model_1_model_expanded_conv_3_project_Conv2Dx_dilations_0 = const()[name = tensor<string, []>("model_1_model_expanded_conv_3_project_Conv2Dx_dilations_0"), val = tensor<int32, [2]>([1, 1])];
            tensor<int32, []> model_1_model_expanded_conv_3_project_Conv2Dx_groups_0 = const()[name = tensor<string, []>("model_1_model_expanded_conv_3_project_Conv2Dx_groups_0"), val = tensor<int32, []>(1)];
            tensor<int32, [4]> model_1_model_expanded_conv_3_project_Conv2Dx_pad_0 = const()[name = tensor<string, []>("model_1_model_expanded_conv_3_project_Conv2Dx_pad_0"), val = tensor<int32, [4]>([0, 0, 0, 0])];
            tensor<fp16, [40, 72, 1, 1]> const_120_to_fp16 = const()[name = tensor<string, []>("const_120_to_fp16"), val = tensor<fp16, [40, 72, 1, 1]>(BLOBFILE(path = tensor<string, []>("@model_path/weights/weight.bin"), offset = tensor<uint64, []>(33600)))];
            tensor<fp16, [40]> const_121_to_fp16 = const()[name = tensor<string, []>("const_121_to_fp16"), val = tensor<fp16, [40]>(BLOBFILE(path = tensor<string, []>("@model_path/weights/weight.bin"), offset = tensor<uint64, []>(39424)))];
            tensor<fp16, [1, 40, 20, 32]> model_1_model_expanded_conv_3_project_BatchNorm_FusedBatchNormV3_nchw_cast_fp16 = conv(bias = const_121_to_fp16, dilations = model_1_model_expanded_conv_3_project_Conv2Dx_dilations_0, groups = model_1_model_expanded_conv_3_project_Conv2Dx_groups_0, pad = model_1_model_expanded_conv_3_project_Conv2Dx_pad_0, pad_type = model_1_model_expanded_conv_3_project_Conv2Dx_pad_type_0, strides = model_1_model_expanded_conv_3_project_Conv2Dx_strides_0, weight = const_120_to_fp16, x = model_1_model_expanded_conv_3_squeeze_excite_Mul_mul_cast_fp16)[name = tensor<string, []>("model_1_model_expanded_conv_3_project_BatchNorm_FusedBatchNormV3_nchw_cast_fp16")];
            tensor<string, []> model_1_model_expanded_conv_4_expand_Conv2Dx_pad_type_0 = const()[name = tensor<string, []>("model_1_model_expanded_conv_4_expand_Conv2Dx_pad_type_0"), val = tensor<string, []>("same")];
            tensor<int32, [2]> model_1_model_expanded_conv_4_expand_Conv2Dx_strides_0 = const()[name = tensor<string, []>("model_1_model_expanded_conv_4_expand_Conv2Dx_strides_0"), val = tensor<int32, [2]>([1, 1])];
            tensor<int32, [2]> model_1_model_expanded_conv_4_expand_Conv2Dx_dilations_0 = const()[name = tensor<string, []>("model_1_model_expanded_conv_4_expand_Conv2Dx_dilations_0"), val = tensor<int32, [2]>([1, 1])];
            tensor<int32, []> model_1_model_expanded_conv_4_expand_Conv2Dx_groups_0 = const()[name = tensor<string, []>("model_1_model_expanded_conv_4_expand_Conv2Dx_groups_0"), val = tensor<int32, []>(1)];
            tensor<int32, [4]> model_1_model_expanded_conv_4_expand_Conv2Dx_pad_0 = const()[name = tensor<string, []>("model_1_model_expanded_conv_4_expand_Conv2Dx_pad_0"), val = tensor<int32, [4]>([0, 0, 0, 0])];
            tensor<fp16, [120, 40, 1, 1]> const_122_to_fp16 = const()[name = tensor<string, []>("const_122_to_fp16"), val = tensor<fp16, [120, 40, 1, 1]>(BLOBFILE(path = tensor<string, []>("@model_path/weights/weight.bin"), offset = tensor<uint64, []>(39616)))];
            tensor<fp16, [120]> const_123_to_fp16 = const()[name = tensor<string, []>("const_123_to_fp16"), val = tensor<fp16, [120]>(BLOBFILE(path = tensor<string, []>("@model_path/weights/weight.bin"), offset = tensor<uint64, []>(49280)))];
            tensor<fp16, [1, 120, 20, 32]> model_1_model_expanded_conv_4_expand_BatchNorm_FusedBatchNormV3_nchw_cast_fp16 = conv(bias = const_123_to_fp16, dilations = model_1_model_expanded_conv_4_expand_Conv2Dx_dilations_0, groups = model_1_model_expanded_conv_4_expand_Conv2Dx_groups_0, pad = model_1_model_expanded_conv_4_expand_Conv2Dx_pad_0, pad_type = model_1_model_expanded_conv_4_expand_Conv2Dx_pad_type_0, strides = model_1_model_expanded_conv_4_expand_Conv2Dx_strides_0, weight = const_122_to_fp16, x = model_1_model_expanded_conv_3_project_BatchNorm_FusedBatchNormV3_nchw_cast_fp16)[name = tensor<string, []>("model_1_model_expanded_conv_4_expand_BatchNorm_FusedBatchNormV3_nchw_cast_fp16")];
            tensor<fp16, [1, 120, 20, 32]> model_1_model_re_lu_9_Relu_cast_fp16 = relu(x = model_1_model_expanded_conv_4_expand_BatchNorm_FusedBatchNormV3_nchw_cast_fp16)[name = tensor<string, []>("model_1_model_re_lu_9_Relu_cast_fp16")];
            tensor<string, []> model_1_model_expanded_conv_4_depthwise_depthwisex_pad_type_0 = const()[name = tensor<string, []>("model_1_model_expanded_conv_4_depthwise_depthwisex_pad_type_0"), val = tensor<string, []>("same")];
            tensor<int32, [2]> model_1_model_expanded_conv_4_depthwise_depthwisex_strides_0 = const()[name = tensor<string, []>("model_1_model_expanded_conv_4_depthwise_depthwisex_strides_0"), val = tensor<int32, [2]>([1, 1])];
            tensor<int32, [2]> model_1_model_expanded_conv_4_depthwise_depthwisex_dilations_0 = const()[name = tensor<string, []>("model_1_model_expanded_conv_4_depthwise_depthwisex_dilations_0"), val = tensor<int32, [2]>([1, 1])];
            tensor<int32, []> model_1_model_expanded_conv_4_depthwise_depthwisex_groups_0 = const()[name = tensor<string, []>("model_1_model_expanded_conv_4_depthwise_depthwisex_groups_0"), val = tensor<int32, []>(120)];
            tensor<int32, [4]> model_1_model_expanded_conv_4_depthwise_depthwisex_pad_0 = const()[name = tensor<string, []>("model_1_model_expanded_conv_4_depthwise_depthwisex_pad_0"), val = tensor<int32, [4]>([0, 0, 0, 0])];
            tensor<fp16, [120, 1, 5, 5]> const_124_to_fp16 = const()[name = tensor<string, []>("const_124_to_fp16"), val = tensor<fp16, [120, 1, 5, 5]>(BLOBFILE(path = tensor<string, []>("@model_path/weights/weight.bin"), offset = tensor<uint64, []>(49600)))];
            tensor<fp16, [120]> const_125_to_fp16 = const()[name = tensor<string, []>("const_125_to_fp16"), val = tensor<fp16, [120]>(BLOBFILE(path = tensor<string, []>("@model_path/weights/weight.bin"), offset = tensor<uint64, []>(55680)))];
            tensor<fp16, [1, 120, 20, 32]> model_1_model_expanded_conv_4_depthwise_BatchNorm_FusedBatchNormV3_nchw_cast_fp16 = conv(bias = const_125_to_fp16, dilations = model_1_model_expanded_conv_4_depthwise_depthwisex_dilations_0, groups = model_1_model_expanded_conv_4_depthwise_depthwisex_groups_0, pad = model_1_model_expanded_conv_4_depthwise_depthwisex_pad_0, pad_type = model_1_model_expanded_conv_4_depthwise_depthwisex_pad_type_0, strides = model_1_model_expanded_conv_4_depthwise_depthwisex_strides_0, weight = const_124_to_fp16, x = model_1_model_re_lu_9_Relu_cast_fp16)[name = tensor<string, []>("model_1_model_expanded_conv_4_depthwise_BatchNorm_FusedBatchNormV3_nchw_cast_fp16")];
            tensor<fp16, [1, 120, 20, 32]> model_1_model_re_lu_10_Relu_cast_fp16 = relu(x = model_1_model_expanded_conv_4_depthwise_BatchNorm_FusedBatchNormV3_nchw_cast_fp16)[name = tensor<string, []>("model_1_model_re_lu_10_Relu_cast_fp16")];
            tensor<bool, []> model_1_model_expanded_conv_4_squeeze_excite_AvgPool_Mean_keep_dims_0 = const()[name = tensor<string, []>("model_1_model_expanded_conv_4_squeeze_excite_AvgPool_Mean_keep_dims_0"), val = tensor<bool, []>(true)];
            tensor<int32, [2]> const_9 = const()[name = tensor<string, []>("const_9"), val = tensor<int32, [2]>([2, 3])];
            tensor<fp16, [1, 120, 1, 1]> model_1_model_expanded_conv_4_squeeze_excite_AvgPool_Mean_cast_fp16 = reduce_mean(axes = const_9, keep_dims = model_1_model_expanded_conv_4_squeeze_excite_AvgPool_Mean_keep_dims_0, x = model_1_model_re_lu_10_Relu_cast_fp16)[name = tensor<string, []>("model_1_model_expanded_conv_4_squeeze_excite_AvgPool_Mean_cast_fp16")];
            tensor<string, []> model_1_model_expanded_conv_4_squeeze_excite_Conv_Conv2Dx_pad_type_0 = const()[name = tensor<string, []>("model_1_model_expanded_conv_4_squeeze_excite_Conv_Conv2Dx_pad_type_0"), val = tensor<string, []>("same")];
            tensor<int32, [2]> model_1_model_expanded_conv_4_squeeze_excite_Conv_Conv2Dx_strides_0 = const()[name = tensor<string, []>("model_1_model_expanded_conv_4_squeeze_excite_Conv_Conv2Dx_strides_0"), val = tensor<int32, [2]>([1, 1])];
            tensor<int32, [2]> model_1_model_expanded_conv_4_squeeze_excite_Conv_Conv2Dx_dilations_0 = const()[name = tensor<string, []>("model_1_model_expanded_conv_4_squeeze_excite_Conv_Conv2Dx_dilations_0"), val = tensor<int32, [2]>([1, 1])];
            tensor<int32, []> model_1_model_expanded_conv_4_squeeze_excite_Conv_Conv2Dx_groups_0 = const()[name = tensor<string, []>("model_1_model_expanded_conv_4_squeeze_excite_Conv_Conv2Dx_groups_0"), val = tensor<int32, []>(1)];
            tensor<int32, [4]> model_1_model_expanded_conv_4_squeeze_excite_Conv_Conv2Dx_pad_0 = const()[name = tensor<string, []>("model_1_model_expanded_conv_4_squeeze_excite_Conv_Conv2Dx_pad_0"), val = tensor<int32, [4]>([0, 0, 0, 0])];
            tensor<fp16, [32, 120, 1, 1]> transpose_46_to_fp16 = const()[name = tensor<string, []>("transpose_46_to_fp16"), val = tensor<fp16, [32, 120, 1, 1]>(BLOBFILE(path = tensor<string, []>("@model_path/weights/weight.bin"), offset = tensor<uint64, []>(56000)))];
            tensor<fp16, [32]> const_55_to_fp16 = const()[name = tensor<string, []>("const_55_to_fp16"), val = tensor<fp16, [32]>(BLOBFILE(path = tensor<string, []>("@model_path/weights/weight.bin"), offset = tensor<uint64, []>(63744)))];
            tensor<fp16, [1, 32, 1, 1]> model_1_model_expanded_conv_4_squeeze_excite_Conv_BiasAdd_cast_fp16 = conv(bias = const_55_to_fp16, dilations = model_1_model_expanded_conv_4_squeeze_excite_Conv_Conv2Dx_dilations_0, groups = model_1_model_expanded_conv_4_squeeze_excite_Conv_Conv2Dx_groups_0, pad = model_1_model_expanded_conv_4_squeeze_excite_Conv_Conv2Dx_pad_0, pad_type = model_1_model_expanded_conv_4_squeeze_excite_Conv_Conv2Dx_pad_type_0, strides = model_1_model_expanded_conv_4_squeeze_excite_Conv_Conv2Dx_strides_0, weight = transpose_46_to_fp16, x = model_1_model_expanded_conv_4_squeeze_excite_AvgPool_Mean_cast_fp16)[name = tensor<string, []>("model_1_model_expanded_conv_4_squeeze_excite_Conv_BiasAdd_cast_fp16")];
            tensor<fp16, [1, 32, 1, 1]> model_1_model_expanded_conv_4_squeeze_excite_Relu_Relu_cast_fp16 = relu(x = model_1_model_expanded_conv_4_squeeze_excite_Conv_BiasAdd_cast_fp16)[name = tensor<string, []>("model_1_model_expanded_conv_4_squeeze_excite_Relu_Relu_cast_fp16")];
            tensor<string, []> model_1_model_expanded_conv_4_squeeze_excite_Conv_1_Conv2Dx_pad_type_0 = const()[name = tensor<string, []>("model_1_model_expanded_conv_4_squeeze_excite_Conv_1_Conv2Dx_pad_type_0"), val = tensor<string, []>("same")];
            tensor<int32, [2]> model_1_model_expanded_conv_4_squeeze_excite_Conv_1_Conv2Dx_strides_0 = const()[name = tensor<string, []>("model_1_model_expanded_conv_4_squeeze_excite_Conv_1_Conv2Dx_strides_0"), val = tensor<int32, [2]>([1, 1])];
            tensor<int32, [2]> model_1_model_expanded_conv_4_squeeze_excite_Conv_1_Conv2Dx_dilations_0 = const()[name = tensor<string, []>("model_1_model_expanded_conv_4_squeeze_excite_Conv_1_Conv2Dx_dilations_0"), val = tensor<int32, [2]>([1, 1])];
            tensor<int32, []> model_1_model_expanded_conv_4_squeeze_excite_Conv_1_Conv2Dx_groups_0 = const()[name = tensor<string, []>("model_1_model_expanded_conv_4_squeeze_excite_Conv_1_Conv2Dx_groups_0"), val = tensor<int32, []>(1)];
            tensor<int32, [4]> model_1_model_expanded_conv_4_squeeze_excite_Conv_1_Conv2Dx_pad_0 = const()[name = tensor<string, []>("model_1_model_expanded_conv_4_squeeze_excite_Conv_1_Conv2Dx_pad_0"), val = tensor<int32, [4]>([0, 0, 0, 0])];
            tensor<fp16, [120, 32, 1, 1]> transpose_48_to_fp16 = const()[name = tensor<string, []>("transpose_48_to_fp16"), val = tensor<fp16, [120, 32, 1, 1]>(BLOBFILE(path = tensor<string, []>("@model_path/weights/weight.bin"), offset = tensor<uint64, []>(63872)))];
            tensor<fp16, [120]> const_91_to_fp16 = const()[name = tensor<string, []>("const_91_to_fp16"), val = tensor<fp16, [120]>(BLOBFILE(path = tensor<string, []>("@model_path/weights/weight.bin"), offset = tensor<uint64, []>(71616)))];
            tensor<fp16, [1, 120, 1, 1]> model_1_model_tf___operators___add_30_AddV2_cast_fp16 = conv(bias = const_91_to_fp16, dilations = model_1_model_expanded_conv_4_squeeze_excite_Conv_1_Conv2Dx_dilations_0, groups = model_1_model_expanded_conv_4_squeeze_excite_Conv_1_Conv2Dx_groups_0, pad = model_1_model_expanded_conv_4_squeeze_excite_Conv_1_Conv2Dx_pad_0, pad_type = model_1_model_expanded_conv_4_squeeze_excite_Conv_1_Conv2Dx_pad_type_0, strides = model_1_model_expanded_conv_4_squeeze_excite_Conv_1_Conv2Dx_strides_0, weight = transpose_48_to_fp16, x = model_1_model_expanded_conv_4_squeeze_excite_Relu_Relu_cast_fp16)[name = tensor<string, []>("model_1_model_tf___operators___add_30_AddV2_cast_fp16")];
            tensor<fp16, [1, 120, 1, 1]> model_1_model_re_lu_11_Relu6_cast_fp16 = relu6(x = model_1_model_tf___operators___add_30_AddV2_cast_fp16)[name = tensor<string, []>("model_1_model_re_lu_11_Relu6_cast_fp16")];
            tensor<fp16, []> model_1_model_tf_math_multiply_29_Mul_y_to_fp16 = const()[name = tensor<string, []>("model_1_model_tf_math_multiply_29_Mul_y_to_fp16"), val = tensor<fp16, []>(0x1.554p-3)];
            tensor<fp16, [1, 120, 1, 1]> model_1_model_tf_math_multiply_29_Mul_cast_fp16 = mul(x = model_1_model_re_lu_11_Relu6_cast_fp16, y = model_1_model_tf_math_multiply_29_Mul_y_to_fp16)[name = tensor<string, []>("model_1_model_tf_math_multiply_29_Mul_cast_fp16")];
            tensor<fp16, [1, 120, 20, 32]> model_1_model_expanded_conv_4_squeeze_excite_Mul_mul_cast_fp16 = mul(x = model_1_model_re_lu_10_Relu_cast_fp16, y = model_1_model_tf_math_multiply_29_Mul_cast_fp16)[name = tensor<string, []>("model_1_model_expanded_conv_4_squeeze_excite_Mul_mul_cast_fp16")];
            tensor<string, []> model_1_model_expanded_conv_4_project_Conv2Dx_pad_type_0 = const()[name = tensor<string, []>("model_1_model_expanded_conv_4_project_Conv2Dx_pad_type_0"), val = tensor<string, []>("same")];
            tensor<int32, [2]> model_1_model_expanded_conv_4_project_Conv2Dx_strides_0 = const()[name = tensor<string, []>("model_1_model_expanded_conv_4_project_Conv2Dx_strides_0"), val = tensor<int32, [2]>([1, 1])];
            tensor<int32, [2]> model_1_model_expanded_conv_4_project_Conv2Dx_dilations_0 = const()[name = tensor<string, []>("model_1_model_expanded_conv_4_project_Conv2Dx_dilations_0"), val = tensor<int32, [2]>([1, 1])];
            tensor<int32, []> model_1_model_expanded_conv_4_project_Conv2Dx_groups_0 = const()[name = tensor<string, []>("model_1_model_expanded_conv_4_project_Conv2Dx_groups_0"), val = tensor<int32, []>(1)];
            tensor<int32, [4]> model_1_model_expanded_conv_4_project_Conv2Dx_pad_0 = const()[name = tensor<string, []>("model_1_model_expanded_conv_4_project_Conv2Dx_pad_0"), val = tensor<int32, [4]>([0, 0, 0, 0])];
            tensor<fp16, [40, 120, 1, 1]> const_126_to_fp16 = const()[name = tensor<string, []>("const_126_to_fp16"), val = tensor<fp16, [40, 120, 1, 1]>(BLOBFILE(path = tensor<string, []>("@model_path/weights/weight.bin"), offset = tensor<uint64, []>(71936)))];
            tensor<fp16, [40]> const_127_to_fp16 = const()[name = tensor<string, []>("const_127_to_fp16"), val = tensor<fp16, [40]>(BLOBFILE(path = tensor<string, []>("@model_path/weights/weight.bin"), offset = tensor<uint64, []>(81600)))];
            tensor<fp16, [1, 40, 20, 32]> model_1_model_expanded_conv_4_project_BatchNorm_FusedBatchNormV3_nchw_cast_fp16 = conv(bias = const_127_to_fp16, dilations = model_1_model_expanded_conv_4_project_Conv2Dx_dilations_0, groups = model_1_model_expanded_conv_4_project_Conv2Dx_groups_0, pad = model_1_model_expanded_conv_4_project_Conv2Dx_pad_0, pad_type = model_1_model_expanded_conv_4_project_Conv2Dx_pad_type_0, strides = model_1_model_expanded_conv_4_project_Conv2Dx_strides_0, weight = const_126_to_fp16, x = model_1_model_expanded_conv_4_squeeze_excite_Mul_mul_cast_fp16)[name = tensor<string, []>("model_1_model_expanded_conv_4_project_BatchNorm_FusedBatchNormV3_nchw_cast_fp16")];
            tensor<fp16, [1, 40, 20, 32]> model_1_model_expanded_conv_4_Add_add_cast_fp16 = add(x = model_1_model_expanded_conv_3_project_BatchNorm_FusedBatchNormV3_nchw_cast_fp16, y = model_1_model_expanded_conv_4_project_BatchNorm_FusedBatchNormV3_nchw_cast_fp16)[name = tensor<string, []>("model_1_model_expanded_conv_4_Add_add_cast_fp16")];
            tensor<string, []> model_1_model_expanded_conv_5_expand_Conv2Dx_pad_type_0 = const()[name = tensor<string, []>("model_1_model_expanded_conv_5_expand_Conv2Dx_pad_type_0"), val = tensor<string, []>("same")];
            tensor<int32, [2]> model_1_model_expanded_conv_5_expand_Conv2Dx_strides_0 = const()[name = tensor<string, []>("model_1_model_expanded_conv_5_expand_Conv2Dx_strides_0"), val = tensor<int32, [2]>([1, 1])];
            tensor<int32, [2]> model_1_model_expanded_conv_5_expand_Conv2Dx_dilations_0 = const()[name = tensor<string, []>("model_1_model_expanded_conv_5_expand_Conv2Dx_dilations_0"), val = tensor<int32, [2]>([1, 1])];
            tensor<int32, []> model_1_model_expanded_conv_5_expand_Conv2Dx_groups_0 = const()[name = tensor<string, []>("model_1_model_expanded_conv_5_expand_Conv2Dx_groups_0"), val = tensor<int32, []>(1)];
            tensor<int32, [4]> model_1_model_expanded_conv_5_expand_Conv2Dx_pad_0 = const()[name = tensor<string, []>("model_1_model_expanded_conv_5_expand_Conv2Dx_pad_0"), val = tensor<int32, [4]>([0, 0, 0, 0])];
            tensor<fp16, [120, 40, 1, 1]> const_128_to_fp16 = const()[name = tensor<string, []>("const_128_to_fp16"), val = tensor<fp16, [120, 40, 1, 1]>(BLOBFILE(path = tensor<string, []>("@model_path/weights/weight.bin"), offset = tensor<uint64, []>(81792)))];
            tensor<fp16, [120]> const_129_to_fp16 = const()[name = tensor<string, []>("const_129_to_fp16"), val = tensor<fp16, [120]>(BLOBFILE(path = tensor<string, []>("@model_path/weights/weight.bin"), offset = tensor<uint64, []>(91456)))];
            tensor<fp16, [1, 120, 20, 32]> model_1_model_expanded_conv_5_expand_BatchNorm_FusedBatchNormV3_nchw_cast_fp16 = conv(bias = const_129_to_fp16, dilations = model_1_model_expanded_conv_5_expand_Conv2Dx_dilations_0, groups = model_1_model_expanded_conv_5_expand_Conv2Dx_groups_0, pad = model_1_model_expanded_conv_5_expand_Conv2Dx_pad_0, pad_type = model_1_model_expanded_conv_5_expand_Conv2Dx_pad_type_0, strides = model_1_model_expanded_conv_5_expand_Conv2Dx_strides_0, weight = const_128_to_fp16, x = model_1_model_expanded_conv_4_Add_add_cast_fp16)[name = tensor<string, []>("model_1_model_expanded_conv_5_expand_BatchNorm_FusedBatchNormV3_nchw_cast_fp16")];
            tensor<fp16, [1, 120, 20, 32]> model_1_model_re_lu_12_Relu_cast_fp16 = relu(x = model_1_model_expanded_conv_5_expand_BatchNorm_FusedBatchNormV3_nchw_cast_fp16)[name = tensor<string, []>("model_1_model_re_lu_12_Relu_cast_fp16")];
            tensor<string, []> model_1_model_expanded_conv_5_depthwise_depthwisex_pad_type_0 = const()[name = tensor<string, []>("model_1_model_expanded_conv_5_depthwise_depthwisex_pad_type_0"), val = tensor<string, []>("same")];
            tensor<int32, [2]> model_1_model_expanded_conv_5_depthwise_depthwisex_strides_0 = const()[name = tensor<string, []>("model_1_model_expanded_conv_5_depthwise_depthwisex_strides_0"), val = tensor<int32, [2]>([1, 1])];
            tensor<int32, [2]> model_1_model_expanded_conv_5_depthwise_depthwisex_dilations_0 = const()[name = tensor<string, []>("model_1_model_expanded_conv_5_depthwise_depthwisex_dilations_0"), val = tensor<int32, [2]>([1, 1])];
            tensor<int32, []> model_1_model_expanded_conv_5_depthwise_depthwisex_groups_0 = const()[name = tensor<string, []>("model_1_model_expanded_conv_5_depthwise_depthwisex_groups_0"), val = tensor<int32, []>(120)];
            tensor<int32, [4]> model_1_model_expanded_conv_5_depthwise_depthwisex_pad_0 = const()[name = tensor<string, []>("model_1_model_expanded_conv_5_depthwise_depthwisex_pad_0"), val = tensor<int32, [4]>([0, 0, 0, 0])];
            tensor<fp16, [120, 1, 5, 5]> const_130_to_fp16 = const()[name = tensor<string, []>("const_130_to_fp16"), val = tensor<fp16, [120, 1, 5, 5]>(BLOBFILE(path = tensor<string, []>("@model_path/weights/weight.bin"), offset = tensor<uint64, []>(91776)))];
            tensor<fp16, [120]> const_131_to_fp16 = const()[name = tensor<string, []>("const_131_to_fp16"), val = tensor<fp16, [120]>(BLOBFILE(path = tensor<string, []>("@model_path/weights/weight.bin"), offset = tensor<uint64, []>(97856)))];
            tensor<fp16, [1, 120, 20, 32]> model_1_model_expanded_conv_5_depthwise_BatchNorm_FusedBatchNormV3_nchw_cast_fp16 = conv(bias = const_131_to_fp16, dilations = model_1_model_expanded_conv_5_depthwise_depthwisex_dilations_0, groups = model_1_model_expanded_conv_5_depthwise_depthwisex_groups_0, pad = model_1_model_expanded_conv_5_depthwise_depthwisex_pad_0, pad_type = model_1_model_expanded_conv_5_depthwise_depthwisex_pad_type_0, strides = model_1_model_expanded_conv_5_depthwise_depthwisex_strides_0, weight = const_130_to_fp16, x = model_1_model_re_lu_12_Relu_cast_fp16)[name = tensor<string, []>("model_1_model_expanded_conv_5_depthwise_BatchNorm_FusedBatchNormV3_nchw_cast_fp16")];
            tensor<fp16, [1, 120, 20, 32]> model_1_model_re_lu_13_Relu_cast_fp16 = relu(x = model_1_model_expanded_conv_5_depthwise_BatchNorm_FusedBatchNormV3_nchw_cast_fp16)[name = tensor<string, []>("model_1_model_re_lu_13_Relu_cast_fp16")];
            tensor<bool, []> model_1_model_expanded_conv_5_squeeze_excite_AvgPool_Mean_keep_dims_0 = const()[name = tensor<string, []>("model_1_model_expanded_conv_5_squeeze_excite_AvgPool_Mean_keep_dims_0"), val = tensor<bool, []>(true)];
            tensor<int32, [2]> const_12 = const()[name = tensor<string, []>("const_12"), val = tensor<int32, [2]>([2, 3])];
            tensor<fp16, [1, 120, 1, 1]> model_1_model_expanded_conv_5_squeeze_excite_AvgPool_Mean_cast_fp16 = reduce_mean(axes = const_12, keep_dims = model_1_model_expanded_conv_5_squeeze_excite_AvgPool_Mean_keep_dims_0, x = model_1_model_re_lu_13_Relu_cast_fp16)[name = tensor<string, []>("model_1_model_expanded_conv_5_squeeze_excite_AvgPool_Mean_cast_fp16")];
            tensor<string, []> model_1_model_expanded_conv_5_squeeze_excite_Conv_Conv2Dx_pad_type_0 = const()[name = tensor<string, []>("model_1_model_expanded_conv_5_squeeze_excite_Conv_Conv2Dx_pad_type_0"), val = tensor<string, []>("same")];
            tensor<int32, [2]> model_1_model_expanded_conv_5_squeeze_excite_Conv_Conv2Dx_strides_0 = const()[name = tensor<string, []>("model_1_model_expanded_conv_5_squeeze_excite_Conv_Conv2Dx_strides_0"), val = tensor<int32, [2]>([1, 1])];
            tensor<int32, [2]> model_1_model_expanded_conv_5_squeeze_excite_Conv_Conv2Dx_dilations_0 = const()[name = tensor<string, []>("model_1_model_expanded_conv_5_squeeze_excite_Conv_Conv2Dx_dilations_0"), val = tensor<int32, [2]>([1, 1])];
            tensor<int32, []> model_1_model_expanded_conv_5_squeeze_excite_Conv_Conv2Dx_groups_0 = const()[name = tensor<string, []>("model_1_model_expanded_conv_5_squeeze_excite_Conv_Conv2Dx_groups_0"), val = tensor<int32, []>(1)];
            tensor<int32, [4]> model_1_model_expanded_conv_5_squeeze_excite_Conv_Conv2Dx_pad_0 = const()[name = tensor<string, []>("model_1_model_expanded_conv_5_squeeze_excite_Conv_Conv2Dx_pad_0"), val = tensor<int32, [4]>([0, 0, 0, 0])];
            tensor<fp16, [32, 120, 1, 1]> transpose_59_to_fp16 = const()[name = tensor<string, []>("transpose_59_to_fp16"), val = tensor<fp16, [32, 120, 1, 1]>(BLOBFILE(path = tensor<string, []>("@model_path/weights/weight.bin"), offset = tensor<uint64, []>(98176)))];
            tensor<fp16, [32]> const_57_to_fp16 = const()[name = tensor<string, []>("const_57_to_fp16"), val = tensor<fp16, [32]>(BLOBFILE(path = tensor<string, []>("@model_path/weights/weight.bin"), offset = tensor<uint64, []>(105920)))];
            tensor<fp16, [1, 32, 1, 1]> model_1_model_expanded_conv_5_squeeze_excite_Conv_BiasAdd_cast_fp16 = conv(bias = const_57_to_fp16, dilations = model_1_model_expanded_conv_5_squeeze_excite_Conv_Conv2Dx_dilations_0, groups = model_1_model_expanded_conv_5_squeeze_excite_Conv_Conv2Dx_groups_0, pad = model_1_model_expanded_conv_5_squeeze_excite_Conv_Conv2Dx_pad_0, pad_type = model_1_model_expanded_conv_5_squeeze_excite_Conv_Conv2Dx_pad_type_0, strides = model_1_model_expanded_conv_5_squeeze_excite_Conv_Conv2Dx_strides_0, weight = transpose_59_to_fp16, x = model_1_model_expanded_conv_5_squeeze_excite_AvgPool_Mean_cast_fp16)[name = tensor<string, []>("model_1_model_expanded_conv_5_squeeze_excite_Conv_BiasAdd_cast_fp16")];
            tensor<fp16, [1, 32, 1, 1]> model_1_model_expanded_conv_5_squeeze_excite_Relu_Relu_cast_fp16 = relu(x = model_1_model_expanded_conv_5_squeeze_excite_Conv_BiasAdd_cast_fp16)[name = tensor<string, []>("model_1_model_expanded_conv_5_squeeze_excite_Relu_Relu_cast_fp16")];
            tensor<string, []> model_1_model_expanded_conv_5_squeeze_excite_Conv_1_Conv2Dx_pad_type_0 = const()[name = tensor<string, []>("model_1_model_expanded_conv_5_squeeze_excite_Conv_1_Conv2Dx_pad_type_0"), val = tensor<string, []>("same")];
            tensor<int32, [2]> model_1_model_expanded_conv_5_squeeze_excite_Conv_1_Conv2Dx_strides_0 = const()[name = tensor<string, []>("model_1_model_expanded_conv_5_squeeze_excite_Conv_1_Conv2Dx_strides_0"), val = tensor<int32, [2]>([1, 1])];
            tensor<int32, [2]> model_1_model_expanded_conv_5_squeeze_excite_Conv_1_Conv2Dx_dilations_0 = const()[name = tensor<string, []>("model_1_model_expanded_conv_5_squeeze_excite_Conv_1_Conv2Dx_dilations_0"), val = tensor<int32, [2]>([1, 1])];
            tensor<int32, []> model_1_model_expanded_conv_5_squeeze_excite_Conv_1_Conv2Dx_groups_0 = const()[name = tensor<string, []>("model_1_model_expanded_conv_5_squeeze_excite_Conv_1_Conv2Dx_groups_0"), val = tensor<int32, []>(1)];
            tensor<int32, [4]> model_1_model_expanded_conv_5_squeeze_excite_Conv_1_Conv2Dx_pad_0 = const()[name = tensor<string, []>("model_1_model_expanded_conv_5_squeeze_excite_Conv_1_Conv2Dx_pad_0"), val = tensor<int32, [4]>([0, 0, 0, 0])];
            tensor<fp16, [120, 32, 1, 1]> transpose_61_to_fp16 = const()[name = tensor<string, []>("transpose_61_to_fp16"), val = tensor<fp16, [120, 32, 1, 1]>(BLOBFILE(path = tensor<string, []>("@model_path/weights/weight.bin"), offset = tensor<uint64, []>(106048)))];
            tensor<fp16, [120]> const_92_to_fp16 = const()[name = tensor<string, []>("const_92_to_fp16"), val = tensor<fp16, [120]>(BLOBFILE(path = tensor<string, []>("@model_path/weights/weight.bin"), offset = tensor<uint64, []>(113792)))];
            tensor<fp16, [1, 120, 1, 1]> model_1_model_tf___operators___add_31_AddV2_cast_fp16 = conv(bias = const_92_to_fp16, dilations = model_1_model_expanded_conv_5_squeeze_excite_Conv_1_Conv2Dx_dilations_0, groups = model_1_model_expanded_conv_5_squeeze_excite_Conv_1_Conv2Dx_groups_0, pad = model_1_model_expanded_conv_5_squeeze_excite_Conv_1_Conv2Dx_pad_0, pad_type = model_1_model_expanded_conv_5_squeeze_excite_Conv_1_Conv2Dx_pad_type_0, strides = model_1_model_expanded_conv_5_squeeze_excite_Conv_1_Conv2Dx_strides_0, weight = transpose_61_to_fp16, x = model_1_model_expanded_conv_5_squeeze_excite_Relu_Relu_cast_fp16)[name = tensor<string, []>("model_1_model_tf___operators___add_31_AddV2_cast_fp16")];
            tensor<fp16, [1, 120, 1, 1]> model_1_model_re_lu_14_Relu6_cast_fp16 = relu6(x = model_1_model_tf___operators___add_31_AddV2_cast_fp16)[name = tensor<string, []>("model_1_model_re_lu_14_Relu6_cast_fp16")];
            tensor<fp16, []> model_1_model_tf_math_multiply_30_Mul_y_to_fp16 = const()[name = tensor<string, []>("model_1_model_tf_math_multiply_30_Mul_y_to_fp16"), val = tensor<fp16, []>(0x1.554p-3)];
            tensor<fp16, [1, 120, 1, 1]> model_1_model_tf_math_multiply_30_Mul_cast_fp16 = mul(x = model_1_model_re_lu_14_Relu6_cast_fp16, y = model_1_model_tf_math_multiply_30_Mul_y_to_fp16)[name = tensor<string, []>("model_1_model_tf_math_multiply_30_Mul_cast_fp16")];
            tensor<fp16, [1, 120, 20, 32]> model_1_model_expanded_conv_5_squeeze_excite_Mul_mul_cast_fp16 = mul(x = model_1_model_re_lu_13_Relu_cast_fp16, y = model_1_model_tf_math_multiply_30_Mul_cast_fp16)[name = tensor<string, []>("model_1_model_expanded_conv_5_squeeze_excite_Mul_mul_cast_fp16")];
            tensor<string, []> model_1_model_expanded_conv_5_project_Conv2Dx_pad_type_0 = const()[name = tensor<string, []>("model_1_model_expanded_conv_5_project_Conv2Dx_pad_type_0"), val = tensor<string, []>("same")];
            tensor<int32, [2]> model_1_model_expanded_conv_5_project_Conv2Dx_strides_0 = const()[name = tensor<string, []>("model_1_model_expanded_conv_5_project_Conv2Dx_strides_0"), val = tensor<int32, [2]>([1, 1])];
            tensor<int32, [2]> model_1_model_expanded_conv_5_project_Conv2Dx_dilations_0 = const()[name = tensor<string, []>("model_1_model_expanded_conv_5_project_Conv2Dx_dilations_0"), val = tensor<int32, [2]>([1, 1])];
            tensor<int32, []> model_1_model_expanded_conv_5_project_Conv2Dx_groups_0 = const()[name = tensor<string, []>("model_1_model_expanded_conv_5_project_Conv2Dx_groups_0"), val = tensor<int32, []>(1)];
            tensor<int32, [4]> model_1_model_expanded_conv_5_project_Conv2Dx_pad_0 = const()[name = tensor<string, []>("model_1_model_expanded_conv_5_project_Conv2Dx_pad_0"), val = tensor<int32, [4]>([0, 0, 0, 0])];
            tensor<fp16, [40, 120, 1, 1]> const_132_to_fp16 = const()[name = tensor<string, []>("const_132_to_fp16"), val = tensor<fp16, [40, 120, 1, 1]>(BLOBFILE(path = tensor<string, []>("@model_path/weights/weight.bin"), offset = tensor<uint64, []>(114112)))];
            tensor<fp16, [40]> const_133_to_fp16 = const()[name = tensor<string, []>("const_133_to_fp16"), val = tensor<fp16, [40]>(BLOBFILE(path = tensor<string, []>("@model_path/weights/weight.bin"), offset = tensor<uint64, []>(123776)))];
            tensor<fp16, [1, 40, 20, 32]> model_1_model_expanded_conv_5_project_BatchNorm_FusedBatchNormV3_nchw_cast_fp16 = conv(bias = const_133_to_fp16, dilations = model_1_model_expanded_conv_5_project_Conv2Dx_dilations_0, groups = model_1_model_expanded_conv_5_project_Conv2Dx_groups_0, pad = model_1_model_expanded_conv_5_project_Conv2Dx_pad_0, pad_type = model_1_model_expanded_conv_5_project_Conv2Dx_pad_type_0, strides = model_1_model_expanded_conv_5_project_Conv2Dx_strides_0, weight = const_132_to_fp16, x = model_1_model_expanded_conv_5_squeeze_excite_Mul_mul_cast_fp16)[name = tensor<string, []>("model_1_model_expanded_conv_5_project_BatchNorm_FusedBatchNormV3_nchw_cast_fp16")];
            tensor<fp16, [1, 40, 20, 32]> model_1_model_expanded_conv_5_Add_add_cast_fp16 = add(x = model_1_model_expanded_conv_4_Add_add_cast_fp16, y = model_1_model_expanded_conv_5_project_BatchNorm_FusedBatchNormV3_nchw_cast_fp16)[name = tensor<string, []>("model_1_model_expanded_conv_5_Add_add_cast_fp16")];
            tensor<string, []> model_1_model_expanded_conv_6_expand_Conv2Dx_pad_type_0 = const()[name = tensor<string, []>("model_1_model_expanded_conv_6_expand_Conv2Dx_pad_type_0"), val = tensor<string, []>("same")];
            tensor<int32, [2]> model_1_model_expanded_conv_6_expand_Conv2Dx_strides_0 = const()[name = tensor<string, []>("model_1_model_expanded_conv_6_expand_Conv2Dx_strides_0"), val = tensor<int32, [2]>([1, 1])];
            tensor<int32, [2]> model_1_model_expanded_conv_6_expand_Conv2Dx_dilations_0 = const()[name = tensor<string, []>("model_1_model_expanded_conv_6_expand_Conv2Dx_dilations_0"), val = tensor<int32, [2]>([1, 1])];
            tensor<int32, []> model_1_model_expanded_conv_6_expand_Conv2Dx_groups_0 = const()[name = tensor<string, []>("model_1_model_expanded_conv_6_expand_Conv2Dx_groups_0"), val = tensor<int32, []>(1)];
            tensor<int32, [4]> model_1_model_expanded_conv_6_expand_Conv2Dx_pad_0 = const()[name = tensor<string, []>("model_1_model_expanded_conv_6_expand_Conv2Dx_pad_0"), val = tensor<int32, [4]>([0, 0, 0, 0])];
            tensor<fp16, [240, 40, 1, 1]> const_134_to_fp16 = const()[name = tensor<string, []>("const_134_to_fp16"), val = tensor<fp16, [240, 40, 1, 1]>(BLOBFILE(path = tensor<string, []>("@model_path/weights/weight.bin"), offset = tensor<uint64, []>(123968)))];
            tensor<fp16, [240]> const_135_to_fp16 = const()[name = tensor<string, []>("const_135_to_fp16"), val = tensor<fp16, [240]>(BLOBFILE(path = tensor<string, []>("@model_path/weights/weight.bin"), offset = tensor<uint64, []>(143232)))];
            tensor<fp16, [1, 240, 20, 32]> model_1_model_expanded_conv_6_expand_BatchNorm_FusedBatchNormV3_nchw_cast_fp16 = conv(bias = const_135_to_fp16, dilations = model_1_model_expanded_conv_6_expand_Conv2Dx_dilations_0, groups = model_1_model_expanded_conv_6_expand_Conv2Dx_groups_0, pad = model_1_model_expanded_conv_6_expand_Conv2Dx_pad_0, pad_type = model_1_model_expanded_conv_6_expand_Conv2Dx_pad_type_0, strides = model_1_model_expanded_conv_6_expand_Conv2Dx_strides_0, weight = const_134_to_fp16, x = model_1_model_expanded_conv_5_Add_add_cast_fp16)[name = tensor<string, []>("model_1_model_expanded_conv_6_expand_BatchNorm_FusedBatchNormV3_nchw_cast_fp16")];
            tensor<fp16, []> model_1_model_tf___operators___add_32_y_to_fp16 = const()[name = tensor<string, []>("model_1_model_tf___operators___add_32_y_to_fp16"), val = tensor<fp16, []>(0x1.8p+1)];
            tensor<fp16, [1, 240, 20, 32]> model_1_model_tf___operators___add_32_AddV2_cast_fp16 = add(x = model_1_model_expanded_conv_6_expand_BatchNorm_FusedBatchNormV3_nchw_cast_fp16, y = model_1_model_tf___operators___add_32_y_to_fp16)[name = tensor<string, []>("model_1_model_tf___operators___add_32_AddV2_cast_fp16")];
            tensor<fp16, [1, 240, 20, 32]> model_1_model_re_lu_15_Relu6_cast_fp16 = relu6(x = model_1_model_tf___operators___add_32_AddV2_cast_fp16)[name = tensor<string, []>("model_1_model_re_lu_15_Relu6_cast_fp16")];
            tensor<fp16, []> model_1_model_tf_math_multiply_31_Mul_y_to_fp16 = const()[name = tensor<string, []>("model_1_model_tf_math_multiply_31_Mul_y_to_fp16"), val = tensor<fp16, []>(0x1.554p-3)];
            tensor<fp16, [1, 240, 20, 32]> model_1_model_tf_math_multiply_31_Mul_cast_fp16 = mul(x = model_1_model_re_lu_15_Relu6_cast_fp16, y = model_1_model_tf_math_multiply_31_Mul_y_to_fp16)[name = tensor<string, []>("model_1_model_tf_math_multiply_31_Mul_cast_fp16")];
            tensor<fp16, [1, 240, 20, 32]> model_1_model_multiply_1_mul_cast_fp16 = mul(x = model_1_model_expanded_conv_6_expand_BatchNorm_FusedBatchNormV3_nchw_cast_fp16, y = model_1_model_tf_math_multiply_31_Mul_cast_fp16)[name = tensor<string, []>("model_1_model_multiply_1_mul_cast_fp16")];
            tensor<string, []> pad_2_mode_0 = const()[name = tensor<string, []>("pad_2_mode_0"), val = tensor<string, []>("constant")];
            tensor<int32, [8]> pad_6_pad_0 = const()[name = tensor<string, []>("pad_6_pad_0"), val = tensor<int32, [8]>([0, 0, 0, 0, 0, 1, 0, 1])];
            tensor<fp16, []> const_2_to_fp16 = const()[name = tensor<string, []>("const_2_to_fp16"), val = tensor<fp16, []>(0x0p+0)];
            tensor<fp16, [1, 240, 21, 33]> pad_6_cast_fp16 = pad(constant_val = const_2_to_fp16, mode = pad_2_mode_0, pad = pad_6_pad_0, x = model_1_model_multiply_1_mul_cast_fp16)[name = tensor<string, []>("pad_6_cast_fp16")];
            tensor<string, []> model_1_model_expanded_conv_6_depthwise_depthwisex_pad_type_0 = const()[name = tensor<string, []>("model_1_model_expanded_conv_6_depthwise_depthwisex_pad_type_0"), val = tensor<string, []>("valid")];
            tensor<int32, [2]> model_1_model_expanded_conv_6_depthwise_depthwisex_strides_0 = const()[name = tensor<string, []>("model_1_model_expanded_conv_6_depthwise_depthwisex_strides_0"), val = tensor<int32, [2]>([2, 2])];
            tensor<int32, [2]> model_1_model_expanded_conv_6_depthwise_depthwisex_dilations_0 = const()[name = tensor<string, []>("model_1_model_expanded_conv_6_depthwise_depthwisex_dilations_0"), val = tensor<int32, [2]>([1, 1])];
            tensor<int32, []> model_1_model_expanded_conv_6_depthwise_depthwisex_groups_0 = const()[name = tensor<string, []>("model_1_model_expanded_conv_6_depthwise_depthwisex_groups_0"), val = tensor<int32, []>(240)];
            tensor<int32, [4]> model_1_model_expanded_conv_6_depthwise_depthwisex_pad_0 = const()[name = tensor<string, []>("model_1_model_expanded_conv_6_depthwise_depthwisex_pad_0"), val = tensor<int32, [4]>([0, 0, 0, 0])];
            tensor<fp16, [240, 1, 3, 3]> const_136_to_fp16 = const()[name = tensor<string, []>("const_136_to_fp16"), val = tensor<fp16, [240, 1, 3, 3]>(BLOBFILE(path = tensor<string, []>("@model_path/weights/weight.bin"), offset = tensor<uint64, []>(143808)))];
            tensor<fp16, [240]> const_137_to_fp16 = const()[name = tensor<string, []>("const_137_to_fp16"), val = tensor<fp16, [240]>(BLOBFILE(path = tensor<string, []>("@model_path/weights/weight.bin"), offset = tensor<uint64, []>(148224)))];
            tensor<fp16, [1, 240, 10, 16]> model_1_model_expanded_conv_6_depthwise_BatchNorm_FusedBatchNormV3_nchw_cast_fp16 = conv(bias = const_137_to_fp16, dilations = model_1_model_expanded_conv_6_depthwise_depthwisex_dilations_0, groups = model_1_model_expanded_conv_6_depthwise_depthwisex_groups_0, pad = model_1_model_expanded_conv_6_depthwise_depthwisex_pad_0, pad_type = model_1_model_expanded_conv_6_depthwise_depthwisex_pad_type_0, strides = model_1_model_expanded_conv_6_depthwise_depthwisex_strides_0, weight = const_136_to_fp16, x = pad_6_cast_fp16)[name = tensor<string, []>("model_1_model_expanded_conv_6_depthwise_BatchNorm_FusedBatchNormV3_nchw_cast_fp16")];
            tensor<fp16, []> model_1_model_tf___operators___add_33_y_to_fp16 = const()[name = tensor<string, []>("model_1_model_tf___operators___add_33_y_to_fp16"), val = tensor<fp16, []>(0x1.8p+1)];
            tensor<fp16, [1, 240, 10, 16]> model_1_model_tf___operators___add_33_AddV2_cast_fp16 = add(x = model_1_model_expanded_conv_6_depthwise_BatchNorm_FusedBatchNormV3_nchw_cast_fp16, y = model_1_model_tf___operators___add_33_y_to_fp16)[name = tensor<string, []>("model_1_model_tf___operators___add_33_AddV2_cast_fp16")];
            tensor<fp16, [1, 240, 10, 16]> model_1_model_re_lu_16_Relu6_cast_fp16 = relu6(x = model_1_model_tf___operators___add_33_AddV2_cast_fp16)[name = tensor<string, []>("model_1_model_re_lu_16_Relu6_cast_fp16")];
            tensor<fp16, []> model_1_model_tf_math_multiply_32_Mul_y_to_fp16 = const()[name = tensor<string, []>("model_1_model_tf_math_multiply_32_Mul_y_to_fp16"), val = tensor<fp16, []>(0x1.554p-3)];
            tensor<fp16, [1, 240, 10, 16]> model_1_model_tf_math_multiply_32_Mul_cast_fp16 = mul(x = model_1_model_re_lu_16_Relu6_cast_fp16, y = model_1_model_tf_math_multiply_32_Mul_y_to_fp16)[name = tensor<string, []>("model_1_model_tf_math_multiply_32_Mul_cast_fp16")];
            tensor<fp16, [1, 240, 10, 16]> model_1_model_multiply_2_mul_cast_fp16 = mul(x = model_1_model_expanded_conv_6_depthwise_BatchNorm_FusedBatchNormV3_nchw_cast_fp16, y = model_1_model_tf_math_multiply_32_Mul_cast_fp16)[name = tensor<string, []>("model_1_model_multiply_2_mul_cast_fp16")];
            tensor<string, []> model_1_model_expanded_conv_6_project_Conv2Dx_pad_type_0 = const()[name = tensor<string, []>("model_1_model_expanded_conv_6_project_Conv2Dx_pad_type_0"), val = tensor<string, []>("same")];
            tensor<int32, [2]> model_1_model_expanded_conv_6_project_Conv2Dx_strides_0 = const()[name = tensor<string, []>("model_1_model_expanded_conv_6_project_Conv2Dx_strides_0"), val = tensor<int32, [2]>([1, 1])];
            tensor<int32, [2]> model_1_model_expanded_conv_6_project_Conv2Dx_dilations_0 = const()[name = tensor<string, []>("model_1_model_expanded_conv_6_project_Conv2Dx_dilations_0"), val = tensor<int32, [2]>([1, 1])];
            tensor<int32, []> model_1_model_expanded_conv_6_project_Conv2Dx_groups_0 = const()[name = tensor<string, []>("model_1_model_expanded_conv_6_project_Conv2Dx_groups_0"), val = tensor<int32, []>(1)];
            tensor<int32, [4]> model_1_model_expanded_conv_6_project_Conv2Dx_pad_0 = const()[name = tensor<string, []>("model_1_model_expanded_conv_6_project_Conv2Dx_pad_0"), val = tensor<int32, [4]>([0, 0, 0, 0])];
            tensor<fp16, [80, 240, 1, 1]> const_138_to_fp16 = const()[name = tensor<string, []>("const_138_to_fp16"), val = tensor<fp16, [80, 240, 1, 1]>(BLOBFILE(path = tensor<string, []>("@model_path/weights/weight.bin"), offset = tensor<uint64, []>(148800)))];
            tensor<fp16, [80]> const_139_to_fp16 = const()[name = tensor<string, []>("const_139_to_fp16"), val = tensor<fp16, [80]>(BLOBFILE(path = tensor<string, []>("@model_path/weights/weight.bin"), offset = tensor<uint64, []>(187264)))];
            tensor<fp16, [1, 80, 10, 16]> model_1_model_expanded_conv_6_project_BatchNorm_FusedBatchNormV3_nchw_cast_fp16 = conv(bias = const_139_to_fp16, dilations = model_1_model_expanded_conv_6_project_Conv2Dx_dilations_0, groups = model_1_model_expanded_conv_6_project_Conv2Dx_groups_0, pad = model_1_model_expanded_conv_6_project_Conv2Dx_pad_0, pad_type = model_1_model_expanded_conv_6_project_Conv2Dx_pad_type_0, strides = model_1_model_expanded_conv_6_project_Conv2Dx_strides_0, weight = const_138_to_fp16, x = model_1_model_multiply_2_mul_cast_fp16)[name = tensor<string, []>("model_1_model_expanded_conv_6_project_BatchNorm_FusedBatchNormV3_nchw_cast_fp16")];
            tensor<string, []> model_1_model_expanded_conv_7_expand_Conv2Dx_pad_type_0 = const()[name = tensor<string, []>("model_1_model_expanded_conv_7_expand_Conv2Dx_pad_type_0"), val = tensor<string, []>("same")];
            tensor<int32, [2]> model_1_model_expanded_conv_7_expand_Conv2Dx_strides_0 = const()[name = tensor<string, []>("model_1_model_expanded_conv_7_expand_Conv2Dx_strides_0"), val = tensor<int32, [2]>([1, 1])];
            tensor<int32, [2]> model_1_model_expanded_conv_7_expand_Conv2Dx_dilations_0 = const()[name = tensor<string, []>("model_1_model_expanded_conv_7_expand_Conv2Dx_dilations_0"), val = tensor<int32, [2]>([1, 1])];
            tensor<int32, []> model_1_model_expanded_conv_7_expand_Conv2Dx_groups_0 = const()[name = tensor<string, []>("model_1_model_expanded_conv_7_expand_Conv2Dx_groups_0"), val = tensor<int32, []>(1)];
            tensor<int32, [4]> model_1_model_expanded_conv_7_expand_Conv2Dx_pad_0 = const()[name = tensor<string, []>("model_1_model_expanded_conv_7_expand_Conv2Dx_pad_0"), val = tensor<int32, [4]>([0, 0, 0, 0])];
            tensor<fp16, [200, 80, 1, 1]> const_140_to_fp16 = const()[name = tensor<string, []>("const_140_to_fp16"), val = tensor<fp16, [200, 80, 1, 1]>(BLOBFILE(path = tensor<string, []>("@model_path/weights/weight.bin"), offset = tensor<uint64, []>(187520)))];
            tensor<fp16, [200]> const_141_to_fp16 = const()[name = tensor<string, []>("const_141_to_fp16"), val = tensor<fp16, [200]>(BLOBFILE(path = tensor<string, []>("@model_path/weights/weight.bin"), offset = tensor<uint64, []>(219584)))];
            tensor<fp16, [1, 200, 10, 16]> model_1_model_expanded_conv_7_expand_BatchNorm_FusedBatchNormV3_nchw_cast_fp16 = conv(bias = const_141_to_fp16, dilations = model_1_model_expanded_conv_7_expand_Conv2Dx_dilations_0, groups = model_1_model_expanded_conv_7_expand_Conv2Dx_groups_0, pad = model_1_model_expanded_conv_7_expand_Conv2Dx_pad_0, pad_type = model_1_model_expanded_conv_7_expand_Conv2Dx_pad_type_0, strides = model_1_model_expanded_conv_7_expand_Conv2Dx_strides_0, weight = const_140_to_fp16, x = model_1_model_expanded_conv_6_project_BatchNorm_FusedBatchNormV3_nchw_cast_fp16)[name = tensor<string, []>("model_1_model_expanded_conv_7_expand_BatchNorm_FusedBatchNormV3_nchw_cast_fp16")];
            tensor<fp16, []> model_1_model_tf___operators___add_34_y_to_fp16 = const()[name = tensor<string, []>("model_1_model_tf___operators___add_34_y_to_fp16"), val = tensor<fp16, []>(0x1.8p+1)];
            tensor<fp16, [1, 200, 10, 16]> model_1_model_tf___operators___add_34_AddV2_cast_fp16 = add(x = model_1_model_expanded_conv_7_expand_BatchNorm_FusedBatchNormV3_nchw_cast_fp16, y = model_1_model_tf___operators___add_34_y_to_fp16)[name = tensor<string, []>("model_1_model_tf___operators___add_34_AddV2_cast_fp16")];
            tensor<fp16, [1, 200, 10, 16]> model_1_model_re_lu_17_Relu6_cast_fp16 = relu6(x = model_1_model_tf___operators___add_34_AddV2_cast_fp16)[name = tensor<string, []>("model_1_model_re_lu_17_Relu6_cast_fp16")];
            tensor<fp16, []> model_1_model_tf_math_multiply_33_Mul_y_to_fp16 = const()[name = tensor<string, []>("model_1_model_tf_math_multiply_33_Mul_y_to_fp16"), val = tensor<fp16, []>(0x1.554p-3)];
            tensor<fp16, [1, 200, 10, 16]> model_1_model_tf_math_multiply_33_Mul_cast_fp16 = mul(x = model_1_model_re_lu_17_Relu6_cast_fp16, y = model_1_model_tf_math_multiply_33_Mul_y_to_fp16)[name = tensor<string, []>("model_1_model_tf_math_multiply_33_Mul_cast_fp16")];
            tensor<fp16, [1, 200, 10, 16]> model_1_model_multiply_3_mul_cast_fp16 = mul(x = model_1_model_expanded_conv_7_expand_BatchNorm_FusedBatchNormV3_nchw_cast_fp16, y = model_1_model_tf_math_multiply_33_Mul_cast_fp16)[name = tensor<string, []>("model_1_model_multiply_3_mul_cast_fp16")];
            tensor<string, []> model_1_model_expanded_conv_7_depthwise_depthwisex_pad_type_0 = const()[name = tensor<string, []>("model_1_model_expanded_conv_7_depthwise_depthwisex_pad_type_0"), val = tensor<string, []>("same")];
            tensor<int32, [2]> model_1_model_expanded_conv_7_depthwise_depthwisex_strides_0 = const()[name = tensor<string, []>("model_1_model_expanded_conv_7_depthwise_depthwisex_strides_0"), val = tensor<int32, [2]>([1, 1])];
            tensor<int32, [2]> model_1_model_expanded_conv_7_depthwise_depthwisex_dilations_0 = const()[name = tensor<string, []>("model_1_model_expanded_conv_7_depthwise_depthwisex_dilations_0"), val = tensor<int32, [2]>([1, 1])];
            tensor<int32, []> model_1_model_expanded_conv_7_depthwise_depthwisex_groups_0 = const()[name = tensor<string, []>("model_1_model_expanded_conv_7_depthwise_depthwisex_groups_0"), val = tensor<int32, []>(200)];
            tensor<int32, [4]> model_1_model_expanded_conv_7_depthwise_depthwisex_pad_0 = const()[name = tensor<string, []>("model_1_model_expanded_conv_7_depthwise_depthwisex_pad_0"), val = tensor<int32, [4]>([0, 0, 0, 0])];
            tensor<fp16, [200, 1, 3, 3]> const_142_to_fp16 = const()[name = tensor<string, []>("const_142_to_fp16"), val = tensor<fp16, [200, 1, 3, 3]>(BLOBFILE(path = tensor<string, []>("@model_path/weights/weight.bin"), offset = tensor<uint64, []>(220096)))];
            tensor<fp16, [200]> const_143_to_fp16 = const()[name = tensor<string, []>("const_143_to_fp16"), val = tensor<fp16, [200]>(BLOBFILE(path = tensor<string, []>("@model_path/weights/weight.bin"), offset = tensor<uint64, []>(223808)))];
            tensor<fp16, [1, 200, 10, 16]> model_1_model_expanded_conv_7_depthwise_BatchNorm_FusedBatchNormV3_nchw_cast_fp16 = conv(bias = const_143_to_fp16, dilations = model_1_model_expanded_conv_7_depthwise_depthwisex_dilations_0, groups = model_1_model_expanded_conv_7_depthwise_depthwisex_groups_0, pad = model_1_model_expanded_conv_7_depthwise_depthwisex_pad_0, pad_type = model_1_model_expanded_conv_7_depthwise_depthwisex_pad_type_0, strides = model_1_model_expanded_conv_7_depthwise_depthwisex_strides_0, weight = const_142_to_fp16, x = model_1_model_multiply_3_mul_cast_fp16)[name = tensor<string, []>("model_1_model_expanded_conv_7_depthwise_BatchNorm_FusedBatchNormV3_nchw_cast_fp16")];
            tensor<fp16, []> model_1_model_tf___operators___add_35_y_to_fp16 = const()[name = tensor<string, []>("model_1_model_tf___operators___add_35_y_to_fp16"), val = tensor<fp16, []>(0x1.8p+1)];
            tensor<fp16, [1, 200, 10, 16]> model_1_model_tf___operators___add_35_AddV2_cast_fp16 = add(x = model_1_model_expanded_conv_7_depthwise_BatchNorm_FusedBatchNormV3_nchw_cast_fp16, y = model_1_model_tf___operators___add_35_y_to_fp16)[name = tensor<string, []>("model_1_model_tf___operators___add_35_AddV2_cast_fp16")];
            tensor<fp16, [1, 200, 10, 16]> model_1_model_re_lu_18_Relu6_cast_fp16 = relu6(x = model_1_model_tf___operators___add_35_AddV2_cast_fp16)[name = tensor<string, []>("model_1_model_re_lu_18_Relu6_cast_fp16")];
            tensor<fp16, []> model_1_model_tf_math_multiply_34_Mul_y_to_fp16 = const()[name = tensor<string, []>("model_1_model_tf_math_multiply_34_Mul_y_to_fp16"), val = tensor<fp16, []>(0x1.554p-3)];
            tensor<fp16, [1, 200, 10, 16]> model_1_model_tf_math_multiply_34_Mul_cast_fp16 = mul(x = model_1_model_re_lu_18_Relu6_cast_fp16, y = model_1_model_tf_math_multiply_34_Mul_y_to_fp16)[name = tensor<string, []>("model_1_model_tf_math_multiply_34_Mul_cast_fp16")];
            tensor<fp16, [1, 200, 10, 16]> model_1_model_multiply_4_mul_cast_fp16 = mul(x = model_1_model_expanded_conv_7_depthwise_BatchNorm_FusedBatchNormV3_nchw_cast_fp16, y = model_1_model_tf_math_multiply_34_Mul_cast_fp16)[name = tensor<string, []>("model_1_model_multiply_4_mul_cast_fp16")];
            tensor<string, []> model_1_model_expanded_conv_7_project_Conv2Dx_pad_type_0 = const()[name = tensor<string, []>("model_1_model_expanded_conv_7_project_Conv2Dx_pad_type_0"), val = tensor<string, []>("same")];
            tensor<int32, [2]> model_1_model_expanded_conv_7_project_Conv2Dx_strides_0 = const()[name = tensor<string, []>("model_1_model_expanded_conv_7_project_Conv2Dx_strides_0"), val = tensor<int32, [2]>([1, 1])];
            tensor<int32, [2]> model_1_model_expanded_conv_7_project_Conv2Dx_dilations_0 = const()[name = tensor<string, []>("model_1_model_expanded_conv_7_project_Conv2Dx_dilations_0"), val = tensor<int32, [2]>([1, 1])];
            tensor<int32, []> model_1_model_expanded_conv_7_project_Conv2Dx_groups_0 = const()[name = tensor<string, []>("model_1_model_expanded_conv_7_project_Conv2Dx_groups_0"), val = tensor<int32, []>(1)];
            tensor<int32, [4]> model_1_model_expanded_conv_7_project_Conv2Dx_pad_0 = const()[name = tensor<string, []>("model_1_model_expanded_conv_7_project_Conv2Dx_pad_0"), val = tensor<int32, [4]>([0, 0, 0, 0])];
            tensor<fp16, [80, 200, 1, 1]> const_144_to_fp16 = const()[name = tensor<string, []>("const_144_to_fp16"), val = tensor<fp16, [80, 200, 1, 1]>(BLOBFILE(path = tensor<string, []>("@model_path/weights/weight.bin"), offset = tensor<uint64, []>(224320)))];
            tensor<fp16, [80]> const_145_to_fp16 = const()[name = tensor<string, []>("const_145_to_fp16"), val = tensor<fp16, [80]>(BLOBFILE(path = tensor<string, []>("@model_path/weights/weight.bin"), offset = tensor<uint64, []>(256384)))];
            tensor<fp16, [1, 80, 10, 16]> model_1_model_expanded_conv_7_project_BatchNorm_FusedBatchNormV3_nchw_cast_fp16 = conv(bias = const_145_to_fp16, dilations = model_1_model_expanded_conv_7_project_Conv2Dx_dilations_0, groups = model_1_model_expanded_conv_7_project_Conv2Dx_groups_0, pad = model_1_model_expanded_conv_7_project_Conv2Dx_pad_0, pad_type = model_1_model_expanded_conv_7_project_Conv2Dx_pad_type_0, strides = model_1_model_expanded_conv_7_project_Conv2Dx_strides_0, weight = const_144_to_fp16, x = model_1_model_multiply_4_mul_cast_fp16)[name = tensor<string, []>("model_1_model_expanded_conv_7_project_BatchNorm_FusedBatchNormV3_nchw_cast_fp16")];
            tensor<fp16, [1, 80, 10, 16]> model_1_model_expanded_conv_7_Add_add_cast_fp16 = add(x = model_1_model_expanded_conv_6_project_BatchNorm_FusedBatchNormV3_nchw_cast_fp16, y = model_1_model_expanded_conv_7_project_BatchNorm_FusedBatchNormV3_nchw_cast_fp16)[name = tensor<string, []>("model_1_model_expanded_conv_7_Add_add_cast_fp16")];
            tensor<string, []> model_1_model_expanded_conv_8_expand_Conv2Dx_pad_type_0 = const()[name = tensor<string, []>("model_1_model_expanded_conv_8_expand_Conv2Dx_pad_type_0"), val = tensor<string, []>("same")];
            tensor<int32, [2]> model_1_model_expanded_conv_8_expand_Conv2Dx_strides_0 = const()[name = tensor<string, []>("model_1_model_expanded_conv_8_expand_Conv2Dx_strides_0"), val = tensor<int32, [2]>([1, 1])];
            tensor<int32, [2]> model_1_model_expanded_conv_8_expand_Conv2Dx_dilations_0 = const()[name = tensor<string, []>("model_1_model_expanded_conv_8_expand_Conv2Dx_dilations_0"), val = tensor<int32, [2]>([1, 1])];
            tensor<int32, []> model_1_model_expanded_conv_8_expand_Conv2Dx_groups_0 = const()[name = tensor<string, []>("model_1_model_expanded_conv_8_expand_Conv2Dx_groups_0"), val = tensor<int32, []>(1)];
            tensor<int32, [4]> model_1_model_expanded_conv_8_expand_Conv2Dx_pad_0 = const()[name = tensor<string, []>("model_1_model_expanded_conv_8_expand_Conv2Dx_pad_0"), val = tensor<int32, [4]>([0, 0, 0, 0])];
            tensor<fp16, [184, 80, 1, 1]> const_146_to_fp16 = const()[name = tensor<string, []>("const_146_to_fp16"), val = tensor<fp16, [184, 80, 1, 1]>(BLOBFILE(path = tensor<string, []>("@model_path/weights/weight.bin"), offset = tensor<uint64, []>(256640)))];
            tensor<fp16, [184]> const_147_to_fp16 = const()[name = tensor<string, []>("const_147_to_fp16"), val = tensor<fp16, [184]>(BLOBFILE(path = tensor<string, []>("@model_path/weights/weight.bin"), offset = tensor<uint64, []>(286144)))];
            tensor<fp16, [1, 184, 10, 16]> model_1_model_expanded_conv_8_expand_BatchNorm_FusedBatchNormV3_nchw_cast_fp16 = conv(bias = const_147_to_fp16, dilations = model_1_model_expanded_conv_8_expand_Conv2Dx_dilations_0, groups = model_1_model_expanded_conv_8_expand_Conv2Dx_groups_0, pad = model_1_model_expanded_conv_8_expand_Conv2Dx_pad_0, pad_type = model_1_model_expanded_conv_8_expand_Conv2Dx_pad_type_0, strides = model_1_model_expanded_conv_8_expand_Conv2Dx_strides_0, weight = const_146_to_fp16, x = model_1_model_expanded_conv_7_Add_add_cast_fp16)[name = tensor<string, []>("model_1_model_expanded_conv_8_expand_BatchNorm_FusedBatchNormV3_nchw_cast_fp16")];
            tensor<fp16, []> model_1_model_tf___operators___add_36_y_to_fp16 = const()[name = tensor<string, []>("model_1_model_tf___operators___add_36_y_to_fp16"), val = tensor<fp16, []>(0x1.8p+1)];
            tensor<fp16, [1, 184, 10, 16]> model_1_model_tf___operators___add_36_AddV2_cast_fp16 = add(x = model_1_model_expanded_conv_8_expand_BatchNorm_FusedBatchNormV3_nchw_cast_fp16, y = model_1_model_tf___operators___add_36_y_to_fp16)[name = tensor<string, []>("model_1_model_tf___operators___add_36_AddV2_cast_fp16")];
            tensor<fp16, [1, 184, 10, 16]> model_1_model_re_lu_19_Relu6_cast_fp16 = relu6(x = model_1_model_tf___operators___add_36_AddV2_cast_fp16)[name = tensor<string, []>("model_1_model_re_lu_19_Relu6_cast_fp16")];
            tensor<fp16, []> model_1_model_tf_math_multiply_35_Mul_y_to_fp16 = const()[name = tensor<string, []>("model_1_model_tf_math_multiply_35_Mul_y_to_fp16"), val = tensor<fp16, []>(0x1.554p-3)];
            tensor<fp16, [1, 184, 10, 16]> model_1_model_tf_math_multiply_35_Mul_cast_fp16 = mul(x = model_1_model_re_lu_19_Relu6_cast_fp16, y = model_1_model_tf_math_multiply_35_Mul_y_to_fp16)[name = tensor<string, []>("model_1_model_tf_math_multiply_35_Mul_cast_fp16")];
            tensor<fp16, [1, 184, 10, 16]> model_1_model_multiply_5_mul_cast_fp16 = mul(x = model_1_model_expanded_conv_8_expand_BatchNorm_FusedBatchNormV3_nchw_cast_fp16, y = model_1_model_tf_math_multiply_35_Mul_cast_fp16)[name = tensor<string, []>("model_1_model_multiply_5_mul_cast_fp16")];
            tensor<string, []> model_1_model_expanded_conv_8_depthwise_depthwisex_pad_type_0 = const()[name = tensor<string, []>("model_1_model_expanded_conv_8_depthwise_depthwisex_pad_type_0"), val = tensor<string, []>("same")];
            tensor<int32, [2]> model_1_model_expanded_conv_8_depthwise_depthwisex_strides_0 = const()[name = tensor<string, []>("model_1_model_expanded_conv_8_depthwise_depthwisex_strides_0"), val = tensor<int32, [2]>([1, 1])];
            tensor<int32, [2]> model_1_model_expanded_conv_8_depthwise_depthwisex_dilations_0 = const()[name = tensor<string, []>("model_1_model_expanded_conv_8_depthwise_depthwisex_dilations_0"), val = tensor<int32, [2]>([1, 1])];
            tensor<int32, []> model_1_model_expanded_conv_8_depthwise_depthwisex_groups_0 = const()[name = tensor<string, []>("model_1_model_expanded_conv_8_depthwise_depthwisex_groups_0"), val = tensor<int32, []>(184)];
            tensor<int32, [4]> model_1_model_expanded_conv_8_depthwise_depthwisex_pad_0 = const()[name = tensor<string, []>("model_1_model_expanded_conv_8_depthwise_depthwisex_pad_0"), val = tensor<int32, [4]>([0, 0, 0, 0])];
            tensor<fp16, [184, 1, 3, 3]> const_148_to_fp16 = const()[name = tensor<string, []>("const_148_to_fp16"), val = tensor<fp16, [184, 1, 3, 3]>(BLOBFILE(path = tensor<string, []>("@model_path/weights/weight.bin"), offset = tensor<uint64, []>(286592)))];
            tensor<fp16, [184]> const_149_to_fp16 = const()[name = tensor<string, []>("const_149_to_fp16"), val = tensor<fp16, [184]>(BLOBFILE(path = tensor<string, []>("@model_path/weights/weight.bin"), offset = tensor<uint64, []>(289984)))];
            tensor<fp16, [1, 184, 10, 16]> model_1_model_expanded_conv_8_depthwise_BatchNorm_FusedBatchNormV3_nchw_cast_fp16 = conv(bias = const_149_to_fp16, dilations = model_1_model_expanded_conv_8_depthwise_depthwisex_dilations_0, groups = model_1_model_expanded_conv_8_depthwise_depthwisex_groups_0, pad = model_1_model_expanded_conv_8_depthwise_depthwisex_pad_0, pad_type = model_1_model_expanded_conv_8_depthwise_depthwisex_pad_type_0, strides = model_1_model_expanded_conv_8_depthwise_depthwisex_strides_0, weight = const_148_to_fp16, x = model_1_model_multiply_5_mul_cast_fp16)[name = tensor<string, []>("model_1_model_expanded_conv_8_depthwise_BatchNorm_FusedBatchNormV3_nchw_cast_fp16")];
            tensor<fp16, []> model_1_model_tf___operators___add_37_y_to_fp16 = const()[name = tensor<string, []>("model_1_model_tf___operators___add_37_y_to_fp16"), val = tensor<fp16, []>(0x1.8p+1)];
            tensor<fp16, [1, 184, 10, 16]> model_1_model_tf___operators___add_37_AddV2_cast_fp16 = add(x = model_1_model_expanded_conv_8_depthwise_BatchNorm_FusedBatchNormV3_nchw_cast_fp16, y = model_1_model_tf___operators___add_37_y_to_fp16)[name = tensor<string, []>("model_1_model_tf___operators___add_37_AddV2_cast_fp16")];
            tensor<fp16, [1, 184, 10, 16]> model_1_model_re_lu_20_Relu6_cast_fp16 = relu6(x = model_1_model_tf___operators___add_37_AddV2_cast_fp16)[name = tensor<string, []>("model_1_model_re_lu_20_Relu6_cast_fp16")];
            tensor<fp16, []> model_1_model_tf_math_multiply_36_Mul_y_to_fp16 = const()[name = tensor<string, []>("model_1_model_tf_math_multiply_36_Mul_y_to_fp16"), val = tensor<fp16, []>(0x1.554p-3)];
            tensor<fp16, [1, 184, 10, 16]> model_1_model_tf_math_multiply_36_Mul_cast_fp16 = mul(x = model_1_model_re_lu_20_Relu6_cast_fp16, y = model_1_model_tf_math_multiply_36_Mul_y_to_fp16)[name = tensor<string, []>("model_1_model_tf_math_multiply_36_Mul_cast_fp16")];
            tensor<fp16, [1, 184, 10, 16]> model_1_model_multiply_6_mul_cast_fp16 = mul(x = model_1_model_expanded_conv_8_depthwise_BatchNorm_FusedBatchNormV3_nchw_cast_fp16, y = model_1_model_tf_math_multiply_36_Mul_cast_fp16)[name = tensor<string, []>("model_1_model_multiply_6_mul_cast_fp16")];
            tensor<string, []> model_1_model_expanded_conv_8_project_Conv2Dx_pad_type_0 = const()[name = tensor<string, []>("model_1_model_expanded_conv_8_project_Conv2Dx_pad_type_0"), val = tensor<string, []>("same")];
            tensor<int32, [2]> model_1_model_expanded_conv_8_project_Conv2Dx_strides_0 = const()[name = tensor<string, []>("model_1_model_expanded_conv_8_project_Conv2Dx_strides_0"), val = tensor<int32, [2]>([1, 1])];
            tensor<int32, [2]> model_1_model_expanded_conv_8_project_Conv2Dx_dilations_0 = const()[name = tensor<string, []>("model_1_model_expanded_conv_8_project_Conv2Dx_dilations_0"), val = tensor<int32, [2]>([1, 1])];
            tensor<int32, []> model_1_model_expanded_conv_8_project_Conv2Dx_groups_0 = const()[name = tensor<string, []>("model_1_model_expanded_conv_8_project_Conv2Dx_groups_0"), val = tensor<int32, []>(1)];
            tensor<int32, [4]> model_1_model_expanded_conv_8_project_Conv2Dx_pad_0 = const()[name = tensor<string, []>("model_1_model_expanded_conv_8_project_Conv2Dx_pad_0"), val = tensor<int32, [4]>([0, 0, 0, 0])];
            tensor<fp16, [80, 184, 1, 1]> const_150_to_fp16 = const()[name = tensor<string, []>("const_150_to_fp16"), val = tensor<fp16, [80, 184, 1, 1]>(BLOBFILE(path = tensor<string, []>("@model_path/weights/weight.bin"), offset = tensor<uint64, []>(290432)))];
            tensor<fp16, [80]> const_151_to_fp16 = const()[name = tensor<string, []>("const_151_to_fp16"), val = tensor<fp16, [80]>(BLOBFILE(path = tensor<string, []>("@model_path/weights/weight.bin"), offset = tensor<uint64, []>(319936)))];
            tensor<fp16, [1, 80, 10, 16]> model_1_model_expanded_conv_8_project_BatchNorm_FusedBatchNormV3_nchw_cast_fp16 = conv(bias = const_151_to_fp16, dilations = model_1_model_expanded_conv_8_project_Conv2Dx_dilations_0, groups = model_1_model_expanded_conv_8_project_Conv2Dx_groups_0, pad = model_1_model_expanded_conv_8_project_Conv2Dx_pad_0, pad_type = model_1_model_expanded_conv_8_project_Conv2Dx_pad_type_0, strides = model_1_model_expanded_conv_8_project_Conv2Dx_strides_0, weight = const_150_to_fp16, x = model_1_model_multiply_6_mul_cast_fp16)[name = tensor<string, []>("model_1_model_expanded_conv_8_project_BatchNorm_FusedBatchNormV3_nchw_cast_fp16")];
            tensor<fp16, [1, 80, 10, 16]> model_1_model_expanded_conv_8_Add_add_cast_fp16 = add(x = model_1_model_expanded_conv_7_Add_add_cast_fp16, y = model_1_model_expanded_conv_8_project_BatchNorm_FusedBatchNormV3_nchw_cast_fp16)[name = tensor<string, []>("model_1_model_expanded_conv_8_Add_add_cast_fp16")];
            tensor<string, []> model_1_model_expanded_conv_9_expand_Conv2Dx_pad_type_0 = const()[name = tensor<string, []>("model_1_model_expanded_conv_9_expand_Conv2Dx_pad_type_0"), val = tensor<string, []>("same")];
            tensor<int32, [2]> model_1_model_expanded_conv_9_expand_Conv2Dx_strides_0 = const()[name = tensor<string, []>("model_1_model_expanded_conv_9_expand_Conv2Dx_strides_0"), val = tensor<int32, [2]>([1, 1])];
            tensor<int32, [2]> model_1_model_expanded_conv_9_expand_Conv2Dx_dilations_0 = const()[name = tensor<string, []>("model_1_model_expanded_conv_9_expand_Conv2Dx_dilations_0"), val = tensor<int32, [2]>([1, 1])];
            tensor<int32, []> model_1_model_expanded_conv_9_expand_Conv2Dx_groups_0 = const()[name = tensor<string, []>("model_1_model_expanded_conv_9_expand_Conv2Dx_groups_0"), val = tensor<int32, []>(1)];
            tensor<int32, [4]> model_1_model_expanded_conv_9_expand_Conv2Dx_pad_0 = const()[name = tensor<string, []>("model_1_model_expanded_conv_9_expand_Conv2Dx_pad_0"), val = tensor<int32, [4]>([0, 0, 0, 0])];
            tensor<fp16, [184, 80, 1, 1]> const_152_to_fp16 = const()[name = tensor<string, []>("const_152_to_fp16"), val = tensor<fp16, [184, 80, 1, 1]>(BLOBFILE(path = tensor<string, []>("@model_path/weights/weight.bin"), offset = tensor<uint64, []>(320192)))];
            tensor<fp16, [184]> const_153_to_fp16 = const()[name = tensor<string, []>("const_153_to_fp16"), val = tensor<fp16, [184]>(BLOBFILE(path = tensor<string, []>("@model_path/weights/weight.bin"), offset = tensor<uint64, []>(349696)))];
            tensor<fp16, [1, 184, 10, 16]> model_1_model_expanded_conv_9_expand_BatchNorm_FusedBatchNormV3_nchw_cast_fp16 = conv(bias = const_153_to_fp16, dilations = model_1_model_expanded_conv_9_expand_Conv2Dx_dilations_0, groups = model_1_model_expanded_conv_9_expand_Conv2Dx_groups_0, pad = model_1_model_expanded_conv_9_expand_Conv2Dx_pad_0, pad_type = model_1_model_expanded_conv_9_expand_Conv2Dx_pad_type_0, strides = model_1_model_expanded_conv_9_expand_Conv2Dx_strides_0, weight = const_152_to_fp16, x = model_1_model_expanded_conv_8_Add_add_cast_fp16)[name = tensor<string, []>("model_1_model_expanded_conv_9_expand_BatchNorm_FusedBatchNormV3_nchw_cast_fp16")];
            tensor<fp16, []> model_1_model_tf___operators___add_38_y_to_fp16 = const()[name = tensor<string, []>("model_1_model_tf___operators___add_38_y_to_fp16"), val = tensor<fp16, []>(0x1.8p+1)];
            tensor<fp16, [1, 184, 10, 16]> model_1_model_tf___operators___add_38_AddV2_cast_fp16 = add(x = model_1_model_expanded_conv_9_expand_BatchNorm_FusedBatchNormV3_nchw_cast_fp16, y = model_1_model_tf___operators___add_38_y_to_fp16)[name = tensor<string, []>("model_1_model_tf___operators___add_38_AddV2_cast_fp16")];
            tensor<fp16, [1, 184, 10, 16]> model_1_model_re_lu_21_Relu6_cast_fp16 = relu6(x = model_1_model_tf___operators___add_38_AddV2_cast_fp16)[name = tensor<string, []>("model_1_model_re_lu_21_Relu6_cast_fp16")];
            tensor<fp16, []> model_1_model_tf_math_multiply_37_Mul_y_to_fp16 = const()[name = tensor<string, []>("model_1_model_tf_math_multiply_37_Mul_y_to_fp16"), val = tensor<fp16, []>(0x1.554p-3)];
            tensor<fp16, [1, 184, 10, 16]> model_1_model_tf_math_multiply_37_Mul_cast_fp16 = mul(x = model_1_model_re_lu_21_Relu6_cast_fp16, y = model_1_model_tf_math_multiply_37_Mul_y_to_fp16)[name = tensor<string, []>("model_1_model_tf_math_multiply_37_Mul_cast_fp16")];
            tensor<fp16, [1, 184, 10, 16]> model_1_model_multiply_7_mul_cast_fp16 = mul(x = model_1_model_expanded_conv_9_expand_BatchNorm_FusedBatchNormV3_nchw_cast_fp16, y = model_1_model_tf_math_multiply_37_Mul_cast_fp16)[name = tensor<string, []>("model_1_model_multiply_7_mul_cast_fp16")];
            tensor<string, []> model_1_model_expanded_conv_9_depthwise_depthwisex_pad_type_0 = const()[name = tensor<string, []>("model_1_model_expanded_conv_9_depthwise_depthwisex_pad_type_0"), val = tensor<string, []>("same")];
            tensor<int32, [2]> model_1_model_expanded_conv_9_depthwise_depthwisex_strides_0 = const()[name = tensor<string, []>("model_1_model_expanded_conv_9_depthwise_depthwisex_strides_0"), val = tensor<int32, [2]>([1, 1])];
            tensor<int32, [2]> model_1_model_expanded_conv_9_depthwise_depthwisex_dilations_0 = const()[name = tensor<string, []>("model_1_model_expanded_conv_9_depthwise_depthwisex_dilations_0"), val = tensor<int32, [2]>([1, 1])];
            tensor<int32, []> model_1_model_expanded_conv_9_depthwise_depthwisex_groups_0 = const()[name = tensor<string, []>("model_1_model_expanded_conv_9_depthwise_depthwisex_groups_0"), val = tensor<int32, []>(184)];
            tensor<int32, [4]> model_1_model_expanded_conv_9_depthwise_depthwisex_pad_0 = const()[name = tensor<string, []>("model_1_model_expanded_conv_9_depthwise_depthwisex_pad_0"), val = tensor<int32, [4]>([0, 0, 0, 0])];
            tensor<fp16, [184, 1, 3, 3]> const_154_to_fp16 = const()[name = tensor<string, []>("const_154_to_fp16"), val = tensor<fp16, [184, 1, 3, 3]>(BLOBFILE(path = tensor<string, []>("@model_path/weights/weight.bin"), offset = tensor<uint64, []>(350144)))];
            tensor<fp16, [184]> const_155_to_fp16 = const()[name = tensor<string, []>("const_155_to_fp16"), val = tensor<fp16, [184]>(BLOBFILE(path = tensor<string, []>("@model_path/weights/weight.bin"), offset = tensor<uint64, []>(353536)))];
            tensor<fp16, [1, 184, 10, 16]> model_1_model_expanded_conv_9_depthwise_BatchNorm_FusedBatchNormV3_nchw_cast_fp16 = conv(bias = const_155_to_fp16, dilations = model_1_model_expanded_conv_9_depthwise_depthwisex_dilations_0, groups = model_1_model_expanded_conv_9_depthwise_depthwisex_groups_0, pad = model_1_model_expanded_conv_9_depthwise_depthwisex_pad_0, pad_type = model_1_model_expanded_conv_9_depthwise_depthwisex_pad_type_0, strides = model_1_model_expanded_conv_9_depthwise_depthwisex_strides_0, weight = const_154_to_fp16, x = model_1_model_multiply_7_mul_cast_fp16)[name = tensor<string, []>("model_1_model_expanded_conv_9_depthwise_BatchNorm_FusedBatchNormV3_nchw_cast_fp16")];
            tensor<fp16, []> model_1_model_tf___operators___add_39_y_to_fp16 = const()[name = tensor<string, []>("model_1_model_tf___operators___add_39_y_to_fp16"), val = tensor<fp16, []>(0x1.8p+1)];
            tensor<fp16, [1, 184, 10, 16]> model_1_model_tf___operators___add_39_AddV2_cast_fp16 = add(x = model_1_model_expanded_conv_9_depthwise_BatchNorm_FusedBatchNormV3_nchw_cast_fp16, y = model_1_model_tf___operators___add_39_y_to_fp16)[name = tensor<string, []>("model_1_model_tf___operators___add_39_AddV2_cast_fp16")];
            tensor<fp16, [1, 184, 10, 16]> model_1_model_re_lu_22_Relu6_cast_fp16 = relu6(x = model_1_model_tf___operators___add_39_AddV2_cast_fp16)[name = tensor<string, []>("model_1_model_re_lu_22_Relu6_cast_fp16")];
            tensor<fp16, []> model_1_model_tf_math_multiply_38_Mul_y_to_fp16 = const()[name = tensor<string, []>("model_1_model_tf_math_multiply_38_Mul_y_to_fp16"), val = tensor<fp16, []>(0x1.554p-3)];
            tensor<fp16, [1, 184, 10, 16]> model_1_model_tf_math_multiply_38_Mul_cast_fp16 = mul(x = model_1_model_re_lu_22_Relu6_cast_fp16, y = model_1_model_tf_math_multiply_38_Mul_y_to_fp16)[name = tensor<string, []>("model_1_model_tf_math_multiply_38_Mul_cast_fp16")];
            tensor<fp16, [1, 184, 10, 16]> model_1_model_multiply_8_mul_cast_fp16 = mul(x = model_1_model_expanded_conv_9_depthwise_BatchNorm_FusedBatchNormV3_nchw_cast_fp16, y = model_1_model_tf_math_multiply_38_Mul_cast_fp16)[name = tensor<string, []>("model_1_model_multiply_8_mul_cast_fp16")];
            tensor<string, []> model_1_model_expanded_conv_9_project_Conv2Dx_pad_type_0 = const()[name = tensor<string, []>("model_1_model_expanded_conv_9_project_Conv2Dx_pad_type_0"), val = tensor<string, []>("same")];
            tensor<int32, [2]> model_1_model_expanded_conv_9_project_Conv2Dx_strides_0 = const()[name = tensor<string, []>("model_1_model_expanded_conv_9_project_Conv2Dx_strides_0"), val = tensor<int32, [2]>([1, 1])];
            tensor<int32, [2]> model_1_model_expanded_conv_9_project_Conv2Dx_dilations_0 = const()[name = tensor<string, []>("model_1_model_expanded_conv_9_project_Conv2Dx_dilations_0"), val = tensor<int32, [2]>([1, 1])];
            tensor<int32, []> model_1_model_expanded_conv_9_project_Conv2Dx_groups_0 = const()[name = tensor<string, []>("model_1_model_expanded_conv_9_project_Conv2Dx_groups_0"), val = tensor<int32, []>(1)];
            tensor<int32, [4]> model_1_model_expanded_conv_9_project_Conv2Dx_pad_0 = const()[name = tensor<string, []>("model_1_model_expanded_conv_9_project_Conv2Dx_pad_0"), val = tensor<int32, [4]>([0, 0, 0, 0])];
            tensor<fp16, [80, 184, 1, 1]> const_156_to_fp16 = const()[name = tensor<string, []>("const_156_to_fp16"), val = tensor<fp16, [80, 184, 1, 1]>(BLOBFILE(path = tensor<string, []>("@model_path/weights/weight.bin"), offset = tensor<uint64, []>(353984)))];
            tensor<fp16, [80]> const_157_to_fp16 = const()[name = tensor<string, []>("const_157_to_fp16"), val = tensor<fp16, [80]>(BLOBFILE(path = tensor<string, []>("@model_path/weights/weight.bin"), offset = tensor<uint64, []>(383488)))];
            tensor<fp16, [1, 80, 10, 16]> model_1_model_expanded_conv_9_project_BatchNorm_FusedBatchNormV3_nchw_cast_fp16 = conv(bias = const_157_to_fp16, dilations = model_1_model_expanded_conv_9_project_Conv2Dx_dilations_0, groups = model_1_model_expanded_conv_9_project_Conv2Dx_groups_0, pad = model_1_model_expanded_conv_9_project_Conv2Dx_pad_0, pad_type = model_1_model_expanded_conv_9_project_Conv2Dx_pad_type_0, strides = model_1_model_expanded_conv_9_project_Conv2Dx_strides_0, weight = const_156_to_fp16, x = model_1_model_multiply_8_mul_cast_fp16)[name = tensor<string, []>("model_1_model_expanded_conv_9_project_BatchNorm_FusedBatchNormV3_nchw_cast_fp16")];
            tensor<fp16, [1, 80, 10, 16]> model_1_model_expanded_conv_9_Add_add_cast_fp16 = add(x = model_1_model_expanded_conv_8_Add_add_cast_fp16, y = model_1_model_expanded_conv_9_project_BatchNorm_FusedBatchNormV3_nchw_cast_fp16)[name = tensor<string, []>("model_1_model_expanded_conv_9_Add_add_cast_fp16")];
            tensor<string, []> model_1_model_expanded_conv_10_expand_Conv2Dx_pad_type_0 = const()[name = tensor<string, []>("model_1_model_expanded_conv_10_expand_Conv2Dx_pad_type_0"), val = tensor<string, []>("same")];
            tensor<int32, [2]> model_1_model_expanded_conv_10_expand_Conv2Dx_strides_0 = const()[name = tensor<string, []>("model_1_model_expanded_conv_10_expand_Conv2Dx_strides_0"), val = tensor<int32, [2]>([1, 1])];
            tensor<int32, [2]> model_1_model_expanded_conv_10_expand_Conv2Dx_dilations_0 = const()[name = tensor<string, []>("model_1_model_expanded_conv_10_expand_Conv2Dx_dilations_0"), val = tensor<int32, [2]>([1, 1])];
            tensor<int32, []> model_1_model_expanded_conv_10_expand_Conv2Dx_groups_0 = const()[name = tensor<string, []>("model_1_model_expanded_conv_10_expand_Conv2Dx_groups_0"), val = tensor<int32, []>(1)];
            tensor<int32, [4]> model_1_model_expanded_conv_10_expand_Conv2Dx_pad_0 = const()[name = tensor<string, []>("model_1_model_expanded_conv_10_expand_Conv2Dx_pad_0"), val = tensor<int32, [4]>([0, 0, 0, 0])];
            tensor<fp16, [480, 80, 1, 1]> const_158_to_fp16 = const()[name = tensor<string, []>("const_158_to_fp16"), val = tensor<fp16, [480, 80, 1, 1]>(BLOBFILE(path = tensor<string, []>("@model_path/weights/weight.bin"), offset = tensor<uint64, []>(383744)))];
            tensor<fp16, [480]> const_159_to_fp16 = const()[name = tensor<string, []>("const_159_to_fp16"), val = tensor<fp16, [480]>(BLOBFILE(path = tensor<string, []>("@model_path/weights/weight.bin"), offset = tensor<uint64, []>(460608)))];
            tensor<fp16, [1, 480, 10, 16]> model_1_model_expanded_conv_10_expand_BatchNorm_FusedBatchNormV3_nchw_cast_fp16 = conv(bias = const_159_to_fp16, dilations = model_1_model_expanded_conv_10_expand_Conv2Dx_dilations_0, groups = model_1_model_expanded_conv_10_expand_Conv2Dx_groups_0, pad = model_1_model_expanded_conv_10_expand_Conv2Dx_pad_0, pad_type = model_1_model_expanded_conv_10_expand_Conv2Dx_pad_type_0, strides = model_1_model_expanded_conv_10_expand_Conv2Dx_strides_0, weight = const_158_to_fp16, x = model_1_model_expanded_conv_9_Add_add_cast_fp16)[name = tensor<string, []>("model_1_model_expanded_conv_10_expand_BatchNorm_FusedBatchNormV3_nchw_cast_fp16")];
            tensor<fp16, []> model_1_model_tf___operators___add_40_y_to_fp16 = const()[name = tensor<string, []>("model_1_model_tf___operators___add_40_y_to_fp16"), val = tensor<fp16, []>(0x1.8p+1)];
            tensor<fp16, [1, 480, 10, 16]> model_1_model_tf___operators___add_40_AddV2_cast_fp16 = add(x = model_1_model_expanded_conv_10_expand_BatchNorm_FusedBatchNormV3_nchw_cast_fp16, y = model_1_model_tf___operators___add_40_y_to_fp16)[name = tensor<string, []>("model_1_model_tf___operators___add_40_AddV2_cast_fp16")];
            tensor<fp16, [1, 480, 10, 16]> model_1_model_re_lu_23_Relu6_cast_fp16 = relu6(x = model_1_model_tf___operators___add_40_AddV2_cast_fp16)[name = tensor<string, []>("model_1_model_re_lu_23_Relu6_cast_fp16")];
            tensor<fp16, []> model_1_model_tf_math_multiply_39_Mul_y_to_fp16 = const()[name = tensor<string, []>("model_1_model_tf_math_multiply_39_Mul_y_to_fp16"), val = tensor<fp16, []>(0x1.554p-3)];
            tensor<fp16, [1, 480, 10, 16]> model_1_model_tf_math_multiply_39_Mul_cast_fp16 = mul(x = model_1_model_re_lu_23_Relu6_cast_fp16, y = model_1_model_tf_math_multiply_39_Mul_y_to_fp16)[name = tensor<string, []>("model_1_model_tf_math_multiply_39_Mul_cast_fp16")];
            tensor<fp16, [1, 480, 10, 16]> model_1_model_multiply_9_mul_cast_fp16 = mul(x = model_1_model_expanded_conv_10_expand_BatchNorm_FusedBatchNormV3_nchw_cast_fp16, y = model_1_model_tf_math_multiply_39_Mul_cast_fp16)[name = tensor<string, []>("model_1_model_multiply_9_mul_cast_fp16")];
            tensor<string, []> model_1_model_expanded_conv_10_depthwise_depthwisex_pad_type_0 = const()[name = tensor<string, []>("model_1_model_expanded_conv_10_depthwise_depthwisex_pad_type_0"), val = tensor<string, []>("same")];
            tensor<int32, [2]> model_1_model_expanded_conv_10_depthwise_depthwisex_strides_0 = const()[name = tensor<string, []>("model_1_model_expanded_conv_10_depthwise_depthwisex_strides_0"), val = tensor<int32, [2]>([1, 1])];
            tensor<int32, [2]> model_1_model_expanded_conv_10_depthwise_depthwisex_dilations_0 = const()[name = tensor<string, []>("model_1_model_expanded_conv_10_depthwise_depthwisex_dilations_0"), val = tensor<int32, [2]>([1, 1])];
            tensor<int32, []> model_1_model_expanded_conv_10_depthwise_depthwisex_groups_0 = const()[name = tensor<string, []>("model_1_model_expanded_conv_10_depthwise_depthwisex_groups_0"), val = tensor<int32, []>(480)];
            tensor<int32, [4]> model_1_model_expanded_conv_10_depthwise_depthwisex_pad_0 = const()[name = tensor<string, []>("model_1_model_expanded_conv_10_depthwise_depthwisex_pad_0"), val = tensor<int32, [4]>([0, 0, 0, 0])];
            tensor<fp16, [480, 1, 3, 3]> const_160_to_fp16 = const()[name = tensor<string, []>("const_160_to_fp16"), val = tensor<fp16, [480, 1, 3, 3]>(BLOBFILE(path = tensor<string, []>("@model_path/weights/weight.bin"), offset = tensor<uint64, []>(461632)))];
            tensor<fp16, [480]> const_161_to_fp16 = const()[name = tensor<string, []>("const_161_to_fp16"), val = tensor<fp16, [480]>(BLOBFILE(path = tensor<string, []>("@model_path/weights/weight.bin"), offset = tensor<uint64, []>(470336)))];
            tensor<fp16, [1, 480, 10, 16]> model_1_model_expanded_conv_10_depthwise_BatchNorm_FusedBatchNormV3_nchw_cast_fp16 = conv(bias = const_161_to_fp16, dilations = model_1_model_expanded_conv_10_depthwise_depthwisex_dilations_0, groups = model_1_model_expanded_conv_10_depthwise_depthwisex_groups_0, pad = model_1_model_expanded_conv_10_depthwise_depthwisex_pad_0, pad_type = model_1_model_expanded_conv_10_depthwise_depthwisex_pad_type_0, strides = model_1_model_expanded_conv_10_depthwise_depthwisex_strides_0, weight = const_160_to_fp16, x = model_1_model_multiply_9_mul_cast_fp16)[name = tensor<string, []>("model_1_model_expanded_conv_10_depthwise_BatchNorm_FusedBatchNormV3_nchw_cast_fp16")];
            tensor<fp16, []> model_1_model_tf___operators___add_41_y_to_fp16 = const()[name = tensor<string, []>("model_1_model_tf___operators___add_41_y_to_fp16"), val = tensor<fp16, []>(0x1.8p+1)];
            tensor<fp16, [1, 480, 10, 16]> model_1_model_tf___operators___add_41_AddV2_cast_fp16 = add(x = model_1_model_expanded_conv_10_depthwise_BatchNorm_FusedBatchNormV3_nchw_cast_fp16, y = model_1_model_tf___operators___add_41_y_to_fp16)[name = tensor<string, []>("model_1_model_tf___operators___add_41_AddV2_cast_fp16")];
            tensor<fp16, [1, 480, 10, 16]> model_1_model_re_lu_24_Relu6_cast_fp16 = relu6(x = model_1_model_tf___operators___add_41_AddV2_cast_fp16)[name = tensor<string, []>("model_1_model_re_lu_24_Relu6_cast_fp16")];
            tensor<fp16, []> model_1_model_tf_math_multiply_40_Mul_y_to_fp16 = const()[name = tensor<string, []>("model_1_model_tf_math_multiply_40_Mul_y_to_fp16"), val = tensor<fp16, []>(0x1.554p-3)];
            tensor<fp16, [1, 480, 10, 16]> model_1_model_tf_math_multiply_40_Mul_cast_fp16 = mul(x = model_1_model_re_lu_24_Relu6_cast_fp16, y = model_1_model_tf_math_multiply_40_Mul_y_to_fp16)[name = tensor<string, []>("model_1_model_tf_math_multiply_40_Mul_cast_fp16")];
            tensor<fp16, [1, 480, 10, 16]> model_1_model_multiply_10_mul_cast_fp16 = mul(x = model_1_model_expanded_conv_10_depthwise_BatchNorm_FusedBatchNormV3_nchw_cast_fp16, y = model_1_model_tf_math_multiply_40_Mul_cast_fp16)[name = tensor<string, []>("model_1_model_multiply_10_mul_cast_fp16")];
            tensor<bool, []> model_1_model_expanded_conv_10_squeeze_excite_AvgPool_Mean_keep_dims_0 = const()[name = tensor<string, []>("model_1_model_expanded_conv_10_squeeze_excite_AvgPool_Mean_keep_dims_0"), val = tensor<bool, []>(true)];
            tensor<int32, [2]> const_16 = const()[name = tensor<string, []>("const_16"), val = tensor<int32, [2]>([2, 3])];
            tensor<fp16, [1, 480, 1, 1]> model_1_model_expanded_conv_10_squeeze_excite_AvgPool_Mean_cast_fp16 = reduce_mean(axes = const_16, keep_dims = model_1_model_expanded_conv_10_squeeze_excite_AvgPool_Mean_keep_dims_0, x = model_1_model_multiply_10_mul_cast_fp16)[name = tensor<string, []>("model_1_model_expanded_conv_10_squeeze_excite_AvgPool_Mean_cast_fp16")];
            tensor<string, []> model_1_model_expanded_conv_10_squeeze_excite_Conv_Conv2Dx_pad_type_0 = const()[name = tensor<string, []>("model_1_model_expanded_conv_10_squeeze_excite_Conv_Conv2Dx_pad_type_0"), val = tensor<string, []>("same")];
            tensor<int32, [2]> model_1_model_expanded_conv_10_squeeze_excite_Conv_Conv2Dx_strides_0 = const()[name = tensor<string, []>("model_1_model_expanded_conv_10_squeeze_excite_Conv_Conv2Dx_strides_0"), val = tensor<int32, [2]>([1, 1])];
            tensor<int32, [2]> model_1_model_expanded_conv_10_squeeze_excite_Conv_Conv2Dx_dilations_0 = const()[name = tensor<string, []>("model_1_model_expanded_conv_10_squeeze_excite_Conv_Conv2Dx_dilations_0"), val = tensor<int32, [2]>([1, 1])];
            tensor<int32, []> model_1_model_expanded_conv_10_squeeze_excite_Conv_Conv2Dx_groups_0 = const()[name = tensor<string, []>("model_1_model_expanded_conv_10_squeeze_excite_Conv_Conv2Dx_groups_0"), val = tensor<int32, []>(1)];
            tensor<int32, [4]> model_1_model_expanded_conv_10_squeeze_excite_Conv_Conv2Dx_pad_0 = const()[name = tensor<string, []>("model_1_model_expanded_conv_10_squeeze_excite_Conv_Conv2Dx_pad_0"), val = tensor<int32, [4]>([0, 0, 0, 0])];
            tensor<fp16, [120, 480, 1, 1]> transpose_108_to_fp16 = const()[name = tensor<string, []>("transpose_108_to_fp16"), val = tensor<fp16, [120, 480, 1, 1]>(BLOBFILE(path = tensor<string, []>("@model_path/weights/weight.bin"), offset = tensor<uint64, []>(471360)))];
            tensor<fp16, [120]> const_59_to_fp16 = const()[name = tensor<string, []>("const_59_to_fp16"), val = tensor<fp16, [120]>(BLOBFILE(path = tensor<string, []>("@model_path/weights/weight.bin"), offset = tensor<uint64, []>(586624)))];
            tensor<fp16, [1, 120, 1, 1]> model_1_model_expanded_conv_10_squeeze_excite_Conv_BiasAdd_cast_fp16 = conv(bias = const_59_to_fp16, dilations = model_1_model_expanded_conv_10_squeeze_excite_Conv_Conv2Dx_dilations_0, groups = model_1_model_expanded_conv_10_squeeze_excite_Conv_Conv2Dx_groups_0, pad = model_1_model_expanded_conv_10_squeeze_excite_Conv_Conv2Dx_pad_0, pad_type = model_1_model_expanded_conv_10_squeeze_excite_Conv_Conv2Dx_pad_type_0, strides = model_1_model_expanded_conv_10_squeeze_excite_Conv_Conv2Dx_strides_0, weight = transpose_108_to_fp16, x = model_1_model_expanded_conv_10_squeeze_excite_AvgPool_Mean_cast_fp16)[name = tensor<string, []>("model_1_model_expanded_conv_10_squeeze_excite_Conv_BiasAdd_cast_fp16")];
            tensor<fp16, [1, 120, 1, 1]> model_1_model_expanded_conv_10_squeeze_excite_Relu_Relu_cast_fp16 = relu(x = model_1_model_expanded_conv_10_squeeze_excite_Conv_BiasAdd_cast_fp16)[name = tensor<string, []>("model_1_model_expanded_conv_10_squeeze_excite_Relu_Relu_cast_fp16")];
            tensor<string, []> model_1_model_expanded_conv_10_squeeze_excite_Conv_1_Conv2Dx_pad_type_0 = const()[name = tensor<string, []>("model_1_model_expanded_conv_10_squeeze_excite_Conv_1_Conv2Dx_pad_type_0"), val = tensor<string, []>("same")];
            tensor<int32, [2]> model_1_model_expanded_conv_10_squeeze_excite_Conv_1_Conv2Dx_strides_0 = const()[name = tensor<string, []>("model_1_model_expanded_conv_10_squeeze_excite_Conv_1_Conv2Dx_strides_0"), val = tensor<int32, [2]>([1, 1])];
            tensor<int32, [2]> model_1_model_expanded_conv_10_squeeze_excite_Conv_1_Conv2Dx_dilations_0 = const()[name = tensor<string, []>("model_1_model_expanded_conv_10_squeeze_excite_Conv_1_Conv2Dx_dilations_0"), val = tensor<int32, [2]>([1, 1])];
            tensor<int32, []> model_1_model_expanded_conv_10_squeeze_excite_Conv_1_Conv2Dx_groups_0 = const()[name = tensor<string, []>("model_1_model_expanded_conv_10_squeeze_excite_Conv_1_Conv2Dx_groups_0"), val = tensor<int32, []>(1)];
            tensor<int32, [4]> model_1_model_expanded_conv_10_squeeze_excite_Conv_1_Conv2Dx_pad_0 = const()[name = tensor<string, []>("model_1_model_expanded_conv_10_squeeze_excite_Conv_1_Conv2Dx_pad_0"), val = tensor<int32, [4]>([0, 0, 0, 0])];
            tensor<fp16, [480, 120, 1, 1]> transpose_110_to_fp16 = const()[name = tensor<string, []>("transpose_110_to_fp16"), val = tensor<fp16, [480, 120, 1, 1]>(BLOBFILE(path = tensor<string, []>("@model_path/weights/weight.bin"), offset = tensor<uint64, []>(586944)))];
            tensor<fp16, [480]> const_93_to_fp16 = const()[name = tensor<string, []>("const_93_to_fp16"), val = tensor<fp16, [480]>(BLOBFILE(path = tensor<string, []>("@model_path/weights/weight.bin"), offset = tensor<uint64, []>(702208)))];
            tensor<fp16, [1, 480, 1, 1]> model_1_model_tf___operators___add_42_AddV2_cast_fp16 = conv(bias = const_93_to_fp16, dilations = model_1_model_expanded_conv_10_squeeze_excite_Conv_1_Conv2Dx_dilations_0, groups = model_1_model_expanded_conv_10_squeeze_excite_Conv_1_Conv2Dx_groups_0, pad = model_1_model_expanded_conv_10_squeeze_excite_Conv_1_Conv2Dx_pad_0, pad_type = model_1_model_expanded_conv_10_squeeze_excite_Conv_1_Conv2Dx_pad_type_0, strides = model_1_model_expanded_conv_10_squeeze_excite_Conv_1_Conv2Dx_strides_0, weight = transpose_110_to_fp16, x = model_1_model_expanded_conv_10_squeeze_excite_Relu_Relu_cast_fp16)[name = tensor<string, []>("model_1_model_tf___operators___add_42_AddV2_cast_fp16")];
            tensor<fp16, [1, 480, 1, 1]> model_1_model_re_lu_25_Relu6_cast_fp16 = relu6(x = model_1_model_tf___operators___add_42_AddV2_cast_fp16)[name = tensor<string, []>("model_1_model_re_lu_25_Relu6_cast_fp16")];
            tensor<fp16, []> model_1_model_tf_math_multiply_41_Mul_y_to_fp16 = const()[name = tensor<string, []>("model_1_model_tf_math_multiply_41_Mul_y_to_fp16"), val = tensor<fp16, []>(0x1.554p-3)];
            tensor<fp16, [1, 480, 1, 1]> model_1_model_tf_math_multiply_41_Mul_cast_fp16 = mul(x = model_1_model_re_lu_25_Relu6_cast_fp16, y = model_1_model_tf_math_multiply_41_Mul_y_to_fp16)[name = tensor<string, []>("model_1_model_tf_math_multiply_41_Mul_cast_fp16")];
            tensor<fp16, [1, 480, 10, 16]> model_1_model_expanded_conv_10_squeeze_excite_Mul_mul_cast_fp16 = mul(x = model_1_model_multiply_10_mul_cast_fp16, y = model_1_model_tf_math_multiply_41_Mul_cast_fp16)[name = tensor<string, []>("model_1_model_expanded_conv_10_squeeze_excite_Mul_mul_cast_fp16")];
            tensor<string, []> model_1_model_expanded_conv_10_project_Conv2Dx_pad_type_0 = const()[name = tensor<string, []>("model_1_model_expanded_conv_10_project_Conv2Dx_pad_type_0"), val = tensor<string, []>("same")];
            tensor<int32, [2]> model_1_model_expanded_conv_10_project_Conv2Dx_strides_0 = const()[name = tensor<string, []>("model_1_model_expanded_conv_10_project_Conv2Dx_strides_0"), val = tensor<int32, [2]>([1, 1])];
            tensor<int32, [2]> model_1_model_expanded_conv_10_project_Conv2Dx_dilations_0 = const()[name = tensor<string, []>("model_1_model_expanded_conv_10_project_Conv2Dx_dilations_0"), val = tensor<int32, [2]>([1, 1])];
            tensor<int32, []> model_1_model_expanded_conv_10_project_Conv2Dx_groups_0 = const()[name = tensor<string, []>("model_1_model_expanded_conv_10_project_Conv2Dx_groups_0"), val = tensor<int32, []>(1)];
            tensor<int32, [4]> model_1_model_expanded_conv_10_project_Conv2Dx_pad_0 = const()[name = tensor<string, []>("model_1_model_expanded_conv_10_project_Conv2Dx_pad_0"), val = tensor<int32, [4]>([0, 0, 0, 0])];
            tensor<fp16, [112, 480, 1, 1]> const_162_to_fp16 = const()[name = tensor<string, []>("const_162_to_fp16"), val = tensor<fp16, [112, 480, 1, 1]>(BLOBFILE(path = tensor<string, []>("@model_path/weights/weight.bin"), offset = tensor<uint64, []>(703232)))];
            tensor<fp16, [112]> const_163_to_fp16 = const()[name = tensor<string, []>("const_163_to_fp16"), val = tensor<fp16, [112]>(BLOBFILE(path = tensor<string, []>("@model_path/weights/weight.bin"), offset = tensor<uint64, []>(810816)))];
            tensor<fp16, [1, 112, 10, 16]> model_1_model_expanded_conv_10_project_BatchNorm_FusedBatchNormV3_nchw_cast_fp16 = conv(bias = const_163_to_fp16, dilations = model_1_model_expanded_conv_10_project_Conv2Dx_dilations_0, groups = model_1_model_expanded_conv_10_project_Conv2Dx_groups_0, pad = model_1_model_expanded_conv_10_project_Conv2Dx_pad_0, pad_type = model_1_model_expanded_conv_10_project_Conv2Dx_pad_type_0, strides = model_1_model_expanded_conv_10_project_Conv2Dx_strides_0, weight = const_162_to_fp16, x = model_1_model_expanded_conv_10_squeeze_excite_Mul_mul_cast_fp16)[name = tensor<string, []>("model_1_model_expanded_conv_10_project_BatchNorm_FusedBatchNormV3_nchw_cast_fp16")];
            tensor<string, []> model_1_model_expanded_conv_11_expand_Conv2Dx_pad_type_0 = const()[name = tensor<string, []>("model_1_model_expanded_conv_11_expand_Conv2Dx_pad_type_0"), val = tensor<string, []>("same")];
            tensor<int32, [2]> model_1_model_expanded_conv_11_expand_Conv2Dx_strides_0 = const()[name = tensor<string, []>("model_1_model_expanded_conv_11_expand_Conv2Dx_strides_0"), val = tensor<int32, [2]>([1, 1])];
            tensor<int32, [2]> model_1_model_expanded_conv_11_expand_Conv2Dx_dilations_0 = const()[name = tensor<string, []>("model_1_model_expanded_conv_11_expand_Conv2Dx_dilations_0"), val = tensor<int32, [2]>([1, 1])];
            tensor<int32, []> model_1_model_expanded_conv_11_expand_Conv2Dx_groups_0 = const()[name = tensor<string, []>("model_1_model_expanded_conv_11_expand_Conv2Dx_groups_0"), val = tensor<int32, []>(1)];
            tensor<int32, [4]> model_1_model_expanded_conv_11_expand_Conv2Dx_pad_0 = const()[name = tensor<string, []>("model_1_model_expanded_conv_11_expand_Conv2Dx_pad_0"), val = tensor<int32, [4]>([0, 0, 0, 0])];
            tensor<fp16, [672, 112, 1, 1]> const_164_to_fp16 = const()[name = tensor<string, []>("const_164_to_fp16"), val = tensor<fp16, [672, 112, 1, 1]>(BLOBFILE(path = tensor<string, []>("@model_path/weights/weight.bin"), offset = tensor<uint64, []>(811136)))];
            tensor<fp16, [672]> const_165_to_fp16 = const()[name = tensor<string, []>("const_165_to_fp16"), val = tensor<fp16, [672]>(BLOBFILE(path = tensor<string, []>("@model_path/weights/weight.bin"), offset = tensor<uint64, []>(961728)))];
            tensor<fp16, [1, 672, 10, 16]> model_1_model_expanded_conv_11_expand_BatchNorm_FusedBatchNormV3_nchw_cast_fp16 = conv(bias = const_165_to_fp16, dilations = model_1_model_expanded_conv_11_expand_Conv2Dx_dilations_0, groups = model_1_model_expanded_conv_11_expand_Conv2Dx_groups_0, pad = model_1_model_expanded_conv_11_expand_Conv2Dx_pad_0, pad_type = model_1_model_expanded_conv_11_expand_Conv2Dx_pad_type_0, strides = model_1_model_expanded_conv_11_expand_Conv2Dx_strides_0, weight = const_164_to_fp16, x = model_1_model_expanded_conv_10_project_BatchNorm_FusedBatchNormV3_nchw_cast_fp16)[name = tensor<string, []>("model_1_model_expanded_conv_11_expand_BatchNorm_FusedBatchNormV3_nchw_cast_fp16")];
            tensor<fp16, []> model_1_model_tf___operators___add_43_y_to_fp16 = const()[name = tensor<string, []>("model_1_model_tf___operators___add_43_y_to_fp16"), val = tensor<fp16, []>(0x1.8p+1)];
            tensor<fp16, [1, 672, 10, 16]> model_1_model_tf___operators___add_43_AddV2_cast_fp16 = add(x = model_1_model_expanded_conv_11_expand_BatchNorm_FusedBatchNormV3_nchw_cast_fp16, y = model_1_model_tf___operators___add_43_y_to_fp16)[name = tensor<string, []>("model_1_model_tf___operators___add_43_AddV2_cast_fp16")];
            tensor<fp16, [1, 672, 10, 16]> model_1_model_re_lu_26_Relu6_cast_fp16 = relu6(x = model_1_model_tf___operators___add_43_AddV2_cast_fp16)[name = tensor<string, []>("model_1_model_re_lu_26_Relu6_cast_fp16")];
            tensor<fp16, []> model_1_model_tf_math_multiply_42_Mul_y_to_fp16 = const()[name = tensor<string, []>("model_1_model_tf_math_multiply_42_Mul_y_to_fp16"), val = tensor<fp16, []>(0x1.554p-3)];
            tensor<fp16, [1, 672, 10, 16]> model_1_model_tf_math_multiply_42_Mul_cast_fp16 = mul(x = model_1_model_re_lu_26_Relu6_cast_fp16, y = model_1_model_tf_math_multiply_42_Mul_y_to_fp16)[name = tensor<string, []>("model_1_model_tf_math_multiply_42_Mul_cast_fp16")];
            tensor<fp16, [1, 672, 10, 16]> model_1_model_multiply_11_mul_cast_fp16 = mul(x = model_1_model_expanded_conv_11_expand_BatchNorm_FusedBatchNormV3_nchw_cast_fp16, y = model_1_model_tf_math_multiply_42_Mul_cast_fp16)[name = tensor<string, []>("model_1_model_multiply_11_mul_cast_fp16")];
            tensor<string, []> model_1_model_expanded_conv_11_depthwise_depthwisex_pad_type_0 = const()[name = tensor<string, []>("model_1_model_expanded_conv_11_depthwise_depthwisex_pad_type_0"), val = tensor<string, []>("same")];
            tensor<int32, [2]> model_1_model_expanded_conv_11_depthwise_depthwisex_strides_0 = const()[name = tensor<string, []>("model_1_model_expanded_conv_11_depthwise_depthwisex_strides_0"), val = tensor<int32, [2]>([1, 1])];
            tensor<int32, [2]> model_1_model_expanded_conv_11_depthwise_depthwisex_dilations_0 = const()[name = tensor<string, []>("model_1_model_expanded_conv_11_depthwise_depthwisex_dilations_0"), val = tensor<int32, [2]>([1, 1])];
            tensor<int32, []> model_1_model_expanded_conv_11_depthwise_depthwisex_groups_0 = const()[name = tensor<string, []>("model_1_model_expanded_conv_11_depthwise_depthwisex_groups_0"), val = tensor<int32, []>(672)];
            tensor<int32, [4]> model_1_model_expanded_conv_11_depthwise_depthwisex_pad_0 = const()[name = tensor<string, []>("model_1_model_expanded_conv_11_depthwise_depthwisex_pad_0"), val = tensor<int32, [4]>([0, 0, 0, 0])];
            tensor<fp16, [672, 1, 3, 3]> const_166_to_fp16 = const()[name = tensor<string, []>("const_166_to_fp16"), val = tensor<fp16, [672, 1, 3, 3]>(BLOBFILE(path = tensor<string, []>("@model_path/weights/weight.bin"), offset = tensor<uint64, []>(963136)))];
            tensor<fp16, [672]> const_167_to_fp16 = const()[name = tensor<string, []>("const_167_to_fp16"), val = tensor<fp16, [672]>(BLOBFILE(path = tensor<string, []>("@model_path/weights/weight.bin"), offset = tensor<uint64, []>(975296)))];
            tensor<fp16, [1, 672, 10, 16]> model_1_model_expanded_conv_11_depthwise_BatchNorm_FusedBatchNormV3_nchw_cast_fp16 = conv(bias = const_167_to_fp16, dilations = model_1_model_expanded_conv_11_depthwise_depthwisex_dilations_0, groups = model_1_model_expanded_conv_11_depthwise_depthwisex_groups_0, pad = model_1_model_expanded_conv_11_depthwise_depthwisex_pad_0, pad_type = model_1_model_expanded_conv_11_depthwise_depthwisex_pad_type_0, strides = model_1_model_expanded_conv_11_depthwise_depthwisex_strides_0, weight = const_166_to_fp16, x = model_1_model_multiply_11_mul_cast_fp16)[name = tensor<string, []>("model_1_model_expanded_conv_11_depthwise_BatchNorm_FusedBatchNormV3_nchw_cast_fp16")];
            tensor<fp16, []> model_1_model_tf___operators___add_44_y_to_fp16 = const()[name = tensor<string, []>("model_1_model_tf___operators___add_44_y_to_fp16"), val = tensor<fp16, []>(0x1.8p+1)];
            tensor<fp16, [1, 672, 10, 16]> model_1_model_tf___operators___add_44_AddV2_cast_fp16 = add(x = model_1_model_expanded_conv_11_depthwise_BatchNorm_FusedBatchNormV3_nchw_cast_fp16, y = model_1_model_tf___operators___add_44_y_to_fp16)[name = tensor<string, []>("model_1_model_tf___operators___add_44_AddV2_cast_fp16")];
            tensor<fp16, [1, 672, 10, 16]> model_1_model_re_lu_27_Relu6_cast_fp16 = relu6(x = model_1_model_tf___operators___add_44_AddV2_cast_fp16)[name = tensor<string, []>("model_1_model_re_lu_27_Relu6_cast_fp16")];
            tensor<fp16, []> model_1_model_tf_math_multiply_43_Mul_y_to_fp16 = const()[name = tensor<string, []>("model_1_model_tf_math_multiply_43_Mul_y_to_fp16"), val = tensor<fp16, []>(0x1.554p-3)];
            tensor<fp16, [1, 672, 10, 16]> model_1_model_tf_math_multiply_43_Mul_cast_fp16 = mul(x = model_1_model_re_lu_27_Relu6_cast_fp16, y = model_1_model_tf_math_multiply_43_Mul_y_to_fp16)[name = tensor<string, []>("model_1_model_tf_math_multiply_43_Mul_cast_fp16")];
            tensor<fp16, [1, 672, 10, 16]> model_1_model_multiply_12_mul_cast_fp16 = mul(x = model_1_model_expanded_conv_11_depthwise_BatchNorm_FusedBatchNormV3_nchw_cast_fp16, y = model_1_model_tf_math_multiply_43_Mul_cast_fp16)[name = tensor<string, []>("model_1_model_multiply_12_mul_cast_fp16")];
            tensor<bool, []> model_1_model_expanded_conv_11_squeeze_excite_AvgPool_Mean_keep_dims_0 = const()[name = tensor<string, []>("model_1_model_expanded_conv_11_squeeze_excite_AvgPool_Mean_keep_dims_0"), val = tensor<bool, []>(true)];
            tensor<int32, [2]> const_19 = const()[name = tensor<string, []>("const_19"), val = tensor<int32, [2]>([2, 3])];
            tensor<fp16, [1, 672, 1, 1]> model_1_model_expanded_conv_11_squeeze_excite_AvgPool_Mean_cast_fp16 = reduce_mean(axes = const_19, keep_dims = model_1_model_expanded_conv_11_squeeze_excite_AvgPool_Mean_keep_dims_0, x = model_1_model_multiply_12_mul_cast_fp16)[name = tensor<string, []>("model_1_model_expanded_conv_11_squeeze_excite_AvgPool_Mean_cast_fp16")];
            tensor<string, []> model_1_model_expanded_conv_11_squeeze_excite_Conv_Conv2Dx_pad_type_0 = const()[name = tensor<string, []>("model_1_model_expanded_conv_11_squeeze_excite_Conv_Conv2Dx_pad_type_0"), val = tensor<string, []>("same")];
            tensor<int32, [2]> model_1_model_expanded_conv_11_squeeze_excite_Conv_Conv2Dx_strides_0 = const()[name = tensor<string, []>("model_1_model_expanded_conv_11_squeeze_excite_Conv_Conv2Dx_strides_0"), val = tensor<int32, [2]>([1, 1])];
            tensor<int32, [2]> model_1_model_expanded_conv_11_squeeze_excite_Conv_Conv2Dx_dilations_0 = const()[name = tensor<string, []>("model_1_model_expanded_conv_11_squeeze_excite_Conv_Conv2Dx_dilations_0"), val = tensor<int32, [2]>([1, 1])];
            tensor<int32, []> model_1_model_expanded_conv_11_squeeze_excite_Conv_Conv2Dx_groups_0 = const()[name = tensor<string, []>("model_1_model_expanded_conv_11_squeeze_excite_Conv_Conv2Dx_groups_0"), val = tensor<int32, []>(1)];
            tensor<int32, [4]> model_1_model_expanded_conv_11_squeeze_excite_Conv_Conv2Dx_pad_0 = const()[name = tensor<string, []>("model_1_model_expanded_conv_11_squeeze_excite_Conv_Conv2Dx_pad_0"), val = tensor<int32, [4]>([0, 0, 0, 0])];
            tensor<fp16, [168, 672, 1, 1]> transpose_121_to_fp16 = const()[name = tensor<string, []>("transpose_121_to_fp16"), val = tensor<fp16, [168, 672, 1, 1]>(BLOBFILE(path = tensor<string, []>("@model_path/weights/weight.bin"), offset = tensor<uint64, []>(976704)))];
            tensor<fp16, [168]> const_61_to_fp16 = const()[name = tensor<string, []>("const_61_to_fp16"), val = tensor<fp16, [168]>(BLOBFILE(path = tensor<string, []>("@model_path/weights/weight.bin"), offset = tensor<uint64, []>(1202560)))];
            tensor<fp16, [1, 168, 1, 1]> model_1_model_expanded_conv_11_squeeze_excite_Conv_BiasAdd_cast_fp16 = conv(bias = const_61_to_fp16, dilations = model_1_model_expanded_conv_11_squeeze_excite_Conv_Conv2Dx_dilations_0, groups = model_1_model_expanded_conv_11_squeeze_excite_Conv_Conv2Dx_groups_0, pad = model_1_model_expanded_conv_11_squeeze_excite_Conv_Conv2Dx_pad_0, pad_type = model_1_model_expanded_conv_11_squeeze_excite_Conv_Conv2Dx_pad_type_0, strides = model_1_model_expanded_conv_11_squeeze_excite_Conv_Conv2Dx_strides_0, weight = transpose_121_to_fp16, x = model_1_model_expanded_conv_11_squeeze_excite_AvgPool_Mean_cast_fp16)[name = tensor<string, []>("model_1_model_expanded_conv_11_squeeze_excite_Conv_BiasAdd_cast_fp16")];
            tensor<fp16, [1, 168, 1, 1]> model_1_model_expanded_conv_11_squeeze_excite_Relu_Relu_cast_fp16 = relu(x = model_1_model_expanded_conv_11_squeeze_excite_Conv_BiasAdd_cast_fp16)[name = tensor<string, []>("model_1_model_expanded_conv_11_squeeze_excite_Relu_Relu_cast_fp16")];
            tensor<string, []> model_1_model_expanded_conv_11_squeeze_excite_Conv_1_Conv2Dx_pad_type_0 = const()[name = tensor<string, []>("model_1_model_expanded_conv_11_squeeze_excite_Conv_1_Conv2Dx_pad_type_0"), val = tensor<string, []>("same")];
            tensor<int32, [2]> model_1_model_expanded_conv_11_squeeze_excite_Conv_1_Conv2Dx_strides_0 = const()[name = tensor<string, []>("model_1_model_expanded_conv_11_squeeze_excite_Conv_1_Conv2Dx_strides_0"), val = tensor<int32, [2]>([1, 1])];
            tensor<int32, [2]> model_1_model_expanded_conv_11_squeeze_excite_Conv_1_Conv2Dx_dilations_0 = const()[name = tensor<string, []>("model_1_model_expanded_conv_11_squeeze_excite_Conv_1_Conv2Dx_dilations_0"), val = tensor<int32, [2]>([1, 1])];
            tensor<int32, []> model_1_model_expanded_conv_11_squeeze_excite_Conv_1_Conv2Dx_groups_0 = const()[name = tensor<string, []>("model_1_model_expanded_conv_11_squeeze_excite_Conv_1_Conv2Dx_groups_0"), val = tensor<int32, []>(1)];
            tensor<int32, [4]> model_1_model_expanded_conv_11_squeeze_excite_Conv_1_Conv2Dx_pad_0 = const()[name = tensor<string, []>("model_1_model_expanded_conv_11_squeeze_excite_Conv_1_Conv2Dx_pad_0"), val = tensor<int32, [4]>([0, 0, 0, 0])];
            tensor<fp16, [672, 168, 1, 1]> transpose_123_to_fp16 = const()[name = tensor<string, []>("transpose_123_to_fp16"), val = tensor<fp16, [672, 168, 1, 1]>(BLOBFILE(path = tensor<string, []>("@model_path/weights/weight.bin"), offset = tensor<uint64, []>(1203008)))];
            tensor<fp16, [672]> const_94_to_fp16 = const()[name = tensor<string, []>("const_94_to_fp16"), val = tensor<fp16, [672]>(BLOBFILE(path = tensor<string, []>("@model_path/weights/weight.bin"), offset = tensor<uint64, []>(1428864)))];
            tensor<fp16, [1, 672, 1, 1]> model_1_model_tf___operators___add_45_AddV2_cast_fp16 = conv(bias = const_94_to_fp16, dilations = model_1_model_expanded_conv_11_squeeze_excite_Conv_1_Conv2Dx_dilations_0, groups = model_1_model_expanded_conv_11_squeeze_excite_Conv_1_Conv2Dx_groups_0, pad = model_1_model_expanded_conv_11_squeeze_excite_Conv_1_Conv2Dx_pad_0, pad_type = model_1_model_expanded_conv_11_squeeze_excite_Conv_1_Conv2Dx_pad_type_0, strides = model_1_model_expanded_conv_11_squeeze_excite_Conv_1_Conv2Dx_strides_0, weight = transpose_123_to_fp16, x = model_1_model_expanded_conv_11_squeeze_excite_Relu_Relu_cast_fp16)[name = tensor<string, []>("model_1_model_tf___operators___add_45_AddV2_cast_fp16")];
            tensor<fp16, [1, 672, 1, 1]> model_1_model_re_lu_28_Relu6_cast_fp16 = relu6(x = model_1_model_tf___operators___add_45_AddV2_cast_fp16)[name = tensor<string, []>("model_1_model_re_lu_28_Relu6_cast_fp16")];
            tensor<fp16, []> model_1_model_tf_math_multiply_44_Mul_y_to_fp16 = const()[name = tensor<string, []>("model_1_model_tf_math_multiply_44_Mul_y_to_fp16"), val = tensor<fp16, []>(0x1.554p-3)];
            tensor<fp16, [1, 672, 1, 1]> model_1_model_tf_math_multiply_44_Mul_cast_fp16 = mul(x = model_1_model_re_lu_28_Relu6_cast_fp16, y = model_1_model_tf_math_multiply_44_Mul_y_to_fp16)[name = tensor<string, []>("model_1_model_tf_math_multiply_44_Mul_cast_fp16")];
            tensor<fp16, [1, 672, 10, 16]> model_1_model_expanded_conv_11_squeeze_excite_Mul_mul_cast_fp16 = mul(x = model_1_model_multiply_12_mul_cast_fp16, y = model_1_model_tf_math_multiply_44_Mul_cast_fp16)[name = tensor<string, []>("model_1_model_expanded_conv_11_squeeze_excite_Mul_mul_cast_fp16")];
            tensor<string, []> model_1_model_expanded_conv_11_project_Conv2Dx_pad_type_0 = const()[name = tensor<string, []>("model_1_model_expanded_conv_11_project_Conv2Dx_pad_type_0"), val = tensor<string, []>("same")];
            tensor<int32, [2]> model_1_model_expanded_conv_11_project_Conv2Dx_strides_0 = const()[name = tensor<string, []>("model_1_model_expanded_conv_11_project_Conv2Dx_strides_0"), val = tensor<int32, [2]>([1, 1])];
            tensor<int32, [2]> model_1_model_expanded_conv_11_project_Conv2Dx_dilations_0 = const()[name = tensor<string, []>("model_1_model_expanded_conv_11_project_Conv2Dx_dilations_0"), val = tensor<int32, [2]>([1, 1])];
            tensor<int32, []> model_1_model_expanded_conv_11_project_Conv2Dx_groups_0 = const()[name = tensor<string, []>("model_1_model_expanded_conv_11_project_Conv2Dx_groups_0"), val = tensor<int32, []>(1)];
            tensor<int32, [4]> model_1_model_expanded_conv_11_project_Conv2Dx_pad_0 = const()[name = tensor<string, []>("model_1_model_expanded_conv_11_project_Conv2Dx_pad_0"), val = tensor<int32, [4]>([0, 0, 0, 0])];
            tensor<fp16, [112, 672, 1, 1]> const_168_to_fp16 = const()[name = tensor<string, []>("const_168_to_fp16"), val = tensor<fp16, [112, 672, 1, 1]>(BLOBFILE(path = tensor<string, []>("@model_path/weights/weight.bin"), offset = tensor<uint64, []>(1430272)))];
            tensor<fp16, [112]> const_169_to_fp16 = const()[name = tensor<string, []>("const_169_to_fp16"), val = tensor<fp16, [112]>(BLOBFILE(path = tensor<string, []>("@model_path/weights/weight.bin"), offset = tensor<uint64, []>(1580864)))];
            tensor<fp16, [1, 112, 10, 16]> model_1_model_expanded_conv_11_project_BatchNorm_FusedBatchNormV3_nchw_cast_fp16 = conv(bias = const_169_to_fp16, dilations = model_1_model_expanded_conv_11_project_Conv2Dx_dilations_0, groups = model_1_model_expanded_conv_11_project_Conv2Dx_groups_0, pad = model_1_model_expanded_conv_11_project_Conv2Dx_pad_0, pad_type = model_1_model_expanded_conv_11_project_Conv2Dx_pad_type_0, strides = model_1_model_expanded_conv_11_project_Conv2Dx_strides_0, weight = const_168_to_fp16, x = model_1_model_expanded_conv_11_squeeze_excite_Mul_mul_cast_fp16)[name = tensor<string, []>("model_1_model_expanded_conv_11_project_BatchNorm_FusedBatchNormV3_nchw_cast_fp16")];
            tensor<fp16, [1, 112, 10, 16]> model_1_model_expanded_conv_11_Add_add_cast_fp16 = add(x = model_1_model_expanded_conv_10_project_BatchNorm_FusedBatchNormV3_nchw_cast_fp16, y = model_1_model_expanded_conv_11_project_BatchNorm_FusedBatchNormV3_nchw_cast_fp16)[name = tensor<string, []>("model_1_model_expanded_conv_11_Add_add_cast_fp16")];
            tensor<string, []> model_1_model_expanded_conv_12_expand_Conv2Dx_pad_type_0 = const()[name = tensor<string, []>("model_1_model_expanded_conv_12_expand_Conv2Dx_pad_type_0"), val = tensor<string, []>("same")];
            tensor<int32, [2]> model_1_model_expanded_conv_12_expand_Conv2Dx_strides_0 = const()[name = tensor<string, []>("model_1_model_expanded_conv_12_expand_Conv2Dx_strides_0"), val = tensor<int32, [2]>([1, 1])];
            tensor<int32, [2]> model_1_model_expanded_conv_12_expand_Conv2Dx_dilations_0 = const()[name = tensor<string, []>("model_1_model_expanded_conv_12_expand_Conv2Dx_dilations_0"), val = tensor<int32, [2]>([1, 1])];
            tensor<int32, []> model_1_model_expanded_conv_12_expand_Conv2Dx_groups_0 = const()[name = tensor<string, []>("model_1_model_expanded_conv_12_expand_Conv2Dx_groups_0"), val = tensor<int32, []>(1)];
            tensor<int32, [4]> model_1_model_expanded_conv_12_expand_Conv2Dx_pad_0 = const()[name = tensor<string, []>("model_1_model_expanded_conv_12_expand_Conv2Dx_pad_0"), val = tensor<int32, [4]>([0, 0, 0, 0])];
            tensor<fp16, [672, 112, 1, 1]> const_170_to_fp16 = const()[name = tensor<string, []>("const_170_to_fp16"), val = tensor<fp16, [672, 112, 1, 1]>(BLOBFILE(path = tensor<string, []>("@model_path/weights/weight.bin"), offset = tensor<uint64, []>(1581184)))];
            tensor<fp16, [672]> const_171_to_fp16 = const()[name = tensor<string, []>("const_171_to_fp16"), val = tensor<fp16, [672]>(BLOBFILE(path = tensor<string, []>("@model_path/weights/weight.bin"), offset = tensor<uint64, []>(1731776)))];
            tensor<fp16, [1, 672, 10, 16]> model_1_model_expanded_conv_12_expand_BatchNorm_FusedBatchNormV3_nchw_cast_fp16 = conv(bias = const_171_to_fp16, dilations = model_1_model_expanded_conv_12_expand_Conv2Dx_dilations_0, groups = model_1_model_expanded_conv_12_expand_Conv2Dx_groups_0, pad = model_1_model_expanded_conv_12_expand_Conv2Dx_pad_0, pad_type = model_1_model_expanded_conv_12_expand_Conv2Dx_pad_type_0, strides = model_1_model_expanded_conv_12_expand_Conv2Dx_strides_0, weight = const_170_to_fp16, x = model_1_model_expanded_conv_11_Add_add_cast_fp16)[name = tensor<string, []>("model_1_model_expanded_conv_12_expand_BatchNorm_FusedBatchNormV3_nchw_cast_fp16")];
            tensor<fp16, []> model_1_model_tf___operators___add_46_y_to_fp16 = const()[name = tensor<string, []>("model_1_model_tf___operators___add_46_y_to_fp16"), val = tensor<fp16, []>(0x1.8p+1)];
            tensor<fp16, [1, 672, 10, 16]> model_1_model_tf___operators___add_46_AddV2_cast_fp16 = add(x = model_1_model_expanded_conv_12_expand_BatchNorm_FusedBatchNormV3_nchw_cast_fp16, y = model_1_model_tf___operators___add_46_y_to_fp16)[name = tensor<string, []>("model_1_model_tf___operators___add_46_AddV2_cast_fp16")];
            tensor<fp16, [1, 672, 10, 16]> model_1_model_re_lu_29_Relu6_cast_fp16 = relu6(x = model_1_model_tf___operators___add_46_AddV2_cast_fp16)[name = tensor<string, []>("model_1_model_re_lu_29_Relu6_cast_fp16")];
            tensor<fp16, []> model_1_model_tf_math_multiply_45_Mul_y_to_fp16 = const()[name = tensor<string, []>("model_1_model_tf_math_multiply_45_Mul_y_to_fp16"), val = tensor<fp16, []>(0x1.554p-3)];
            tensor<fp16, [1, 672, 10, 16]> model_1_model_tf_math_multiply_45_Mul_cast_fp16 = mul(x = model_1_model_re_lu_29_Relu6_cast_fp16, y = model_1_model_tf_math_multiply_45_Mul_y_to_fp16)[name = tensor<string, []>("model_1_model_tf_math_multiply_45_Mul_cast_fp16")];
            tensor<fp16, [1, 672, 10, 16]> model_1_model_multiply_13_mul_cast_fp16 = mul(x = model_1_model_expanded_conv_12_expand_BatchNorm_FusedBatchNormV3_nchw_cast_fp16, y = model_1_model_tf_math_multiply_45_Mul_cast_fp16)[name = tensor<string, []>("model_1_model_multiply_13_mul_cast_fp16")];
            tensor<string, []> pad_3_mode_0 = const()[name = tensor<string, []>("pad_3_mode_0"), val = tensor<string, []>("constant")];
            tensor<int32, [8]> pad_7_pad_0 = const()[name = tensor<string, []>("pad_7_pad_0"), val = tensor<int32, [8]>([0, 0, 0, 0, 1, 2, 1, 2])];
            tensor<fp16, []> const_3_to_fp16 = const()[name = tensor<string, []>("const_3_to_fp16"), val = tensor<fp16, []>(0x0p+0)];
            tensor<fp16, [1, 672, 13, 19]> pad_7_cast_fp16 = pad(constant_val = const_3_to_fp16, mode = pad_3_mode_0, pad = pad_7_pad_0, x = model_1_model_multiply_13_mul_cast_fp16)[name = tensor<string, []>("pad_7_cast_fp16")];
            tensor<string, []> model_1_model_expanded_conv_12_depthwise_depthwisex_pad_type_0 = const()[name = tensor<string, []>("model_1_model_expanded_conv_12_depthwise_depthwisex_pad_type_0"), val = tensor<string, []>("valid")];
            tensor<int32, [2]> model_1_model_expanded_conv_12_depthwise_depthwisex_strides_0 = const()[name = tensor<string, []>("model_1_model_expanded_conv_12_depthwise_depthwisex_strides_0"), val = tensor<int32, [2]>([2, 2])];
…
            tensor<int32, [2]> model_1_depthwise_conv2d_depthwisex_dilations_0 = const()[name = tensor<string, []>("model_1_depthwise_conv2d_depthwisex_dilations_0"), val = tensor<int32, [2]>([1, 1])];
            tensor<int32, []> model_1_depthwise_conv2d_depthwisex_groups_0 = const()[name = tensor<string, []>("model_1_depthwise_conv2d_depthwisex_groups_0"), val = tensor<int32, []>(128)];
            tensor<int32, [4]> model_1_depthwise_conv2d_depthwisex_pad_0 = const()[name = tensor<string, []>("model_1_depthwise_conv2d_depthwisex_pad_0"), val = tensor<int32, [4]>([0, 0, 0, 0])];
            tensor<fp16, [128, 1, 3, 3]> const_190_to_fp16 = const()[name = tensor<string, []>("const_190_to_fp16"), val = tensor<fp16, [128, 1, 3, 3]>(BLOBFILE(path = tensor<string, []>("@model_path/weights/weight.bin"), offset = tensor<uint64, []>(6912448)))];
            tensor<fp16, [128]> const_191_to_fp16 = const()[name = tensor<string, []>("const_191_to_fp16"), val = tensor<fp16, [128]>(BLOBFILE(path = tensor<string, []>("@model_path/weights/weight.bin"), offset = tensor<uint64, []>(6914816)))];
            tensor<fp16, [1, 128, 10, 16]> model_1_batch_normalization_FusedBatchNormV3_nchw_cast_fp16 = conv(bias = const_191_to_fp16, dilations = model_1_depthwise_conv2d_depthwisex_dilations_0, groups = model_1_depthwise_conv2d_depthwisex_groups_0, pad = model_1_depthwise_conv2d_depthwisex_pad_0, pad_type = model_1_depthwise_conv2d_depthwisex_pad_type_0, strides = model_1_depthwise_conv2d_depthwisex_strides_0, weight = const_190_to_fp16, x = model_1_conv2d_transpose_BiasAdd_cast_fp16)[name = tensor<string, []>("model_1_batch_normalization_FusedBatchNormV3_nchw_cast_fp16")];
            tensor<fp16, [1, 128, 10, 16]> model_1_re_lu_39_Relu_cast_fp16 = relu(x = model_1_batch_normalization_FusedBatchNormV3_nchw_cast_fp16)[name = tensor<string, []>("model_1_re_lu_39_Relu_cast_fp16")];
            tensor<string, []> model_1_conv2d_Conv2Dx_pad_type_0 = const()[name = tensor<string, []>("model_1_conv2d_Conv2Dx_pad_type_0"), val = tensor<string, []>("same")];
            tensor<int32, [2]> model_1_conv2d_Conv2Dx_strides_0 = const()[name = tensor<string, []>("model_1_conv2d_Conv2Dx_strides_0"), val = tensor<int32, [2]>([1, 1])];
            tensor<int32, [2]> model_1_conv2d_Conv2Dx_dilations_0 = const()[name = tensor<string, []>("model_1_conv2d_Conv2Dx_dilations_0"), val = tensor<int32, [2]>([1, 1])];
            tensor<int32, []> model_1_conv2d_Conv2Dx_groups_0 = const()[name = tensor<string, []>("model_1_conv2d_Conv2Dx_groups_0"), val = tensor<int32, []>(1)];
            tensor<int32, [4]> model_1_conv2d_Conv2Dx_pad_0 = const()[name = tensor<string, []>("model_1_conv2d_Conv2Dx_pad_0"), val = tensor<int32, [4]>([0, 0, 0, 0])];
            tensor<fp16, [128, 128, 1, 1]> const_192_to_fp16 = const()[name = tensor<string, []>("const_192_to_fp16"), val = tensor<fp16, [128, 128, 1, 1]>(BLOBFILE(path = tensor<string, []>("@model_path/weights/weight.bin"), offset = tensor<uint64, []>(6915136)))];
            tensor<fp16, [128]> const_193_to_fp16 = const()[name = tensor<string, []>("const_193_to_fp16"), val = tensor<fp16, [128]>(BLOBFILE(path = tensor<string, []>("@model_path/weights/weight.bin"), offset = tensor<uint64, []>(6947968)))];
            tensor<fp16, [1, 128, 10, 16]> model_1_batch_normalization_1_FusedBatchNormV3_nchw_cast_fp16 = conv(bias = const_193_to_fp16, dilations = model_1_conv2d_Conv2Dx_dilations_0, groups = model_1_conv2d_Conv2Dx_groups_0, pad = model_1_conv2d_Conv2Dx_pad_0, pad_type = model_1_conv2d_Conv2Dx_pad_type_0, strides = model_1_conv2d_Conv2Dx_strides_0, weight = const_192_to_fp16, x = model_1_re_lu_39_Relu_cast_fp16)[name = tensor<string, []>("model_1_batch_normalization_1_FusedBatchNormV3_nchw_cast_fp16")];
            tensor<fp16, [1, 128, 10, 16]> model_1_re_lu_40_Relu_cast_fp16 = relu(x = model_1_batch_normalization_1_FusedBatchNormV3_nchw_cast_fp16)[name = tensor<string, []>("model_1_re_lu_40_Relu_cast_fp16")];
            tensor<bool, []> model_1_concatenate_concat_interleave_0 = const()[name = tensor<string, []>("model_1_concatenate_concat_interleave_0"), val = tensor<bool, []>(false)];
            tensor<int32, []> const_22 = const()[name = tensor<string, []>("const_22"), val = tensor<int32, []>(1)];
            tensor<fp16, [1, 800, 10, 16]> model_1_concatenate_concat_cast_fp16 = concat(axis = const_22, interleave = model_1_concatenate_concat_interleave_0, values = (model_1_re_lu_40_Relu_cast_fp16, model_1_model_re_lu_29_Relu6_cast_fp16))[name = tensor<string, []>("model_1_concatenate_concat_cast_fp16")];
            tensor<string, []> model_1_depthwise_conv2d_1_depthwisex_pad_type_0 = const()[name = tensor<string, []>("model_1_depthwise_conv2d_1_depthwisex_pad_type_0"), val = tensor<string, []>("same")];
            tensor<int32, [2]> model_1_depthwise_conv2d_1_depthwisex_strides_0 = const()[name = tensor<string, []>("model_1_depthwise_conv2d_1_depthwisex_strides_0"), val = tensor<int32, [2]>([1, 1])];
            tensor<int32, [2]> model_1_depthwise_conv2d_1_depthwisex_dilations_0 = const()[name = tensor<string, []>("model_1_depthwise_conv2d_1_depthwisex_dilations_0"), val = tensor<int32, [2]>([1, 1])];
            tensor<int32, []> model_1_depthwise_conv2d_1_depthwisex_groups_0 = const()[name = tensor<string, []>("model_1_depthwise_conv2d_1_depthwisex_groups_0"), val = tensor<int32, []>(800)];
            tensor<int32, [4]> model_1_depthwise_conv2d_1_depthwisex_pad_0 = const()[name = tensor<string, []>("model_1_depthwise_conv2d_1_depthwisex_pad_0"), val = tensor<int32, [4]>([0, 0, 0, 0])];
            tensor<fp16, [800, 1, 3, 3]> const_194_to_fp16 = const()[name = tensor<string, []>("const_194_to_fp16"), val = tensor<fp16, [800, 1, 3, 3]>(BLOBFILE(path = tensor<string, []>("@model_path/weights/weight.bin"), offset = tensor<uint64, []>(6948288)))];
            tensor<fp16, [800]> const_195_to_fp16 = const()[name = tensor<string, []>("const_195_to_fp16"), val = tensor<fp16, [800]>(BLOBFILE(path = tensor<string, []>("@model_path/weights/weight.bin"), offset = tensor<uint64, []>(6962752)))];
            tensor<fp16, [1, 800, 10, 16]> model_1_batch_normalization_2_FusedBatchNormV3_nchw_cast_fp16 = conv(bias = const_195_to_fp16, dilations = model_1_depthwise_conv2d_1_depthwisex_dilations_0, groups = model_1_depthwise_conv2d_1_depthwisex_groups_0, pad = model_1_depthwise_conv2d_1_depthwisex_pad_0, pad_type = model_1_depthwise_conv2d_1_depthwisex_pad_type_0, strides = model_1_depthwise_conv2d_1_depthwisex_strides_0, weight = const_194_to_fp16, x = model_1_concatenate_concat_cast_fp16)[name = tensor<string, []>("model_1_batch_normalization_2_FusedBatchNormV3_nchw_cast_fp16")];
            tensor<fp16, [1, 800, 10, 16]> model_1_re_lu_41_Relu_cast_fp16 = relu(x = model_1_batch_normalization_2_FusedBatchNormV3_nchw_cast_fp16)[name = tensor<string, []>("model_1_re_lu_41_Relu_cast_fp16")];
            tensor<string, []> model_1_conv2d_1_Conv2Dx_pad_type_0 = const()[name = tensor<string, []>("model_1_conv2d_1_Conv2Dx_pad_type_0"), val = tensor<string, []>("same")];
            tensor<int32, [2]> model_1_conv2d_1_Conv2Dx_strides_0 = const()[name = tensor<string, []>("model_1_conv2d_1_Conv2Dx_strides_0"), val = tensor<int32, [2]>([1, 1])];
            tensor<int32, [2]> model_1_conv2d_1_Conv2Dx_dilations_0 = const()[name = tensor<string, []>("model_1_conv2d_1_Conv2Dx_dilations_0"), val = tensor<int32, [2]>([1, 1])];
            tensor<int32, []> model_1_conv2d_1_Conv2Dx_groups_0 = const()[name = tensor<string, []>("model_1_conv2d_1_Conv2Dx_groups_0"), val = tensor<int32, []>(1)];
            tensor<int32, [4]> model_1_conv2d_1_Conv2Dx_pad_0 = const()[name = tensor<string, []>("model_1_conv2d_1_Conv2Dx_pad_0"), val = tensor<int32, [4]>([0, 0, 0, 0])];
            tensor<fp16, [800, 800, 1, 1]> const_196_to_fp16 = const()[name = tensor<string, []>("const_196_to_fp16"), val = tensor<fp16, [800, 800, 1, 1]>(BLOBFILE(path = tensor<string, []>("@model_path/weights/weight.bin"), offset = tensor<uint64, []>(6964416)))];
            tensor<fp16, [800]> const_197_to_fp16 = const()[name = tensor<string, []>("const_197_to_fp16"), val = tensor<fp16, [800]>(BLOBFILE(path = tensor<string, []>("@model_path/weights/weight.bin"), offset = tensor<uint64, []>(8244480)))];
            tensor<fp16, [1, 800, 10, 16]> model_1_batch_normalization_3_FusedBatchNormV3_nchw_cast_fp16 = conv(bias = const_197_to_fp16, dilations = model_1_conv2d_1_Conv2Dx_dilations_0, groups = model_1_conv2d_1_Conv2Dx_groups_0, pad = model_1_conv2d_1_Conv2Dx_pad_0, pad_type = model_1_conv2d_1_Conv2Dx_pad_type_0, strides = model_1_conv2d_1_Conv2Dx_strides_0, weight = const_196_to_fp16, x = model_1_re_lu_41_Relu_cast_fp16)[name = tensor<string, []>("model_1_batch_normalization_3_FusedBatchNormV3_nchw_cast_fp16")];
            tensor<fp16, [1, 800, 10, 16]> model_1_re_lu_42_Relu_cast_fp16 = relu(x = model_1_batch_normalization_3_FusedBatchNormV3_nchw_cast_fp16)[name = tensor<string, []>("model_1_re_lu_42_Relu_cast_fp16")];
            tensor<string, []> model_1_conv2d_transpose_1_conv2d_transposex_pad_type_0 = const()[name = tensor<string, []>("model_1_conv2d_transpose_1_conv2d_transposex_pad_type_0"), val = tensor<string, []>("same")];
            tensor<int32, [4]> model_1_conv2d_transpose_1_conv2d_transposex_output_shape_0 = const()[name = tensor<string, []>("model_1_conv2d_transpose_1_conv2d_transposex_output_shape_0"), val = tensor<int32, [4]>([1, 64, 20, 32])];
            tensor<int32, [2]> model_1_conv2d_transpose_1_conv2d_transposex_strides_0 = const()[name = tensor<string, []>("model_1_conv2d_transpose_1_conv2d_transposex_strides_0"), val = tensor<int32, [2]>([2, 2])];
            tensor<int32, [2]> model_1_conv2d_transpose_1_conv2d_transposex_dilations_0 = const()[name = tensor<string, []>("model_1_conv2d_transpose_1_conv2d_transposex_dilations_0"), val = tensor<int32, [2]>([1, 1])];
            tensor<int32, [4]> model_1_conv2d_transpose_1_conv2d_transposex_pad_0 = const()[name = tensor<string, []>("model_1_conv2d_transpose_1_conv2d_transposex_pad_0"), val = tensor<int32, [4]>([0, 0, 0, 0])];
            tensor<int32, []> model_1_conv2d_transpose_1_conv2d_transposex_groups_0 = const()[name = tensor<string, []>("model_1_conv2d_transpose_1_conv2d_transposex_groups_0"), val = tensor<int32, []>(1)];
            tensor<fp16, [800, 64, 2, 2]> transpose_184_to_fp16 = const()[name = tensor<string, []>("transpose_184_to_fp16"), val = tensor<fp16, [800, 64, 2, 2]>(BLOBFILE(path = tensor<string, []>("@model_path/weights/weight.bin"), offset = tensor<uint64, []>(8246144)))];
            tensor<fp16, [64]> const_74_to_fp16 = const()[name = tensor<string, []>("const_74_to_fp16"), val = tensor<fp16, [64]>(BLOBFILE(path = tensor<string, []>("@model_path/weights/weight.bin"), offset = tensor<uint64, []>(8655808)))];
            tensor<fp16, [1, 64, 20, 32]> model_1_conv2d_transpose_1_BiasAdd_cast_fp16 = conv_transpose(bias = const_74_to_fp16, dilations = model_1_conv2d_transpose_1_conv2d_transposex_dilations_0, groups = model_1_conv2d_transpose_1_conv2d_transposex_groups_0, output_shape = model_1_conv2d_transpose_1_conv2d_transposex_output_shape_0, pad = model_1_conv2d_transpose_1_conv2d_transposex_pad_0, pad_type = model_1_conv2d_transpose_1_conv2d_transposex_pad_type_0, strides = model_1_conv2d_transpose_1_conv2d_transposex_strides_0, weight = transpose_184_to_fp16, x = model_1_re_lu_42_Relu_cast_fp16)[name = tensor<string, []>("model_1_conv2d_transpose_1_BiasAdd_cast_fp16")];
            tensor<string, []> model_1_depthwise_conv2d_2_depthwisex_pad_type_0 = const()[name = tensor<string, []>("model_1_depthwise_conv2d_2_depthwisex_pad_type_0"), val = tensor<string, []>("same")];
            tensor<int32, [2]> model_1_depthwise_conv2d_2_depthwisex_strides_0 = const()[name = tensor<string, []>("model_1_depthwise_conv2d_2_depthwisex_strides_0"), val = tensor<int32, [2]>([1, 1])];
            tensor<int32, [2]> model_1_depthwise_conv2d_2_depthwisex_dilations_0 = const()[name = tensor<string, []>("model_1_depthwise_conv2d_2_depthwisex_dilations_0"), val = tensor<int32, [2]>([1, 1])];
            tensor<int32, []> model_1_depthwise_conv2d_2_depthwisex_groups_0 = const()[name = tensor<string, []>("model_1_depthwise_conv2d_2_depthwisex_groups_0"), val = tensor<int32, []>(64)];
            tensor<int32, [4]> model_1_depthwise_conv2d_2_depthwisex_pad_0 = const()[name = tensor<string, []>("model_1_depthwise_conv2d_2_depthwisex_pad_0"), val = tensor<int32, [4]>([0, 0, 0, 0])];
            tensor<fp16, [64, 1, 3, 3]> const_198_to_fp16 = const()[name = tensor<string, []>("const_198_to_fp16"), val = tensor<fp16, [64, 1, 3, 3]>(BLOBFILE(path = tensor<string, []>("@model_path/weights/weight.bin"), offset = tensor<uint64, []>(8656000)))];
            tensor<fp16, [64]> const_199_to_fp16 = const()[name = tensor<string, []>("const_199_to_fp16"), val = tensor<fp16, [64]>(BLOBFILE(path = tensor<string, []>("@model_path/weights/weight.bin"), offset = tensor<uint64, []>(8657216)))];
            tensor<fp16, [1, 64, 20, 32]> model_1_batch_normalization_4_FusedBatchNormV3_nchw_cast_fp16 = conv(bias = const_199_to_fp16, dilations = model_1_depthwise_conv2d_2_depthwisex_dilations_0, groups = model_1_depthwise_conv2d_2_depthwisex_groups_0, pad = model_1_depthwise_conv2d_2_depthwisex_pad_0, pad_type = model_1_depthwise_conv2d_2_depthwisex_pad_type_0, strides = model_1_depthwise_conv2d_2_depthwisex_strides_0, weight = const_198_to_fp16, x = model_1_conv2d_transpose_1_BiasAdd_cast_fp16)[name = tensor<string, []>("model_1_batch_normalization_4_FusedBatchNormV3_nchw_cast_fp16")];
            tensor<fp16, [1, 64, 20, 32]> model_1_re_lu_43_Relu_cast_fp16 = relu(x = model_1_batch_normalization_4_FusedBatchNormV3_nchw_cast_fp16)[name = tensor<string, []>("model_1_re_lu_43_Relu_cast_fp16")];
            tensor<string, []> model_1_conv2d_2_Conv2Dx_pad_type_0 = const()[name = tensor<string, []>("model_1_conv2d_2_Conv2Dx_pad_type_0"), val = tensor<string, []>("same")];
            tensor<int32, [2]> model_1_conv2d_2_Conv2Dx_strides_0 = const()[name = tensor<string, []>("model_1_conv2d_2_Conv2Dx_strides_0"), val = tensor<int32, [2]>([1, 1])];
            tensor<int32, [2]> model_1_conv2d_2_Conv2Dx_dilations_0 = const()[name = tensor<string, []>("model_1_conv2d_2_Conv2Dx_dilations_0"), val = tensor<int32, [2]>([1, 1])];
            tensor<int32, []> model_1_conv2d_2_Conv2Dx_groups_0 = const()[name = tensor<string, []>("model_1_conv2d_2_Conv2Dx_groups_0"), val = tensor<int32, []>(1)];
            tensor<int32, [4]> model_1_conv2d_2_Conv2Dx_pad_0 = const()[name = tensor<string, []>("model_1_conv2d_2_Conv2Dx_pad_0"), val = tensor<int32, [4]>([0, 0, 0, 0])];
            tensor<fp16, [64, 64, 1, 1]> const_200_to_fp16 = const()[name = tensor<string, []>("const_200_to_fp16"), val = tensor<fp16, [64, 64, 1, 1]>(BLOBFILE(path = tensor<string, []>("@model_path/weights/weight.bin"), offset = tensor<uint64, []>(8657408)))];
            tensor<fp16, [64]> const_201_to_fp16 = const()[name = tensor<string, []>("const_201_to_fp16"), val = tensor<fp16, [64]>(BLOBFILE(path = tensor<string, []>("@model_path/weights/weight.bin"), offset = tensor<uint64, []>(8665664)))];
            tensor<fp16, [1, 64, 20, 32]> model_1_batch_normalization_5_FusedBatchNormV3_nchw_cast_fp16 = conv(bias = const_201_to_fp16, dilations = model_1_conv2d_2_Conv2Dx_dilations_0, groups = model_1_conv2d_2_Conv2Dx_groups_0, pad = model_1_conv2d_2_Conv2Dx_pad_0, pad_type = model_1_conv2d_2_Conv2Dx_pad_type_0, strides = model_1_conv2d_2_Conv2Dx_strides_0, weight = const_200_to_fp16, x = model_1_re_lu_43_Relu_cast_fp16)[name = tensor<string, []>("model_1_batch_normalization_5_FusedBatchNormV3_nchw_cast_fp16")];
            tensor<fp16, [1, 64, 20, 32]> model_1_re_lu_44_Relu_cast_fp16 = relu(x = model_1_batch_normalization_5_FusedBatchNormV3_nchw_cast_fp16)[name = tensor<string, []>("model_1_re_lu_44_Relu_cast_fp16")];
            tensor<bool, []> model_1_concatenate_1_concat_interleave_0 = const()[name = tensor<string, []>("model_1_concatenate_1_concat_interleave_0"), val = tensor<bool, []>(false)];
            tensor<int32, []> const_15 = const()[name = tensor<string, []>("const_15"), val = tensor<int32, []>(1)];
            tensor<fp16, [1, 304, 20, 32]> model_1_concatenate_1_concat_cast_fp16 = concat(axis = const_15, interleave = model_1_concatenate_1_concat_interleave_0, values = (model_1_re_lu_44_Relu_cast_fp16, model_1_model_re_lu_15_Relu6_cast_fp16))[name = tensor<string, []>("model_1_concatenate_1_concat_cast_fp16")];
            tensor<string, []> model_1_depthwise_conv2d_3_depthwisex_pad_type_0 = const()[name = tensor<string, []>("model_1_depthwise_conv2d_3_depthwisex_pad_type_0"), val = tensor<string, []>("same")];
            tensor<int32, [2]> model_1_depthwise_conv2d_3_depthwisex_strides_0 = const()[name = tensor<string, []>("model_1_depthwise_conv2d_3_depthwisex_strides_0"), val = tensor<int32, [2]>([1, 1])];
            tensor<int32, [2]> model_1_depthwise_conv2d_3_depthwisex_dilations_0 = const()[name = tensor<string, []>("model_1_depthwise_conv2d_3_depthwisex_dilations_0"), val = tensor<int32, [2]>([1, 1])];
            tensor<int32, []> model_1_depthwise_conv2d_3_depthwisex_groups_0 = const()[name = tensor<string, []>("model_1_depthwise_conv2d_3_depthwisex_groups_0"), val = tensor<int32, []>(304)];
            tensor<int32, [4]> model_1_depthwise_conv2d_3_depthwisex_pad_0 = const()[name = tensor<string, []>("model_1_depthwise_conv2d_3_depthwisex_pad_0"), val = tensor<int32, [4]>([0, 0, 0, 0])];
            tensor<fp16, [304, 1, 3, 3]> const_202_to_fp16 = const()[name = tensor<string, []>("const_202_to_fp16"), val = tensor<fp16, [304, 1, 3, 3]>(BLOBFILE(path = tensor<string, []>("@model_path/weights/weight.bin"), offset = tensor<uint64, []>(8665856)))];
            tensor<fp16, [304]> const_203_to_fp16 = const()[name = tensor<string, []>("const_203_to_fp16"), val = tensor<fp16, [304]>(BLOBFILE(path = tensor<string, []>("@model_path/weights/weight.bin"), offset = tensor<uint64, []>(8671424)))];
            tensor<fp16, [1, 304, 20, 32]> model_1_batch_normalization_6_FusedBatchNormV3_nchw_cast_fp16 = conv(bias = const_203_to_fp16, dilations = model_1_depthwise_conv2d_3_depthwisex_dilations_0, groups = model_1_depthwise_conv2d_3_depthwisex_groups_0, pad = model_1_depthwise_conv2d_3_depthwisex_pad_0, pad_type = model_1_depthwise_conv2d_3_depthwisex_pad_type_0, strides = model_1_depthwise_conv2d_3_depthwisex_strides_0, weight = const_202_to_fp16, x = model_1_concatenate_1_concat_cast_fp16)[name = tensor<string, []>("model_1_batch_normalization_6_FusedBatchNormV3_nchw_cast_fp16")];
            tensor<fp16, [1, 304, 20, 32]> model_1_re_lu_45_Relu_cast_fp16 = relu(x = model_1_batch_normalization_6_FusedBatchNormV3_nchw_cast_fp16)[name = tensor<string, []>("model_1_re_lu_45_Relu_cast_fp16")];
            tensor<string, []> model_1_conv2d_3_Conv2Dx_pad_type_0 = const()[name = tensor<string, []>("model_1_conv2d_3_Conv2Dx_pad_type_0"), val = tensor<string, []>("same")];
            tensor<int32, [2]> model_1_conv2d_3_Conv2Dx_strides_0 = const()[name = tensor<string, []>("model_1_conv2d_3_Conv2Dx_strides_0"), val = tensor<int32, [2]>([1, 1])];
            tensor<int32, [2]> model_1_conv2d_3_Conv2Dx_dilations_0 = const()[name = tensor<string, []>("model_1_conv2d_3_Conv2Dx_dilations_0"), val = tensor<int32, [2]>([1, 1])];
            tensor<int32, []> model_1_conv2d_3_Conv2Dx_groups_0 = const()[name = tensor<string, []>("model_1_conv2d_3_Conv2Dx_groups_0"), val = tensor<int32, []>(1)];
            tensor<int32, [4]> model_1_conv2d_3_Conv2Dx_pad_0 = const()[name = tensor<string, []>("model_1_conv2d_3_Conv2Dx_pad_0"), val = tensor<int32, [4]>([0, 0, 0, 0])];
            tensor<fp16, [304, 304, 1, 1]> const_204_to_fp16 = const()[name = tensor<string, []>("const_204_to_fp16"), val = tensor<fp16, [304, 304, 1, 1]>(BLOBFILE(path = tensor<string, []>("@model_path/weights/weight.bin"), offset = tensor<uint64, []>(8672128)))];
            tensor<fp16, [304]> const_205_to_fp16 = const()[name = tensor<string, []>("const_205_to_fp16"), val = tensor<fp16, [304]>(BLOBFILE(path = tensor<string, []>("@model_path/weights/weight.bin"), offset = tensor<uint64, []>(8857024)))];
            tensor<fp16, [1, 304, 20, 32]> model_1_batch_normalization_7_FusedBatchNormV3_nchw_cast_fp16 = conv(bias = const_205_to_fp16, dilations = model_1_conv2d_3_Conv2Dx_dilations_0, groups = model_1_conv2d_3_Conv2Dx_groups_0, pad = model_1_conv2d_3_Conv2Dx_pad_0, pad_type = model_1_conv2d_3_Conv2Dx_pad_type_0, strides = model_1_conv2d_3_Conv2Dx_strides_0, weight = const_204_to_fp16, x = model_1_re_lu_45_Relu_cast_fp16)[name = tensor<string, []>("model_1_batch_normalization_7_FusedBatchNormV3_nchw_cast_fp16")];
            tensor<fp16, [1, 304, 20, 32]> model_1_re_lu_46_Relu_cast_fp16 = relu(x = model_1_batch_normalization_7_FusedBatchNormV3_nchw_cast_fp16)[name = tensor<string, []>("model_1_re_lu_46_Relu_cast_fp16")];
            tensor<string, []> model_1_conv2d_transpose_2_conv2d_transposex_pad_type_0 = const()[name = tensor<string, []>("model_1_conv2d_transpose_2_conv2d_transposex_pad_type_0"), val = tensor<string, []>("same")];
            tensor<int32, [4]> model_1_conv2d_transpose_2_conv2d_transposex_output_shape_0 = const()[name = tensor<string, []>("model_1_conv2d_transpose_2_conv2d_transposex_output_shape_0"), val = tensor<int32, [4]>([1, 32, 40, 64])];
            tensor<int32, [2]> model_1_conv2d_transpose_2_conv2d_transposex_strides_0 = const()[name = tensor<string, []>("model_1_conv2d_transpose_2_conv2d_transposex_strides_0"), val = tensor<int32, [2]>([2, 2])];
            tensor<int32, [2]> model_1_conv2d_transpose_2_conv2d_transposex_dilations_0 = const()[name = tensor<string, []>("model_1_conv2d_transpose_2_conv2d_transposex_dilations_0"), val = tensor<int32, [2]>([1, 1])];
            tensor<int32, [4]> model_1_conv2d_transpose_2_conv2d_transposex_pad_0 = const()[name = tensor<string, []>("model_1_conv2d_transpose_2_conv2d_transposex_pad_0"), val = tensor<int32, [4]>([0, 0, 0, 0])];
            tensor<int32, []> model_1_conv2d_transpose_2_conv2d_transposex_groups_0 = const()[name = tensor<string, []>("model_1_conv2d_transpose_2_conv2d_transposex_groups_0"), val = tensor<int32, []>(1)];
            tensor<fp16, [304, 32, 2, 2]> transpose_198_to_fp16 = const()[name = tensor<string, []>("transpose_198_to_fp16"), val = tensor<fp16, [304, 32, 2, 2]>(BLOBFILE(path = tensor<string, []>("@model_path/weights/weight.bin"), offset = tensor<uint64, []>(8857728)))];
            tensor<fp16, [32]> const_79_to_fp16 = const()[name = tensor<string, []>("const_79_to_fp16"), val = tensor<fp16, [32]>(BLOBFILE(path = tensor<string, []>("@model_path/weights/weight.bin"), offset = tensor<uint64, []>(8935616)))];
            tensor<fp16, [1, 32, 40, 64]> model_1_conv2d_transpose_2_BiasAdd_cast_fp16 = conv_transpose(bias = const_79_to_fp16, dilations = model_1_conv2d_transpose_2_conv2d_transposex_dilations_0, groups = model_1_conv2d_transpose_2_conv2d_transposex_groups_0, output_shape = model_1_conv2d_transpose_2_conv2d_transposex_output_shape_0, pad = model_1_conv2d_transpose_2_conv2d_transposex_pad_0, pad_type = model_1_conv2d_transpose_2_conv2d_transposex_pad_type_0, strides = model_1_conv2d_transpose_2_conv2d_transposex_strides_0, weight = transpose_198_to_fp16, x = model_1_re_lu_46_Relu_cast_fp16)[name = tensor<string, []>("model_1_conv2d_transpose_2_BiasAdd_cast_fp16")];
            tensor<string, []> model_1_depthwise_conv2d_4_depthwisex_pad_type_0 = const()[name = tensor<string, []>("model_1_depthwise_conv2d_4_depthwisex_pad_type_0"), val = tensor<string, []>("same")];
            tensor<int32, [2]> model_1_depthwise_conv2d_4_depthwisex_strides_0 = const()[name = tensor<string, []>("model_1_depthwise_conv2d_4_depthwisex_strides_0"), val = tensor<int32, [2]>([1, 1])];
            tensor<int32, [2]> model_1_depthwise_conv2d_4_depthwisex_dilations_0 = const()[name = tensor<string, []>("model_1_depthwise_conv2d_4_depthwisex_dilations_0"), val = tensor<int32, [2]>([1, 1])];
            tensor<int32, []> model_1_depthwise_conv2d_4_depthwisex_groups_0 = const()[name = tensor<string, []>("model_1_depthwise_conv2d_4_depthwisex_groups_0"), val = tensor<int32, []>(32)];
            tensor<int32, [4]> model_1_depthwise_conv2d_4_depthwisex_pad_0 = const()[name = tensor<string, []>("model_1_depthwise_conv2d_4_depthwisex_pad_0"), val = tensor<int32, [4]>([0, 0, 0, 0])];
            tensor<fp16, [32, 1, 3, 3]> const_206_to_fp16 = const()[name = tensor<string, []>("const_206_to_fp16"), val = tensor<fp16, [32, 1, 3, 3]>(BLOBFILE(path = tensor<string, []>("@model_path/weights/weight.bin"), offset = tensor<uint64, []>(8935744)))];
            tensor<fp16, [32]> const_207_to_fp16 = const()[name = tensor<string, []>("const_207_to_fp16"), val = tensor<fp16, [32]>(BLOBFILE(path = tensor<string, []>("@model_path/weights/weight.bin"), offset = tensor<uint64, []>(8936384)))];
            tensor<fp16, [1, 32, 40, 64]> model_1_batch_normalization_8_FusedBatchNormV3_nchw_cast_fp16 = conv(bias = const_207_to_fp16, dilations = model_1_depthwise_conv2d_4_depthwisex_dilations_0, groups = model_1_depthwise_conv2d_4_depthwisex_groups_0, pad = model_1_depthwise_conv2d_4_depthwisex_pad_0, pad_type = model_1_depthwise_conv2d_4_depthwisex_pad_type_0, strides = model_1_depthwise_conv2d_4_depthwisex_strides_0, weight = const_206_to_fp16, x = model_1_conv2d_transpose_2_BiasAdd_cast_fp16)[name = tensor<string, []>("model_1_batch_normalization_8_FusedBatchNormV3_nchw_cast_fp16")];
            tensor<fp16, [1, 32, 40, 64]> model_1_re_lu_47_Relu_cast_fp16 = relu(x = model_1_batch_normalization_8_FusedBatchNormV3_nchw_cast_fp16)[name = tensor<string, []>("model_1_re_lu_47_Relu_cast_fp16")];
            tensor<string, []> model_1_conv2d_4_Conv2Dx_pad_type_0 = const()[name = tensor<string, []>("model_1_conv2d_4_Conv2Dx_pad_type_0"), val = tensor<string, []>("same")];
            tensor<int32, [2]> model_1_conv2d_4_Conv2Dx_strides_0 = const()[name = tensor<string, []>("model_1_conv2d_4_Conv2Dx_strides_0"), val = tensor<int32, [2]>([1, 1])];
            tensor<int32, [2]> model_1_conv2d_4_Conv2Dx_dilations_0 = const()[name = tensor<string, []>("model_1_conv2d_4_Conv2Dx_dilations_0"), val = tensor<int32, [2]>([1, 1])];
            tensor<int32, []> model_1_conv2d_4_Conv2Dx_groups_0 = const()[name = tensor<string, []>("model_1_conv2d_4_Conv2Dx_groups_0"), val = tensor<int32, []>(1)];
            tensor<int32, [4]> model_1_conv2d_4_Conv2Dx_pad_0 = const()[name = tensor<string, []>("model_1_conv2d_4_Conv2Dx_pad_0"), val = tensor<int32, [4]>([0, 0, 0, 0])];
            tensor<fp16, [32, 32, 1, 1]> const_208_to_fp16 = const()[name = tensor<string, []>("const_208_to_fp16"), val = tensor<fp16, [32, 32, 1, 1]>(BLOBFILE(path = tensor<string, []>("@model_path/weights/weight.bin"), offset = tensor<uint64, []>(8936512)))];
            tensor<fp16, [32]> const_209_to_fp16 = const()[name = tensor<string, []>("const_209_to_fp16"), val = tensor<fp16, [32]>(BLOBFILE(path = tensor<string, []>("@model_path/weights/weight.bin"), offset = tensor<uint64, []>(8938624)))];
            tensor<fp16, [1, 32, 40, 64]> model_1_batch_normalization_9_FusedBatchNormV3_nchw_cast_fp16 = conv(bias = const_209_to_fp16, dilations = model_1_conv2d_4_Conv2Dx_dilations_0, groups = model_1_conv2d_4_Conv2Dx_groups_0, pad = model_1_conv2d_4_Conv2Dx_pad_0, pad_type = model_1_conv2d_4_Conv2Dx_pad_type_0, strides = model_1_conv2d_4_Conv2Dx_strides_0, weight = const_208_to_fp16, x = model_1_re_lu_47_Relu_cast_fp16)[name = tensor<string, []>("model_1_batch_normalization_9_FusedBatchNormV3_nchw_cast_fp16")];
            tensor<fp16, [1, 32, 40, 64]> model_1_re_lu_48_Relu_cast_fp16 = relu(x = model_1_batch_normalization_9_FusedBatchNormV3_nchw_cast_fp16)[name = tensor<string, []>("model_1_re_lu_48_Relu_cast_fp16")];
            tensor<bool, []> model_1_concatenate_2_concat_interleave_0 = const()[name = tensor<string, []>("model_1_concatenate_2_concat_interleave_0"), val = tensor<bool, []>(false)];
            tensor<int32, []> const_5 = const()[name = tensor<string, []>("const_5"), val = tensor<int32, []>(1)];
            tensor<fp16, [1, 104, 40, 64]> model_1_concatenate_2_concat_cast_fp16 = concat(axis = const_5, interleave = model_1_concatenate_2_concat_interleave_0, values = (model_1_re_lu_48_Relu_cast_fp16, model_1_model_re_lu_6_Relu_cast_fp16))[name = tensor<string, []>("model_1_concatenate_2_concat_cast_fp16")];
            tensor<string, []> model_1_depthwise_conv2d_5_depthwisex_pad_type_0 = const()[name = tensor<string, []>("model_1_depthwise_conv2d_5_depthwisex_pad_type_0"), val = tensor<string, []>("same")];
            tensor<int32, [2]> model_1_depthwise_conv2d_5_depthwisex_strides_0 = const()[name = tensor<string, []>("model_1_depthwise_conv2d_5_depthwisex_strides_0"), val = tensor<int32, [2]>([1, 1])];
            tensor<int32, [2]> model_1_depthwise_conv2d_5_depthwisex_dilations_0 = const()[name = tensor<string, []>("model_1_depthwise_conv2d_5_depthwisex_dilations_0"), val = tensor<int32, [2]>([1, 1])];
            tensor<int32, []> model_1_depthwise_conv2d_5_depthwisex_groups_0 = const()[name = tensor<string, []>("model_1_depthwise_conv2d_5_depthwisex_groups_0"), val = tensor<int32, []>(104)];
            tensor<int32, [4]> model_1_depthwise_conv2d_5_depthwisex_pad_0 = const()[name = tensor<string, []>("model_1_depthwise_conv2d_5_depthwisex_pad_0"), val = tensor<int32, [4]>([0, 0, 0, 0])];
            tensor<fp16, [104, 1, 3, 3]> const_210_to_fp16 = const()[name = tensor<string, []>("const_210_to_fp16"), val = tensor<fp16, [104, 1, 3, 3]>(BLOBFILE(path = tensor<string, []>("@model_path/weights/weight.bin"), offset = tensor<uint64, []>(8938752)))];
            tensor<fp16, [104]> const_211_to_fp16 = const()[name = tensor<string, []>("const_211_to_fp16"), val = tensor<fp16, [104]>(BLOBFILE(path = tensor<string, []>("@model_path/weights/weight.bin"), offset = tensor<uint64, []>(8940736)))];
            tensor<fp16, [1, 104, 40, 64]> model_1_batch_normalization_10_FusedBatchNormV3_nchw_cast_fp16 = conv(bias = const_211_to_fp16, dilations = model_1_depthwise_conv2d_5_depthwisex_dilations_0, groups = model_1_depthwise_conv2d_5_depthwisex_groups_0, pad = model_1_depthwise_conv2d_5_depthwisex_pad_0, pad_type = model_1_depthwise_conv2d_5_depthwisex_pad_type_0, strides = model_1_depthwise_conv2d_5_depthwisex_strides_0, weight = const_210_to_fp16, x = model_1_concatenate_2_concat_cast_fp16)[name = tensor<string, []>("model_1_batch_normalization_10_FusedBatchNormV3_nchw_cast_fp16")];
            tensor<fp16, [1, 104, 40, 64]> model_1_re_lu_49_Relu_cast_fp16 = relu(x = model_1_batch_normalization_10_FusedBatchNormV3_nchw_cast_fp16)[name = tensor<string, []>("model_1_re_lu_49_Relu_cast_fp16")];
            tensor<string, []> model_1_conv2d_5_Conv2Dx_pad_type_0 = const()[name = tensor<string, []>("model_1_conv2d_5_Conv2Dx_pad_type_0"), val = tensor<string, []>("same")];
            tensor<int32, [2]> model_1_conv2d_5_Conv2Dx_strides_0 = const()[name = tensor<string, []>("model_1_conv2d_5_Conv2Dx_strides_0"), val = tensor<int32, [2]>([1, 1])];
            tensor<int32, [2]> model_1_conv2d_5_Conv2Dx_dilations_0 = const()[name = tensor<string, []>("model_1_conv2d_5_Conv2Dx_dilations_0"), val = tensor<int32, [2]>([1, 1])];
            tensor<int32, []> model_1_conv2d_5_Conv2Dx_groups_0 = const()[name = tensor<string, []>("model_1_conv2d_5_Conv2Dx_groups_0"), val = tensor<int32, []>(1)];
            tensor<int32, [4]> model_1_conv2d_5_Conv2Dx_pad_0 = const()[name = tensor<string, []>("model_1_conv2d_5_Conv2Dx_pad_0"), val = tensor<int32, [4]>([0, 0, 0, 0])];
            tensor<fp16, [104, 104, 1, 1]> const_212_to_fp16 = const()[name = tensor<string, []>("const_212_to_fp16"), val = tensor<fp16, [104, 104, 1, 1]>(BLOBFILE(path = tensor<string, []>("@model_path/weights/weight.bin"), offset = tensor<uint64, []>(8941056)))];
            tensor<fp16, [104]> const_213_to_fp16 = const()[name = tensor<string, []>("const_213_to_fp16"), val = tensor<fp16, [104]>(BLOBFILE(path = tensor<string, []>("@model_path/weights/weight.bin"), offset = tensor<uint64, []>(8962752)))];
            tensor<fp16, [1, 104, 40, 64]> model_1_batch_normalization_11_FusedBatchNormV3_nchw_cast_fp16 = conv(bias = const_213_to_fp16, dilations = model_1_conv2d_5_Conv2Dx_dilations_0, groups = model_1_conv2d_5_Conv2Dx_groups_0, pad = model_1_conv2d_5_Conv2Dx_pad_0, pad_type = model_1_conv2d_5_Conv2Dx_pad_type_0, strides = model_1_conv2d_5_Conv2Dx_strides_0, weight = const_212_to_fp16, x = model_1_re_lu_49_Relu_cast_fp16)[name = tensor<string, []>("model_1_batch_normalization_11_FusedBatchNormV3_nchw_cast_fp16")];
            tensor<fp16, [1, 104, 40, 64]> model_1_re_lu_50_Relu_cast_fp16 = relu(x = model_1_batch_normalization_11_FusedBatchNormV3_nchw_cast_fp16)[name = tensor<string, []>("model_1_re_lu_50_Relu_cast_fp16")];
            tensor<string, []> model_1_conv2d_transpose_3_conv2d_transposex_pad_type_0 = const()[name = tensor<string, []>("model_1_conv2d_transpose_3_conv2d_transposex_pad_type_0"), val = tensor<string, []>("same")];
            tensor<int32, [4]> model_1_conv2d_transpose_3_conv2d_transposex_output_shape_0 = const()[name = tensor<string, []>("model_1_conv2d_transpose_3_conv2d_transposex_output_shape_0"), val = tensor<int32, [4]>([1, 16, 80, 128])];
            tensor<int32, [2]> model_1_conv2d_transpose_3_conv2d_transposex_strides_0 = const()[name = tensor<string, []>("model_1_conv2d_transpose_3_conv2d_transposex_strides_0"), val = tensor<int32, [2]>([2, 2])];
            tensor<int32, [2]> model_1_conv2d_transpose_3_conv2d_transposex_dilations_0 = const()[name = tensor<string, []>("model_1_conv2d_transpose_3_conv2d_transposex_dilations_0"), val = tensor<int32, [2]>([1, 1])];
            tensor<int32, [4]> model_1_conv2d_transpose_3_conv2d_transposex_pad_0 = const()[name = tensor<string, []>("model_1_conv2d_transpose_3_conv2d_transposex_pad_0"), val = tensor<int32, [4]>([0, 0, 0, 0])];
            tensor<int32, []> model_1_conv2d_transpose_3_conv2d_transposex_groups_0 = const()[name = tensor<string, []>("model_1_conv2d_transpose_3_conv2d_transposex_groups_0"), val = tensor<int32, []>(1)];
            tensor<fp16, [104, 16, 2, 2]> transpose_212_to_fp16 = const()[name = tensor<string, []>("transpose_212_to_fp16"), val = tensor<fp16, [104, 16, 2, 2]>(BLOBFILE(path = tensor<string, []>("@model_path/weights/weight.bin"), offset = tensor<uint64, []>(8963072)))];
            tensor<fp16, [16]> const_84_to_fp16 = const()[name = tensor<string, []>("const_84_to_fp16"), val = tensor<fp16, [16]>(BLOBFILE(path = tensor<string, []>("@model_path/weights/weight.bin"), offset = tensor<uint64, []>(8976448)))];
            tensor<fp16, [1, 16, 80, 128]> model_1_conv2d_transpose_3_BiasAdd_cast_fp16 = conv_transpose(bias = const_84_to_fp16, dilations = model_1_conv2d_transpose_3_conv2d_transposex_dilations_0, groups = model_1_conv2d_transpose_3_conv2d_transposex_groups_0, output_shape = model_1_conv2d_transpose_3_conv2d_transposex_output_shape_0, pad = model_1_conv2d_transpose_3_conv2d_transposex_pad_0, pad_type = model_1_conv2d_transpose_3_conv2d_transposex_pad_type_0, strides = model_1_conv2d_transpose_3_conv2d_transposex_strides_0, weight = transpose_212_to_fp16, x = model_1_re_lu_50_Relu_cast_fp16)[name = tensor<string, []>("model_1_conv2d_transpose_3_BiasAdd_cast_fp16")];
            tensor<string, []> model_1_depthwise_conv2d_6_depthwisex_pad_type_0 = const()[name = tensor<string, []>("model_1_depthwise_conv2d_6_depthwisex_pad_type_0"), val = tensor<string, []>("same")];
            tensor<int32, [2]> model_1_depthwise_conv2d_6_depthwisex_strides_0 = const()[name = tensor<string, []>("model_1_depthwise_conv2d_6_depthwisex_strides_0"), val = tensor<int32, [2]>([1, 1])];
            tensor<int32, [2]> model_1_depthwise_conv2d_6_depthwisex_dilations_0 = const()[name = tensor<string, []>("model_1_depthwise_conv2d_6_depthwisex_dilations_0"), val = tensor<int32, [2]>([1, 1])];
            tensor<int32, []> model_1_depthwise_conv2d_6_depthwisex_groups_0 = const()[name = tensor<string, []>("model_1_depthwise_conv2d_6_depthwisex_groups_0"), val = tensor<int32, []>(16)];
            tensor<int32, [4]> model_1_depthwise_conv2d_6_depthwisex_pad_0 = const()[name = tensor<string, []>("model_1_depthwise_conv2d_6_depthwisex_pad_0"), val = tensor<int32, [4]>([0, 0, 0, 0])];
            tensor<fp16, [16, 1, 3, 3]> const_214_to_fp16 = const()[name = tensor<string, []>("const_214_to_fp16"), val = tensor<fp16, [16, 1, 3, 3]>(BLOBFILE(path = tensor<string, []>("@model_path/weights/weight.bin"), offset = tensor<uint64, []>(8976576)))];
            tensor<fp16, [16]> const_215_to_fp16 = const()[name = tensor<string, []>("const_215_to_fp16"), val = tensor<fp16, [16]>(BLOBFILE(path = tensor<string, []>("@model_path/weights/weight.bin"), offset = tensor<uint64, []>(8976960)))];
            tensor<fp16, [1, 16, 80, 128]> model_1_batch_normalization_12_FusedBatchNormV3_nchw_cast_fp16 = conv(bias = const_215_to_fp16, dilations = model_1_depthwise_conv2d_6_depthwisex_dilations_0, groups = model_1_depthwise_conv2d_6_depthwisex_groups_0, pad = model_1_depthwise_conv2d_6_depthwisex_pad_0, pad_type = model_1_depthwise_conv2d_6_depthwisex_pad_type_0, strides = model_1_depthwise_conv2d_6_depthwisex_strides_0, weight = const_214_to_fp16, x = model_1_conv2d_transpose_3_BiasAdd_cast_fp16)[name = tensor<string, []>("model_1_batch_normalization_12_FusedBatchNormV3_nchw_cast_fp16")];
            tensor<fp16, [1, 16, 80, 128]> model_1_re_lu_51_Relu_cast_fp16 = relu(x = model_1_batch_normalization_12_FusedBatchNormV3_nchw_cast_fp16)[name = tensor<string, []>("model_1_re_lu_51_Relu_cast_fp16")];
            tensor<string, []> model_1_conv2d_6_Conv2Dx_pad_type_0 = const()[name = tensor<string, []>("model_1_conv2d_6_Conv2Dx_pad_type_0"), val = tensor<string, []>("same")];
            tensor<int32, [2]> model_1_conv2d_6_Conv2Dx_strides_0 = const()[name = tensor<string, []>("model_1_conv2d_6_Conv2Dx_strides_0"), val = tensor<int32, [2]>([1, 1])];
            tensor<int32, [2]> model_1_conv2d_6_Conv2Dx_dilations_0 = const()[name = tensor<string, []>("model_1_conv2d_6_Conv2Dx_dilations_0"), val = tensor<int32, [2]>([1, 1])];
            tensor<int32, []> model_1_conv2d_6_Conv2Dx_groups_0 = const()[name = tensor<string, []>("model_1_conv2d_6_Conv2Dx_groups_0"), val = tensor<int32, []>(1)];
            tensor<int32, [4]> model_1_conv2d_6_Conv2Dx_pad_0 = const()[name = tensor<string, []>("model_1_conv2d_6_Conv2Dx_pad_0"), val = tensor<int32, [4]>([0, 0, 0, 0])];
            tensor<fp16, [16, 16, 1, 1]> const_216_to_fp16 = const()[name = tensor<string, []>("const_216_to_fp16"), val = tensor<fp16, [16, 16, 1, 1]>(BLOBFILE(path = tensor<string, []>("@model_path/weights/weight.bin"), offset = tensor<uint64, []>(8977088)))];
            tensor<fp16, [16]> const_217_to_fp16 = const()[name = tensor<string, []>("const_217_to_fp16"), val = tensor<fp16, [16]>(BLOBFILE(path = tensor<string, []>("@model_path/weights/weight.bin"), offset = tensor<uint64, []>(8977664)))];
            tensor<fp16, [1, 16, 80, 128]> model_1_batch_normalization_13_FusedBatchNormV3_nchw_cast_fp16 = conv(bias = const_217_to_fp16, dilations = model_1_conv2d_6_Conv2Dx_dilations_0, groups = model_1_conv2d_6_Conv2Dx_groups_0, pad = model_1_conv2d_6_Conv2Dx_pad_0, pad_type = model_1_conv2d_6_Conv2Dx_pad_type_0, strides = model_1_conv2d_6_Conv2Dx_strides_0, weight = const_216_to_fp16, x = model_1_re_lu_51_Relu_cast_fp16)[name = tensor<string, []>("model_1_batch_normalization_13_FusedBatchNormV3_nchw_cast_fp16")];
            tensor<fp16, [1, 16, 80, 128]> model_1_re_lu_52_Relu_cast_fp16 = relu(x = model_1_batch_normalization_13_FusedBatchNormV3_nchw_cast_fp16)[name = tensor<string, []>("model_1_re_lu_52_Relu_cast_fp16")];
            tensor<bool, []> model_1_concatenate_3_concat_interleave_0 = const()[name = tensor<string, []>("model_1_concatenate_3_concat_interleave_0"), val = tensor<bool, []>(false)];
            tensor<int32, []> const_4 = const()[name = tensor<string, []>("const_4"), val = tensor<int32, []>(1)];
            tensor<fp16, [1, 80, 80, 128]> model_1_concatenate_3_concat_cast_fp16 = concat(axis = const_4, interleave = model_1_concatenate_3_concat_interleave_0, values = (model_1_re_lu_52_Relu_cast_fp16, model_1_model_re_lu_2_Relu_cast_fp16))[name = tensor<string, []>("model_1_concatenate_3_concat_cast_fp16")];
            tensor<string, []> model_1_depthwise_conv2d_7_depthwisex_pad_type_0 = const()[name = tensor<string, []>("model_1_depthwise_conv2d_7_depthwisex_pad_type_0"), val = tensor<string, []>("same")];
            tensor<int32, [2]> model_1_depthwise_conv2d_7_depthwisex_strides_0 = const()[name = tensor<string, []>("model_1_depthwise_conv2d_7_depthwisex_strides_0"), val = tensor<int32, [2]>([1, 1])];
            tensor<int32, [2]> model_1_depthwise_conv2d_7_depthwisex_dilations_0 = const()[name = tensor<string, []>("model_1_depthwise_conv2d_7_depthwisex_dilations_0"), val = tensor<int32, [2]>([1, 1])];
            tensor<int32, []> model_1_depthwise_conv2d_7_depthwisex_groups_0 = const()[name = tensor<string, []>("model_1_depthwise_conv2d_7_depthwisex_groups_0"), val = tensor<int32, []>(80)];
            tensor<int32, [4]> model_1_depthwise_conv2d_7_depthwisex_pad_0 = const()[name = tensor<string, []>("model_1_depthwise_conv2d_7_depthwisex_pad_0"), val = tensor<int32, [4]>([0, 0, 0, 0])];
            tensor<fp16, [80, 1, 3, 3]> const_218_to_fp16 = const()[name = tensor<string, []>("const_218_to_fp16"), val = tensor<fp16, [80, 1, 3, 3]>(BLOBFILE(path = tensor<string, []>("@model_path/weights/weight.bin"), offset = tensor<uint64, []>(8977792)))];
            tensor<fp16, [80]> const_219_to_fp16 = const()[name = tensor<string, []>("const_219_to_fp16"), val = tensor<fp16, [80]>(BLOBFILE(path = tensor<string, []>("@model_path/weights/weight.bin"), offset = tensor<uint64, []>(8979328)))];
            tensor<fp16, [1, 80, 80, 128]> model_1_batch_normalization_14_FusedBatchNormV3_nchw_cast_fp16 = conv(bias = const_219_to_fp16, dilations = model_1_depthwise_conv2d_7_depthwisex_dilations_0, groups = model_1_depthwise_conv2d_7_depthwisex_groups_0, pad = model_1_depthwise_conv2d_7_depthwisex_pad_0, pad_type = model_1_depthwise_conv2d_7_depthwisex_pad_type_0, strides = model_1_depthwise_conv2d_7_depthwisex_strides_0, weight = const_218_to_fp16, x = model_1_concatenate_3_concat_cast_fp16)[name = tensor<string, []>("model_1_batch_normalization_14_FusedBatchNormV3_nchw_cast_fp16")];
            tensor<fp16, [1, 80, 80, 128]> model_1_re_lu_53_Relu_cast_fp16 = relu(x = model_1_batch_normalization_14_FusedBatchNormV3_nchw_cast_fp16)[name = tensor<string, []>("model_1_re_lu_53_Relu_cast_fp16")];
            tensor<string, []> model_1_conv2d_7_Conv2Dx_pad_type_0 = const()[name = tensor<string, []>("model_1_conv2d_7_Conv2Dx_pad_type_0"), val = tensor<string, []>("same")];
            tensor<int32, [2]> model_1_conv2d_7_Conv2Dx_strides_0 = const()[name = tensor<string, []>("model_1_conv2d_7_Conv2Dx_strides_0"), val = tensor<int32, [2]>([1, 1])];
            tensor<int32, [2]> model_1_conv2d_7_Conv2Dx_dilations_0 = const()[name = tensor<string, []>("model_1_conv2d_7_Conv2Dx_dilations_0"), val = tensor<int32, [2]>([1, 1])];
            tensor<int32, []> model_1_conv2d_7_Conv2Dx_groups_0 = const()[name = tensor<string, []>("model_1_conv2d_7_Conv2Dx_groups_0"), val = tensor<int32, []>(1)];
            tensor<int32, [4]> model_1_conv2d_7_Conv2Dx_pad_0 = const()[name = tensor<string, []>("model_1_conv2d_7_Conv2Dx_pad_0"), val = tensor<int32, [4]>([0, 0, 0, 0])];
            tensor<fp16, [80, 80, 1, 1]> const_220_to_fp16 = const()[name = tensor<string, []>("const_220_to_fp16"), val = tensor<fp16, [80, 80, 1, 1]>(BLOBFILE(path = tensor<string, []>("@model_path/weights/weight.bin"), offset = tensor<uint64, []>(8979584)))];
            tensor<fp16, [80]> const_221_to_fp16 = const()[name = tensor<string, []>("const_221_to_fp16"), val = tensor<fp16, [80]>(BLOBFILE(path = tensor<string, []>("@model_path/weights/weight.bin"), offset = tensor<uint64, []>(8992448)))];
            tensor<fp16, [1, 80, 80, 128]> model_1_batch_normalization_15_FusedBatchNormV3_nchw_cast_fp16 = conv(bias = const_221_to_fp16, dilations = model_1_conv2d_7_Conv2Dx_dilations_0, groups = model_1_conv2d_7_Conv2Dx_groups_0, pad = model_1_conv2d_7_Conv2Dx_pad_0, pad_type = model_1_conv2d_7_Conv2Dx_pad_type_0, strides = model_1_conv2d_7_Conv2Dx_strides_0, weight = const_220_to_fp16, x = model_1_re_lu_53_Relu_cast_fp16)[name = tensor<string, []>("model_1_batch_normalization_15_FusedBatchNormV3_nchw_cast_fp16")];
            tensor<fp16, [1, 80, 80, 128]> model_1_re_lu_54_Relu_cast_fp16 = relu(x = model_1_batch_normalization_15_FusedBatchNormV3_nchw_cast_fp16)[name = tensor<string, []>("model_1_re_lu_54_Relu_cast_fp16")];
            tensor<string, []> model_1_conv2d_transpose_4_conv2d_transposex_pad_type_0 = const()[name = tensor<string, []>("model_1_conv2d_transpose_4_conv2d_transposex_pad_type_0"), val = tensor<string, []>("same")];
            tensor<int32, [4]> model_1_conv2d_transpose_4_conv2d_transposex_output_shape_0 = const()[name = tensor<string, []>("model_1_conv2d_transpose_4_conv2d_transposex_output_shape_0"), val = tensor<int32, [4]>([1, 1, 160, 256])];
            tensor<int32, [2]> model_1_conv2d_transpose_4_conv2d_transposex_strides_0 = const()[name = tensor<string, []>("model_1_conv2d_transpose_4_conv2d_transposex_strides_0"), val = tensor<int32, [2]>([2, 2])];
            tensor<int32, [2]> model_1_conv2d_transpose_4_conv2d_transposex_dilations_0 = const()[name = tensor<string, []>("model_1_conv2d_transpose_4_conv2d_transposex_dilations_0"), val = tensor<int32, [2]>([1, 1])];
            tensor<int32, [4]> model_1_conv2d_transpose_4_conv2d_transposex_pad_0 = const()[name = tensor<string, []>("model_1_conv2d_transpose_4_conv2d_transposex_pad_0"), val = tensor<int32, [4]>([0, 0, 0, 0])];
            tensor<int32, []> model_1_conv2d_transpose_4_conv2d_transposex_groups_0 = const()[name = tensor<string, []>("model_1_conv2d_transpose_4_conv2d_transposex_groups_0"), val = tensor<int32, []>(1)];
            tensor<fp16, [80, 1, 2, 2]> transpose_226_to_fp16 = const()[name = tensor<string, []>("transpose_226_to_fp16"), val = tensor<fp16, [80, 1, 2, 2]>(BLOBFILE(path = tensor<string, []>("@model_path/weights/weight.bin"), offset = tensor<uint64, []>(8992704)))];
            tensor<fp16, [1]> const_89_to_fp16 = const()[name = tensor<string, []>("const_89_to_fp16"), val = tensor<fp16, [1]>([-0x1.aep-4])];
            tensor<fp16, [1, 1, 160, 256]> model_1_conv2d_transpose_4_BiasAdd_cast_fp16 = conv_transpose(bias = const_89_to_fp16, dilations = model_1_conv2d_transpose_4_conv2d_transposex_dilations_0, groups = model_1_conv2d_transpose_4_conv2d_transposex_groups_0, output_shape = model_1_conv2d_transpose_4_conv2d_transposex_output_shape_0, pad = model_1_conv2d_transpose_4_conv2d_transposex_pad_0, pad_type = model_1_conv2d_transpose_4_conv2d_transposex_pad_type_0, strides = model_1_conv2d_transpose_4_conv2d_transposex_strides_0, weight = transpose_226_to_fp16, x = model_1_re_lu_54_Relu_cast_fp16)[name = tensor<string, []>("model_1_conv2d_transpose_4_BiasAdd_cast_fp16")];
            tensor<string, []> model_1_output_Conv2Dx_pad_type_0 = const()[name = tensor<string, []>("model_1_output_Conv2Dx_pad_type_0"), val = tensor<string, []>("valid")];
            tensor<int32, [2]> model_1_output_Conv2Dx_strides_0 = const()[name = tensor<string, []>("model_1_output_Conv2Dx_strides_0"), val = tensor<int32, [2]>([1, 1])];
            tensor<int32, [2]> model_1_output_Conv2Dx_dilations_0 = const()[name = tensor<string, []>("model_1_output_Conv2Dx_dilations_0"), val = tensor<int32, [2]>([1, 1])];
            tensor<int32, []> model_1_output_Conv2Dx_groups_0 = const()[name = tensor<string, []>("model_1_output_Conv2Dx_groups_0"), val = tensor<int32, []>(1)];
            tensor<int32, [4]> model_1_output_Conv2Dx_pad_0 = const()[name = tensor<string, []>("model_1_output_Conv2Dx_pad_0"), val = tensor<int32, [4]>([0, 0, 0, 0])];
            tensor<fp16, [1, 1, 1, 1]> conv_0_weight_0_to_fp16 = const()[name = tensor<string, []>("conv_0_weight_0_to_fp16"), val = tensor<fp16, [1, 1, 1, 1]>([[[[-0x1.1ap+0]]]])];
            tensor<fp16, [1]> conv_0_bias_0_to_fp16 = const()[name = tensor<string, []>("conv_0_bias_0_to_fp16"), val = tensor<fp16, [1]>([0x1.8ep-4])];
            tensor<fp16, [1, 1, 160, 256]> conv_0_cast_fp16 = conv(bias = conv_0_bias_0_to_fp16, dilations = model_1_output_Conv2Dx_dilations_0, groups = model_1_output_Conv2Dx_groups_0, pad = model_1_output_Conv2Dx_pad_0, pad_type = model_1_output_Conv2Dx_pad_type_0, strides = model_1_output_Conv2Dx_strides_0, weight = conv_0_weight_0_to_fp16, x = model_1_conv2d_transpose_4_BiasAdd_cast_fp16)[name = tensor<string, []>("conv_0_cast_fp16")];
            tensor<int32, [4]> model_1_output_Conv2D_perm_0 = const()[name = tensor<string, []>("model_1_output_Conv2D_perm_0"), val = tensor<int32, [4]>([0, 2, 3, 1])];
            tensor<fp16, [1, 160, 256, 1]> model_1_output_BiasAdd_cast_fp16 = transpose(perm = model_1_output_Conv2D_perm_0, x = conv_0_cast_fp16)[name = tensor<string, []>("transpose_234")];
            tensor<fp16, [1, 160, 256, 1]> model_1_output_Sigmoid_cast_fp16 = sigmoid(x = model_1_output_BiasAdd_cast_fp16)[name = tensor<string, []>("model_1_output_Sigmoid_cast_fp16")];
            tensor<string, []> model_1_output_Sigmoid_cast_fp16_to_fp32_dtype_0 = const()[name = tensor<string, []>("model_1_output_Sigmoid_cast_fp16_to_fp32_dtype_0"), val = tensor<string, []>("fp32")];
            tensor<fp32, [1, 160, 256, 1]> Identity = cast(dtype = model_1_output_Sigmoid_cast_fp16_to_fp32_dtype_0, x = model_1_output_Sigmoid_cast_fp16)[name = tensor<string, []>("cast_66")];
        } -> (Identity);
}